models/LinearModelV0.15.pt (torch, 5737 bytes, 7 tensors)

conv_layer.0.weight f4 [16, 1, 3]
-0.29397056 0.3104527 -0.7452614 -0.13905059 -0.50496566 -0.27429754 0.6893279 0.087482765
-0.008250124 0.006134289 -0.5082227 -0.9849268 0.5959006 0.7653654 1.0725477 0.12761463
0.016721405 -0.12361498 0.08065091 -0.056515522 -0.13364424 0.58159125 0.41278556 -0.52522004
-0.04591226 -0.22118476 -0.22675866 0.64647126 0.26807222 0.57629466 0.007214159 -0.018411519
0.31463003 -0.7089191 0.09115874 -0.16146637 -0.79931194 -0.42862988 -0.8312411 -0.5937636
0.118050374 -0.5208428 0.3480786 0.4413687 0.33353823 0.35852057 0.1848031 0.88645977
00000000: 4f83 96be a8f3 9e3e 73c9 3ebf 4763 0ebe
00000010: 6e45 01bf ba70 8cbe cb77 303f 2a2a b33d
00000020: 872b 07bc 2502 c93b e21a 02bf 2a24 7cbf
00000030: f18c 183f fdee 433f 3e49 893f 69ad 023e
00000040: 54fb 883c da29 fdbd 4e2c a53d d27c 67bd
00000050: 09da 08be 2ae3 143f a158 d33e d274 06bf
00000060: 7e0e 3cbd 427e 62be 6c33 68be 247f 253f
00000070: c340 893e 0c88 133f c064 ec3b c1d3 96bc
00000080: 3017 a13e b97b 35bf 6fb1 ba3d 7157 25be
00000090: b59f 4cbf 6075 dbbe 37cc 54bf e400 18bf
000000a0: 65c4 f13d f455 05bf 5c37 b23e 14fb e13e
000000b0: 86c5 aa3e 0290 b73e 063d 3d3e 07ef 623f

conv_layer.0.bias f4 [16]
-0.2971434 -0.22495903 0.6152019 -0.23898405 0.23636019 0.028244125 -0.061747476 -0.112808295
-0.006056099 -0.52523184 -0.40385926 -0.25910154 -0.2573054 -0.19887389 -0.096710496 0.14295192
00000000: 2e23 98be a95b 66be df7d 1d3f 3cb8 74be
00000010: 6808 723e 3960 e73c ecea 7cbd 0908 e7bd
00000020: 3e72 c6bb 9875 06bf a4c6 cebe f5a8 84be
00000030: 89bd 83be 99a5 4bbe 2710 c6bd fd61 123e

layer_1.1.weight f4 [16, 32]
-0.06889457 -0.44762766 0.07726275 -0.09864452 0.38641188 0.16362128 0.17143475 -0.15901136
0.27637577 0.5982411 0.10925788 -0.008195832 0.0919222 -0.06912585 0.3605356 -0.0018488201
0.20720549 0.02653938 0.28784233 0.3617229 -0.19033404 0.074597284 -0.35130903 -0.16767024
-0.25882518 -0.6034306 -0.05551981 -0.20273764 0.028621823 0.21494195 -0.019501759 0.29772052
-0.297021 -0.07251598 -0.24001412 -0.26208675 0.18781528 0.0015185873 -0.2736766 -0.38119596
0.39562905 0.4969773 -0.07105043 -0.0064054355 -0.047208972 -0.110154875 -0.07161407 0.15730463
0.011672124 -0.01805976 0.045183733 -0.02357369 0.21353462 0.04770909 -0.10233936 -0.1396507
-0.6297084 -0.17459247 -0.44591737 -0.16540134 0.24837759 0.1028566 0.37721807 0.3479027
0.028618854 0.13165121 -0.14978668 -0.1833633 0.045337737 0.28030628 -0.020200666 0.18395227
0.11499758 0.06937098 -0.10983487 -0.020421358 -0.19959207 0.029330017 0.06373991 0.36058474
-0.08239593 -0.0790492 -0.033689667 0.036422636 -0.1467083 -0.32298866 -0.17075038 -0.02685206
-0.17836106 -0.040453628 -0.058501225 -0.104411595 -0.006091978 0.18105306 0.15571983 -0.14986749
-0.07861996 -0.13879561 -0.2559423 -0.2156712 0.46883693 0.12765361 0.11057224 -0.017976
0.16521943 0.16736789 0.15643428 -0.022144916 0.082207814 -0.147632 0.14326836 -0.10010896
-0.045716997 0.020446021 0.10541433 -0.052605037 0.0033137465 -0.13838671 -0.46697542 -0.25163692
-0.41479826 -0.10756636 -0.061169468 -0.16528182 0.13143581 -0.13216199 0.11999051 0.45110202
0.0034623207 0.26245975 -0.042709757 -0.06732391 -0.51866156 -0.20162795 0.031948503 0.022050463
-0.0075798337 0.32623795 -0.25128356 0.16759235 -0.254958 0.17531109 -0.2069713 0.1917182
-0.17940222 0.0037120222 0.273514 0.37291646 0.25406188 0.025121277 0.5957227 -0.0058741984
0.14092618 -0.16326822 0.37247303 0.047039572 0.0023186535 0.37217683 0.06437396 0.052099545
0.29077438 0.046775263 0.032208957 0.2190256 -0.105912544 0.0101395445 0.094471276 0.5628624
0.03999645 -0.73627156 0.030025044 0.19233447 -0.07042615 0.40318242 -0.12745842 0.35671073
-0.16897497 0.15301685 -0.07320507 -0.14626816 -0.1450453 -0.089163706 0.39348534 -0.10514618
0.21989213 0.25291982 0.34461284 0.067712024 0.024230018 -0.15826313 -0.12755224 -0.5666088
0.017792992 -0.070426784 -0.17425665 0.16617063 -0.041332997 -0.020888139 0.02712446 -0.13573208
-0.04147693 -0.026619952 0.0154855335 -0.0995306 -0.14797077 -0.108166106 0.07835585 -0.16278376
-0.013826382 0.083547324 -0.19148776 -0.04968975 -0.009104292 0.04135258 0.086054526 -0.16386488
0.0065900246 0.18988496 0.041971173 -0.23026897 -0.11533397 -0.15079506 -0.27104414 -0.047631495
-0.2560724 0.09391471 -0.010357606 -0.17673707 0.2875277 0.10928973 -0.34959215 -0.26877904
0.41191378 0.22539042 0.1359518 0.108362034 0.15074359 0.008423731 0.14725788 -0.10716313
-0.13127883 0.02044403 0.0029408564 -0.07997012 -0.12339225 -0.005750569 -0.13352115 -0.12902568
-0.35031372 -0.3356329 -0.10098327 -0.045223072 -0.019359386 0.12673393 0.5020224 0.085714094
00000000: 9918 8dbd 742f e5be ef3b 9e3d 2306 cabd
00000010: c7d7 c53e 568c 273e 978c 2f3e e0d3 22be
00000020: 2081 8d3e 5426 193f 98c2 df3d d047 06bc
00000030: b541 bc3d db91 8dbd 1f98 b83e 1c54 f2ba
00000040: ad2d 543e 1d69 d93c 1260 933e be33 b93e
00000050: ede6 42be 76c6 983d c7de b3be bfb1 2bbe
00000060: bc84 84be 6e7a 1abf be68 63bd 759a 4fbe
00000070: 5078 ea3c be19 5c3e 27c2 9fbc d36e 983e
00000080: 2313 98be 4283 94bd 43c6 75be 3c30 86be
00000090: a652 403e 560b c73a 571f 8cbe 1e2c c3be
000000a0: e48f ca3e cf73 fe3e e382 91bd b0e4 d1bb
000000b0: 325e 41bd e198 e1bd 66aa 92bd 7714 213e
000000c0: 703c 3f3c 10f2 93bc 9412 393d 9c1d c1bc
000000d0: d2a8 5a3e 9b6a 433d 4c97 d1bd 9800 0fbe
000000e0: 9234 21bf 5ec8 32be 484f e4be f85e 29be
000000f0: b256 7e3e 7ba6 d23d ba22 c13e 4d20 b23e
00000100: 1672 ea3c 93cf 063e ae61 19be 97c3 3bbe
00000110: 10b4 393d 4e84 8f3e de7b a5bc fc5d 3c3e
00000120: da83 eb3d 5f12 8e3d 1bf1 e0bd b14a a7bc
00000130: dd61 4cbe 8145 f03c 128a 823d 909e b83e
00000140: 33bf a8bd 8ce4 a1bd 2dfe 09bd e72f 153d
00000150: b33a 16be c55e a5be 30d9 2ebe daf8 dbbc
00000160: 48a4 36be b4b2 25bd fb9e 6fbd bfd5 d5bd
00000170: 379f c7bb f965 393e 0575 1f3e dd76 19be
00000180: 8003 a1bd 7020 0ebe df0a 83be e9d8 5cbe
00000190: 650b f03e a1b7 023e b373 e23d 6842 93bc
000001a0: 482f 293e 7d62 2b3e 4f30 203e 4169 b5bc
000001b0: 925c a83d d82c 17be f1b4 123e ed05 cdbd
000001c0: bf41 3bbd 6a7e a73c 78e3 d73d 6178 57bd
000001d0: 712b 593b 3fb5 0dbe 6717 efbe 8ed6 80be
000001e0: 7060 d4be c04b dcbd d68c 7abd a33f 29be
000001f0: 1c97 063e 7955 07be 96bd f53d d8f6 e63e
00000200: 1ae8 623b 2061 863e 6df0 2ebd 1ee1 89bd
00000210: 01c7 04bf 8f77 4ebe 6fdc 023d 2ca3 b43c
00000220: 4160 f8bb a908 a73e 3da8 80be 549d 2b3e
00000230: db89 82be c084 333e 49f0 53be c751 443e
00000240: 37b5 37be 6645 733b 070a 8c3e e8ee be3e
00000250: 6614 823e 23cb cd3c 4881 183f 597c c0bb
00000260: f44e 103e c92f 27be c9b4 be3e 91ac 403d
00000270: 8df4 173b f68d be3e 7fd6 833d 5566 553d
00000280: 61e0 943e 6b97 3f3d 8aed 033d 3f48 603e
00000290: ade8 d8bd 5520 263c 287a c13d c017 103f
000002a0: 51d3 233d 4b7c 3cbf 15f7 f53c 54f3 443e
000002b0: 963b 90bd ed6d ce3e 7684 02be caa2 b63e
000002c0: c607 2dbe 73b0 1c3e 8aec 95bd 52c7 15be
000002d0: c186 14be 769b b6bd e976 c93e e156 d7bd
000002e0: 672b 613e b57e 813e 1871 b03e 9aac 8a3d
000002f0: 087e c63c bb0f 22be 0e9d 02be 460d 11bf
00000300: 9cc2 913c eb3b 90bd 5670 32be a228 2a3e
00000310: ca4c 29bd 9a1d abbc 1e34 de3c 5afd 0abe
00000320: b7e3 29bd 1612 dabc 09b7 7d3c b3d6 cbbd
00000330: a685 17be 3186 ddbd 0879 a03d c9b0 26be
00000340: 0d88 62bc dc1a ab3d 5e15 44be 7b87 4bbd
00000350: 2b2a 15bc 5361 293d 5b3d b03d 32cc 27be
00000360: 22f1 d73b 3471 423e f7e9 2b3d a1cb 6bbe
00000370: 3734 ecbd 056a 1abe 4cc6 8abe 3e19 43bd
00000380: ec1b 83be 5b56 c03d f3b2 29bc 90fa 34be
00000390: d536 933e 4bd3 df3d befd b2be 689d 89be
000003a0: 5de6 d23e bfcc 663e f336 0b3e eaec dd3d
000003b0: 875c 1a3e b003 0a3c c5ca 163e 5878 dbbd
000003c0: f56d 06be 3d7a a73c 62bb 403b 60c7 a3bd
000003d0: 13b5 fcbd 456f bcbb c5b9 08be 4f1f 04be
000003e0: 525c b3be 13d8 abbe 51d0 cebd d43b 39bd
000003f0: 9397 9ebc 8ac6 013e 8a84 003f df8a af3d

layer_1.1.bias f4 [16]
0.16640423 0.06598059 0.26157892 0.056352723 -0.48931208 -0.02186446 0.2311744 0.10139795
-0.057421986 -0.034725454 0.0422179 0.1803545 0.013110276 0.12873928 0.06520237 0.2340751
00000000: df65 2a3e d520 873d aced 853e 1dd2 663d
00000010: 1d87 fabe 191d b3bc fbb8 6c3e baa9 cf3d
00000020: 5133 6bbd 473c 0ebd adec 2c3d daae 383e
00000030: 7ccc 563c 3bd4 033e d288 853d 62b1 6f3e

action_head.weight f4 [4, 16]
-0.09628978 -0.17642468 0.19400273 0.29803643 -0.40489396 0.3117317 -0.07559889 0.17434406
-0.5367072 -0.31555608 0.08191025 -0.12956467 0.43373388 0.30614895 -0.067600064 0.47704485
0.52193785 0.52060384 -0.36543667 0.27248883 -0.006150296 -0.81914306 -0.2568401 0.36936337
1.0713469 0.94437736 0.2569837 0.7542223 -0.90143305 -0.72305757 0.38570437 -0.39559335
-0.26350686 -0.0038792489 0.17569754 -0.31085223 0.49371707 0.4131032 -0.15795821 0.05269851
-0.5077239 -0.016613694 -0.46581623 -0.09908703 0.31772402 0.28647956 -0.09941559 -0.49000138
-0.004486175 -0.7040679 -0.17277572 0.026661402 -0.022818143 0.26043186 -0.007600744 -0.38232505
-0.29934666 -0.3897797 0.05244727 -0.3437189 0.47906563 0.07705486 -0.41426033 0.04989291
00000000: 9433 c5bd aca8 34be a7a8 463e 3b98 983e
00000010: 434e cfbe 4c9b 9f3e 97d3 9abd 4087 323e
00000020: a565 09bf 9190 a1be 90c0 a73d 9aac 04be
00000030: 5e12 de3e 8ebf 9c3e e771 8abd 393f f43e
00000040: b89d 053f 4b46 053f 841a bbbe a883 8b3e
00000050: 6c88 c9bb 5cb3 51bf 8c80 83be 321d bd3e
00000060: e521 893f b7c2 713f 5e93 833e b614 413f
00000070: 51c4 66bf 4d1a 39bf 0b7b c53e 368b cabe
00000080: 5fea 86be ff3a 7ebb 0eea 333e 0628 9fbe
00000090: 7cc8 fc3e 4382 d33e ccbf 21be 65da 573d
000000a0: 32fa 01bf 7119 88bc 777f eebe 24ee cabd
000000b0: b9ac a23e 73ad 923e 679a cbbd 76e1 fabe
000000c0: c300 93bb cb3d 34bf 1eec 30be 0369 da3c
000000d0: 1ded babc 5357 853e a90f f9bb 1cc0 c3be
000000e0: f743 99be 3491 c7be f3d2 563d ecfb afbe
000000f0: 1748 f53e f0ce 9d3d ee19 d4be 825c 4c3d

action_head.bias f4 [4]
0.64587307 -0.083693855 -0.38190052 -0.1225327
00000000: f057 253f af67 abbd 7788 c3be 6df2 fabd

value_head.weight f4 [1, 16]
0.7901612 0.31195652 0.17330605 0.49407202 -0.12903167 -0.09850316 0.04376488 0.2998847
0.20520368 0.25760505 0.4608022 0.52066404 -0.08469162 -0.009425671 -0.0063530393 -0.17749104
00000000: 0148 4a3f c4b8 9f3e 2477 313e 02f7 fc3e
00000010: e120 04be 06bc c9bd ce42 333d 7d8a 993e
00000020: ea20 523e cfe4 833e 44ee eb3e 3d4a 053f
00000030: cd72 adbd 216e 1abc 282d d0bb 36c0 35be
