models/LinearModelV0.41.pt (torch, 5737 bytes, 7 tensors)

conv_layer.0.weight f4 [16, 1, 3]
000000 d1 46 86 be 07 48 31 be 6d 5c 0f bf fe 70 0e 3e
       -0.26225904 -0.17312633 -0.56000406 0.1391029
000010 aa 70 2c 3f 16 36 44 3f 0f 95 26 3f 5f 23 18 be
       0.6735941 0.7664503 0.65071195 -0.14857243
000020 59 06 2e 3f e2 25 a1 3e f9 eb 31 3e 58 f1 67 3f
       0.67978436 0.31474215 0.17375173 0.90602636
000030 59 c4 fa 3e ce e7 ea bd b3 2c 2f bf d3 bc f2 bd
       0.48977926 -0.114699945 -0.6842758 -0.118524216
000040 8a a1 a6 bd 71 46 22 be d5 1c 6c 3d 9c cc 0d 3e
       -0.0813628 -0.15847184 0.057644684 0.13847584
000050 13 5b b8 3d 85 90 93 3e 87 2d 8b 3e 9e 76 06 3f
       0.09001746 0.28821197 0.27183172 0.52524745
000060 95 83 be 3e 83 ee ba 3e 6f d0 de 3e 7b a9 95 bd
       0.37209764 0.36510095 0.43518397 -0.073077165
000070 3d 6e 61 3e ce 7c c8 be aa 49 79 bd 94 84 f0 3e
       0.22014709 -0.39157718 -0.060861267 0.4697615
000080 c6 16 32 bf b3 01 ff 3e 52 1a 42 3e 18 23 69 3f
       -0.69566 0.49805984 0.18955353 0.91069174
000090 fd 61 17 bf d4 ca 05 3e 56 1e ec 3d 18 5a 2c 3f
       -0.59133893 0.13065654 0.115292236 0.6732497
0000a0 f8 26 14 3f a7 07 3c 3f b9 d0 ad ba 7a fc 40 bd
       0.5787196 0.73449177 -0.0013261057 -0.04711578
0000b0 bb 34 86 bd aa 00 6a bf 22 5c 08 bf b1 f7 61 3d
       -0.06553026 -0.91407263 -0.53265584 0.055167858

conv_layer.0.bias f4 [16]
000000 81 c7 37 be 9a 2f b4 3e b3 6a d3 3d d6 f3 2f 3e
       -0.17947198 0.35192567 0.10323086 0.1718286
000010 8e f7 3f bd a7 5c 1d bd b6 9c 9f 3c fd e4 55 3e
       -0.046866946 -0.03841844 0.019483905 0.20888133
000020 37 0b 4e 3d 98 3d 98 bd 6b 58 25 bc 9f 1a a9 bd
       0.050303664 -0.07433623 -0.010091881 -0.08257031
000030 34 06 52 3d 6d 9e a1 bd 01 75 d2 bc 83 f3 82 be
       0.051275447 -0.078915454 -0.025690557 -0.2557641

layer_1.1.weight f4 [16, 32]
000000 cd bc 20 3e 35 be 49 be 97 26 2a be 04 3d 9d 3e
       0.15697022 -0.19701464 -0.16616283 0.30710614
000010 c9 9f 20 3e 72 6d fd 3e 4c d3 73 bc 70 9e 48 3f
       0.15685953 0.49497563 -0.01488192 0.78366756
000020 10 ee 96 3e 97 f6 ce be cf bb 4c bd 3d c2 3f be
       0.29478502 -0.40422508 -0.049983796 -0.1872644
000030 2e 17 8f bb 57 32 69 bd 75 27 4f be 7c 52 78 3e
       -0.004366777 -0.056932773 -0.20229895 0.24250215
000040 ba 19 86 3d 0f cb 59 3e d1 1b 4a 3e e7 86 7c be
       0.06547876 0.21268867 0.19737174 -0.24660836
000050 88 42 71 3e 42 20 f7 be 8a a3 f8 ba a5 6b 28 3f
       0.23560536 -0.48266798 -0.0018969637 0.6578925
000060 17 96 c9 bd fa 8e 06 bd 2d 3c 7d 3e aa 2d 12 3f
       -0.098430805 -0.032851197 0.24729986 0.5710093
000070 c0 52 8d 3d 37 5b 18 3c 84 2b a3 be e5 01 0d 3e
       0.06900549 0.009299091 -0.31869137 0.13770254
000080 34 9a dd 3e 2c 4c 9d 3c 99 1a 39 bf 5b 0f 93 be
       0.4328171 0.01920136 -0.7230621 -0.28722653
000090 56 7f 3a be e7 6d d4 bb ee 9b d5 be 9b 79 01 bd
       -0.18212637 -0.006482828 -0.41720527 -0.031610113
0000a0 b4 05 9b bc c1 c9 ff be da 67 0e 3e e0 73 aa bb
       -0.018923618 -0.49958614 0.13906804 -0.0052018017
0000b0 a1 ee cf bd 1b 02 7f 3d ef d1 0e bf 3d 58 1a be
       -0.10152937 0.062257867 -0.55789083 -0.15072723
0000c0 d4 ca f7 bd 07 b3 fc bc 2f 1d 99 3c 6d 13 09 be
       -0.12099233 -0.030847086 0.018690674 -0.13386317
0000d0 57 80 38 3d 48 80 ba be 67 1c 1d 3c b5 8e ef 3d
       0.04504427 -0.36425996 0.009589291 0.11697141
0000e0 22 aa 3a bd ff 5b fe 3e 5c 11 99 be f8 e6 8b bd
       -0.045572408 0.49679562 -0.29896057 -0.06831163
0000f0 ac ae ab 3d 82 0a bb bc f3 de bd 3e 8e 6d 3b 3f
       0.083829254 -0.022832159 0.3708416 0.7321404
000100 23 83 d9 3d 9a b5 ef 3d a1 99 43 3d 23 63 2e be
       0.106207155 0.117045596 0.047753934 -0.17030005
000110 b2 33 97 bd 2c 8b 07 bc 29 ac a8 3c 8f ad 0b 3d
       -0.07382907 -0.008272927 0.020589905 0.034101065
000120 0b 14 e8 bd 14 33 54 b8 0a 98 60 3d 45 bc 60 3d
       -0.11331948 -5.059231e-05 0.054832496 0.054867048
000130 07 b8 e1 bd d7 f4 45 bd 62 be 6a 3d 41 a0 65 bd
       -0.110214286 -0.0483292 0.05731047 -0.056061033
000140 a2 16 83 bd e6 e2 0b 3d 54 d6 39 3d 3f 98 ae bd
       -0.06400801 0.034151934 0.045370415 -0.085251324
000150 25 59 83 3d 03 b2 fb bd 01 a0 d2 3d 5f 06 72 bc
       0.06413487 -0.122898124 0.102844246 -0.014772027
000160 63 33 98 3c f9 84 40 3d 66 72 a6 bd 7a 70 02 3e
       0.01857919 0.047001813 -0.081272885 0.12738219
000170 54 59 eb 3d 6b be 84 3b b3 af 00 be 20 3a 09 be
       0.11491647 0.00405102 -0.12567024 -0.13401079
000180 59 ba c5 3c 45 95 3a 3c ea 12 5a 3d 52 8d 7c bd
       0.024136709 0.011388128 0.053240694 -0.06165821
000190 d2 12 73 be 7f c4 07 3e 9c 87 a3 bd a2 1c 8a bc
       -0.23737648 0.13258551 -0.0798485 -0.016859356
0001a0 85 f3 50 bd e6 66 a8 bc b6 6b e9 3b c2 c2 e1 3d
       -0.05101349 -0.020556878 0.007123436 0.11023475
0001b0 15 c1 3e bc af 5d 00 3c d2 c9 23 3d 45 42 f6 bd
       -0.011642714 0.007834836 0.039987393 -0.12024359
0001c0 c9 82 67 bd 10 e4 87 3a ca b4 6e 3c 56 54 17 bd
       -0.05652121 0.001036765 0.014569471 -0.036945663
0001d0 29 d1 33 3e 7b 8f 09 be 65 c4 30 bd 31 07 31 3e
       0.17560257 -0.1343364 -0.043156046 0.172879
0001e0 3b 23 69 3c e9 34 44 be ee d7 3c 3e 7a d5 15 3d
       0.014229591 -0.19160809 0.18441746 0.03658054
0001f0 d1 ce fa 3c 2e 10 ef 3c eb 81 00 3e 74 bc e9 bc
       0.030616196 0.02918252 0.1254956 -0.028532244
000200 1e 6e fa 3d 8c 1e 83 3d b8 24 c6 bc 21 b6 4b 3e
       0.122280344 0.06402311 -0.02418743 0.19893695
000210 0e 47 79 3d f0 fe d6 3d 7f 16 96 3c 45 12 68 3e
       0.06085878 0.10497844 0.018321274 0.2266322
000220 11 0b ff 3b 05 e1 0e be 2e 75 07 3d a0 92 b6 3c
       0.0077833016 -0.13953026 0.033070736 0.022286713
000230 e3 0a ae bc c1 2f e7 bc 62 93 08 3e 60 df 4a bd
       -0.021245426 -0.028221013 0.13337472 -0.049529433
000240 8f f4 0f bd 21 e8 32 3e 4f 48 32 3e d1 f8 53 3c
       -0.03514534 0.17471363 0.17410396 0.01293774
000250 b2 69 07 3e 7d 4b 36 be ea 27 0c 3e 47 7e 50 3e
       0.13223913 -0.17802234 0.13687101 0.20360671
000260 6d f0 4e 3d a8 15 0c be 04 47 84 3e d0 81 83 3e
       0.050522257 -0.13680136 0.2583543 0.25684977
000270 b2 7d 27 3d 69 83 d8 3d 16 a1 8f be 95 80 68 bd
       0.040891357 0.105719395 -0.28052586 -0.05676325
000280 06 84 f5 bc 94 12 8b bd 59 94 d1 bd f0 19 b1 bd
       -0.02997018 -0.06790653 -0.10233373 -0.08647525
000290 9b f0 f0 3d cf 9c 1c be 84 24 39 3d 3f 23 8e bd
       0.11764642 -0.15294193 0.04520084 -0.069403164
0002a0 9b 6d 6b 3d 7a 7a ce bd 1d 94 84 ba 07 b1 be 3d
       0.057477575 -0.10081954 -0.0010114942 0.09311109
0002b0 b6 3d 34 bd 1d b8 d9 bd d8 c8 af bd 11 3a c9 bd
       -0.044004165 -0.1063082 -0.0858323 -0.098255284
0002c0 aa f5 79 3c 91 58 b6 bd 90 68 80 3b 1b 31 96 3d
       0.015256325 -0.089036115 0.003918715 0.07333585
0002d0 72 b9 c6 bd 87 52 02 3d c6 de cb 3c 36 61 62 bc
       -0.0970334 0.031816985 0.0248865 -0.013817122
0002e0 c3 2d a3 bd 46 dd 91 3e a1 ef 8f be 3e 5a 10 be
       -0.07967713 0.2848913 -0.2811251 -0.14096925
0002f0 64 3c 6f 3d 47 7a 90 3d 6f 35 6a 3e d9 ed a0 3e
       0.058407202 0.070545726 0.22871946 0.31431463
000300 86 2b 15 be 19 44 54 be 5c 31 a1 3d 19 14 ca 3e
       -0.14567384 -0.20729102 0.07870743 0.39468458
000310 9b f3 32 3e de f4 cd 3d 98 f0 af bb 28 78 8f 3e
       0.1747574 0.1005647 -0.005369257 0.2802136
000320 c1 98 96 3e 71 02 77 be 58 ce 6a 3d c6 f3 42 bd
       0.29413417 -0.24122025 0.05732569 -0.04759576
000330 6f 61 1c 3d b5 08 01 3e 8b 27 5d bd 38 b1 8b 3e
       0.038178857 0.12600978 -0.05399279 0.27283645
000340 8c 73 54 3d 1b cd 16 ba 28 10 fa bd 96 ec 56 bd
       0.051868007 -0.0005752609 -0.12210113 -0.05247172
000350 00 0c 49 bd 9a d4 31 bd 66 4c 21 3d 39 2e 95 3e
       -0.04908371 -0.043415643 0.0393795 0.29136828
000360 93 70 cb bd 5a 1b 60 3e c5 7c 28 3e a0 56 af 3c
       -0.09933581 0.21885434 0.16453846 0.02140361
000370 da 54 db 3d 5d ac 81 3c a6 e8 b2 be 39 36 e8 3c
       0.107095435 0.01582926 -0.34943122 0.028346168
000380 0e f5 c8 3c c2 1b 2d be 4f 0a 5d be e3 cb 5c 3e
       0.024530914 -0.1690512 -0.21585964 0.21562152
000390 6f 60 55 3d 42 0f b6 3d 5f 3d b4 3d 49 f4 9b 3e
       0.05209392 0.08889629 0.08800768 0.30459812
0003a0 c1 a4 8b 3e 46 68 78 be 39 5f 1c 3e dd f4 35 3d
       0.27274135 -0.24258527 0.152707 0.044422973
0003b0 2a 7b a6 bc fe 62 f7 3d 6b 9f 8b bd e0 91 07 3d
       -0.020322401 0.12079428 -0.06817516 0.0330981
0003c0 fc 42 92 be 98 dc 1d 3e d0 d8 80 bd 78 94 4a 3d
       -0.2856673 0.15416181 -0.06291354 0.049457997
0003d0 7b d1 90 bd d5 f9 8f bd 26 fd c2 bc a5 7f 4d bc
       -0.07071205 -0.070300736 -0.023802351 -0.01254264
0003e0 9e 95 80 be 76 e1 d5 3e c9 5b 11 bd 71 d1 1d 3e
       -0.2511415 0.41773576 -0.035487924 0.15411927
0003f0 0b 36 cf bc ec 85 ac bd 88 6b 78 bd 5a ae ce 3d
       -0.025294324 -0.08423981 -0.060649425 0.10091849

layer_1.1.bias f4 [16]
000000 ae 56 56 3d 3c d6 be be 90 15 ee 3b e8 f4 0f be
       0.052328758 -0.37272823 0.007265754 -0.14058268
000010 ce e0 81 3d 59 1e 57 3d 8e 27 cb 3d f2 5a 85 bd
       0.06341706 0.052519176 0.09919654 -0.06511487
000020 c1 c3 87 bd 6f e9 2c 3e 6d c2 ba 3d 2b 13 f3 bd
       -0.06629134 0.16885923 0.09119115 -0.118688904
000030 6a a4 95 3e d6 5b 2a be c8 ad 7c be f3 94 8d bb
       0.29227 -0.16636595 -0.24675667 -0.0043207346

action_head.weight f4 [4, 16]
000000 dc 4f 3a bf 0b e7 95 bd b0 d4 d8 bd 6f a3 db be
       -0.72778106 -0.073194586 -0.10587442 -0.42898127
000010 cf e1 f0 be ba 66 bb 3e c4 22 58 3e bf 34 dc 3e
       -0.47047278 0.36601812 0.21107012 0.43008992
000020 d4 ba a7 3e 65 2f e9 3e 04 08 1d 3f 94 d7 62 3f
       0.32759726 0.45543972 0.61340356 0.88610196
000030 9f 6b ce 3e 2d 46 9c bf 45 29 9c bf f7 b7 a0 3d
       0.40316483 -1.2208916 -1.2200094 0.078475885
000040 0d da c3 3e a9 4d a4 3f 9c da 94 bd c5 5a 44 3f
       0.38252297 1.28362 -0.07268259 0.76701003
000050 26 db a7 be 3e 30 16 3f 74 9a 76 bf 87 32 fa 3c
       -0.32784384 0.5866736 -0.96329427 0.030541671
000060 71 29 65 bd 27 7b 3c bf f6 a7 0a 3d 7e 25 9b 3f
       -0.055947725 -0.73625416 0.033851586 1.2120817
000070 e2 85 13 c0 2b 8e cf 3d 43 e8 06 3f cf 45 4c 3e
       -2.3050466 0.10134538 0.52698153 0.19948505
000080 cd ca c5 3e 99 4d 8c bf 93 1c e7 3d 77 9d 80 be
       0.38631287 -1.0961181 0.11284747 -0.25120136
000090 e7 ab 08 3f 42 9f 20 bf 7f 23 ff 3e 88 1f a1 be
       0.533873 -0.6274301 0.4983177 -0.3146937
0000a0 d8 be 9d 3e ed e0 09 3f ff 4a 16 bf c1 e3 81 bf
       0.30809665 0.53858835 -0.58708185 -1.014763
0000b0 a1 ec 1b 3f 32 35 13 3f 99 bc c8 3e 48 91 90 3b
       0.6090794 0.57503045 0.3920639 0.00441185
0000c0 e6 0f 3c 3e 27 5a 91 be c1 a0 39 3e 9a cf 91 3c
       0.1836544 -0.28389093 0.18127729 0.017799187
0000d0 13 ac f7 3b 9e d9 a6 be 77 4e 62 ba f5 fd 10 be
       0.0075583546 -0.32587904 -0.0008632908 -0.14159377
0000e0 63 12 27 be 57 6b 11 be 48 f2 98 be 74 b6 8c be
       -0.16315608 -0.14201103 -0.29872346 -0.2748295
0000f0 99 9e d2 3e 5e 38 bf 3e e2 c4 86 3e 23 72 71 be
       0.41136625 0.37347692 0.26322085 -0.23578696

action_head.bias f4 [4]
000000 1c e4 8a bc 7a d9 2d bf 9a b4 e9 3d 6d a0 27 3f
       -0.016954474 -0.6790997 0.114114 0.65479165

value_head.weight f4 [1, 16]
000000 ca ea 50 3e 99 ff 5b 3c 0c 4a 1e bc 2d 08 4b bc
       0.20402065 0.013427638 -0.009661209 -0.012392086
000010 c8 b5 fa 3c aa a9 f1 3b 03 95 64 3d 75 10 27 3d
       0.030604258 0.007374962 0.05580617 0.04078718
000020 bf d4 d8 3d e4 2a ad 3c 15 a6 f3 3c a9 25 7b 3c
       0.10587453 0.021138616 0.02974228 0.015328803
000030 fc 00 cf 3c ca 9e aa bc 25 8c d1 3c c4 16 9f 3d
       0.025269024 -0.02082767 0.025579521 0.07768014
