models/LinearModelV0.23.pt (torch, 5609 bytes, 7 tensors)

conv_layer.0.weight f4 [16, 1, 3]
0.4491687 0.5890356 1.1296374 -0.32320818 0.040381394 -0.7081389 0.75637054 0.15285508
0.61378574 -0.5687429 -0.02880879 -0.53565246 0.14819354 -0.3603655 -0.32201478 0.088389546
0.3686664 0.46325132 -0.7577443 -0.38745156 -0.29301623 -0.94608396 -0.4413978 -0.2797689
-0.033395004 0.42048636 0.8946788 0.94350034 0.50083023 -0.1484587 0.060129113 0.08888377
0.9152507 0.6384656 0.38791457 -0.40905526 0.049526103 0.33705994 0.48059168 -0.12283818
-0.075224474 -0.0071238624 -0.19534947 -0.17284548 -0.8212607 -0.6322627 -0.25940108 -0.70685214
00000000: 71f9 e53e 09cb 163f f597 903f 8b7b a5be
00000010: f666 253d 9748 35bf 80a1 413f 0b86 1c3e
00000020: 1021 1d3f 2299 11bf 6900 ecbc 8520 09bf
00000030: 0cc0 173e d481 b8be 1fdf a4be 9405 b53d
00000040: d8c1 bc3e 472f ed3e 88fb 41bf 0d60 c6be
00000050: 3906 96be 8f32 72bf e4fe e1be df3d 8fbe
00000060: 33c9 08bd fd49 d73e ab09 653f 3d89 713f
00000070: 6936 003f 8f05 18be f249 763d b208 b63d
00000080: df4d 6a3f 7b72 233f bd9c c63e b16f d1be
00000090: e2db 4a3d 1f93 ac3e 1d10 f63e 9592 fbbd
000000a0: 4a0f 9abd 4a6f e9bb b109 48be 68fe 30be
000000b0: 243e 52bf f8db 21bf 38d0 84be 43f4 34bf

conv_layer.0.bias f4 [16]
-0.1272577 0.23926423 0.30371648 -0.36184445 0.123406835 -0.16023456 0.21737318 -0.58437985
0.36380854 -0.029463425 0.23626025 -0.09559864 0.11439557 -0.08240236 -0.036614392 -0.049100336
00000000: d84f 02be af01 753e ba80 9b3e ad43 b9be
00000010: b9bc fc3d 8714 24be 1397 5e3e eb99 15bf
00000020: 1d45 ba3e 485d f1bc 35ee 713e 38c9 c3bd
00000030: 3948 ea3d 92c2 a8bd f9f8 15bd 6f1d 49bd

layer_1.1.weight f4 [16, 32]
0.07543336 0.24685454 -0.14845891 -0.046601437 -0.19556278 0.24776137 0.26179767 -0.06785481
-0.23804611 -0.026193785 0.08464857 0.061258417 -0.12239722 -0.21381995 0.2505201 -0.03323829
0.075514466 -0.16309817 -0.1534349 0.035417702 -0.093531825 0.13785125 0.014112869 0.048516523
0.06953587 0.0020369017 -0.08016113 0.023680547 0.046244808 -0.04377151 -0.005363987 -0.29488146
-0.13547365 -0.7334147 0.32022128 0.57320935 0.21727942 -0.13452198 -0.007051835 0.13706107
-0.0263343 0.41209978 0.028314058 -0.33649653 0.20215142 0.017009184 -0.13124645 -0.11723349
0.24648969 -0.26959938 0.0349097 0.030836694 0.17556451 -0.45042545 0.04908518 0.103023745
0.26671398 -0.26444492 -0.0024033186 -0.20329225 0.044973593 0.5488299 -0.021599011 0.50250655
0.33700666 0.32419166 -0.14446852 -0.3226551 0.19048166 0.2810743 -0.100237966 -0.1811907
-0.0020074127 -0.11694589 0.18033835 0.22026236 -0.28357586 -0.38397944 -0.16734475 -0.19925214
0.0037390715 0.224451 0.226551 0.19868824 -0.07646116 0.30950165 0.21623331 0.1519666
0.09253843 -0.08953138 -0.08621573 0.09894366 -0.20065327 -0.3205785 -0.30811936 -0.20424795
-0.16981521 -0.6296708 0.37833282 -0.099743165 -0.43571293 -0.14400697 0.4391505 0.07095496
-0.267299 0.32646388 -0.04578481 -0.32750475 -0.07368712 -0.1527184 0.123482935 -0.028470531
-0.326574 -0.5803854 0.23874578 0.09136543 -0.61364555 -0.4131535 0.34487134 0.23806669
0.095441155 -0.57333535 -0.09612423 0.021817429 0.6542962 0.30924317 0.4486514 0.2785146
-0.18172313 -0.17069653 0.037694138 0.06381164 -0.40080968 -0.22017854 0.4388955 0.12018403
-0.007200847 -0.24905846 -0.14346609 0.17370398 0.16724141 -0.17359123 0.5141324 0.2860877
-0.15191868 -0.20842485 -0.41288087 -0.019435577 -0.0305451 -0.15999885 -0.18182796 0.019337716
-0.07921634 0.04588681 -0.07195939 0.05557425 0.19673838 -0.09079416 0.5604857 0.036954165
-0.43305144 -0.20579427 0.21580009 0.072212584 -0.4619609 -0.29389563 0.32878256 0.0059375595
-0.07473302 0.07931038 -0.21314828 -0.1513218 0.33818564 0.11395299 0.54917353 0.33656645
-0.14396203 0.03584228 -0.16424684 -0.14219259 -0.12620471 -0.095224485 -0.2408301 -0.019990327
0.00458887 -0.15719546 0.011241551 0.07447764 0.25973758 0.21298885 0.453967 0.34824178
-0.55038285 -0.50431335 0.452794 0.213444 -0.3735778 -0.26361945 0.12542623 0.0076852916
-0.0033569345 0.27864063 -0.21855512 -0.14443927 0.02532487 0.0036231577 0.07414161 0.08762461
-0.28065783 -0.49208194 0.32275933 0.101396136 -0.65968 -0.54338384 0.23583297 -0.009772246
-0.14097476 -0.5964493 -0.057464693 -0.08252541 0.4357122 0.4389396 0.4352961 0.21579304
-0.020112146 0.08930692 0.031672563 -0.011871137 -0.2872694 -0.03660226 0.097865686 0.07579747
-0.14957504 -0.09980715 0.16052888 0.13286594 0.15370455 -0.115025066 0.5160928 0.03136534
0.12425646 0.016071483 -0.23413187 0.20939676 0.17418793 -0.06124993 -0.38443375 0.055346083
-0.03707523 0.038423005 0.24115472 0.055047814 -0.059336033 0.062768534 0.13925184 0.071836844
00000000: ce7c 9a3d 70c7 7c3e 9d05 18be 26e1 3ebd
00000010: 9c41 48be 28b5 7d3e 580a 863e 76f7 8abd
00000020: 5cc2 73be 5994 d6bc 3b5c ad3d 1bea 7a3d
00000030: 65ab fabd 9ef3 5abe 2c44 803e e024 08bd
00000040: 54a7 9a3d 3503 27be 0a1e 1dbe 2712 113d
00000050: 9d8d bfbd e128 0d3e aa39 673c 43b9 463d
00000060: d268 8e3d 8a7d 053b 852b a4bd b5fd c13c
00000070: 326b 3d3d c149 33bd 62c4 afbb b4fa 96be
00000080: 9bb9 0abe 11c1 3bbf 0bf4 a33e d9bd 123f
00000090: 7f7e 5e3e 21c0 09be 1413 e7bb bd59 0c3e
000000a0: 08bb d7bc befe d23e e2f2 e73c 4649 acbe
000000b0: c800 4f3e d856 8b3c 7865 06be 1d18 f0bd
000000c0: cb67 7c3e ee08 8abe 79fd 0e3d 3c9d fc3c
000000d0: 2fc7 333e 2a9e e6be 8b0d 493d 1dfe d23d
000000e0: bc8e 883e 5365 87be ff80 1dbb d82b 50be
000000f0: 3b36 383d 1e80 0c3f 69f0 b0bc 45a4 003f
00000100: 238c ac3e 73fc a53e 8eef 13be 0d33 a5be
00000110: a00d 433e f8e8 8f3e 9049 cdbd 0e8a 39be
00000120: cc8e 03bb 5481 efbd 9eaa 383e 758c 613e
00000130: db30 91be f498 c4be 6c5c 2bbe c108 4cbe
00000140: 360b 753b 7cd6 653e fcfc 673e ee74 4b3e
00000150: ab97 9cbd 0077 9e3e 446c 5d3e 229d 1b3e
00000160: ca84 bd3d 3a5c b7bd df91 b0bd f9a2 ca3d
00000170: 0d78 4dbe dd22 a4be d2c1 9dbe 6026 51be
00000180: 0ae4 2dbe 1b32 21bf d7b4 c13e 2546 ccbd
00000190: c415 dfbe 9076 13be 56d8 e03e d650 913d
000001a0: 6adb 88be 4626 a73e da88 3bbd b4ae a7be
000001b0: 46e9 96bd 3662 1cbe 9fe4 fc3d 083b e9bc
000001c0: b534 a7be 2394 14bf c679 743e cc1d bb3d
000001d0: e017 1dbf db88 d3be fa92 b03e c1c7 733e
000001e0: a776 c33d 1bc6 12bf c8dc c4bd 77ba b23c
000001f0: f57f 273f 1f55 9e3e a3b5 e53e 7799 8e3e
00000200: a115 3abe 12cb 2ebe 2b65 1a3d adaf 823d
00000210: ed36 cdbe 7c76 61be e9b6 e03e 0b23 f63d
00000220: 15f5 ebbb 2e09 7fbe c6e8 12be 75df 313e
00000230: 5541 2b3e e6c1 31be 2e9e 033f 167a 923e
00000240: 9290 1bbe 536d 55be 1f65 d3be 5c37 9fbc
00000250: b839 fabc bdd6 23be 1c31 3abe 216a 9e3c
00000260: 2d3c a2bd cff3 3b3d 725f 93bd d3a1 633d
00000270: c975 493e 4af2 b9bd fe7b 0f3f 405d 173d
00000280: ebb8 ddbe bcbb 52be b3fa 5c3e 31e4 933d
00000290: 2486 ecbe 7d79 96be 3056 a83e dc8f c23b
000002a0: a00d 99bd 7b6d a23d 8b43 5abe 1af4 1abe
000002b0: ab26 ad3e 2f60 e93d a396 0c3f 7052 ac3e
000002c0: c86a 13be 5bcf 123d 5330 28be ef9a 11be
000002d0: cf3b 01be 0e05 c3bd 2a9c 76be c1c2 a3bc
000002e0: 3b5e 963b d9f7 20be 7b2e 383c bc87 983d
000002f0: 53fc 843e c019 5a3e 5d6e e83e bf4c b23e
00000300: e4e5 0cbf ae1a 01bf 9dd4 e73e 1091 5a3e
00000310: 9745 bfbe 21f9 86be bc6f 003e e6d4 fb3b
00000320: 0400 5cbb fca9 8e3e eacc 5fbe e3e7 13be
00000330: 1a76 cf3c 8072 6d3b 8ed7 973d 8874 b33d
00000340: 62b2 8fbe 2af2 fbbe b640 a53e c7a8 cf3d
00000350: cae0 28bf 341b 0bbf 337e 713e c51b 20bc
00000360: b05b 10be e7b0 18bf 1960 6bbd 1503 a9bd
00000370: ab15 df3e b1bc e03e 21df de3e daf8 5c3e
00000380: 3ac2 a4bc 8ce6 b63d 17bb 013d 287f 42bc
00000390: fa14 93be 40ec 15bd ce6d c83d b43b 9b3d
000003a0: 332a 19be b167 ccbd af61 243e 020e 083e
000003b0: ba64 1d3e 4392 ebbd a81e 043f f178 003d
000003c0: 2c7a fe3d 58a8 833c 44c0 6fbe 1b6c 563e
000003d0: 525e 323e 35e1 7abd 80d4 c4be 93b2 623d
000003e0: 32dc 17bd 7161 1d3d 43f1 763e d179 613d
000003f0: 570a 73bd ca8c 803d 0998 0e3e 321f 933d

layer_1.1.bias f4 [16]
-0.2907239 0.4534327 -0.17166373 -0.253628 -0.2373207 -0.2887738 0.017037157 -0.24694912
0.36553955 0.28352654 0.091684036 0.18255253 0.12610386 0.30609742 0.20573513 0.05325291
00000000: c3d9 94be 5528 e83e 9ec8 2fbe 87db 81be
00000010: 3304 73be 29da 93be 8291 8b3c 3be0 7cbe
00000020: 0028 bb3e 642a 913e d7c4 bb3d 0def 3a3e
00000030: 5f21 013e cdb8 9c3e 3bac 523e b91f 5a3d

action_head.weight f4 [4, 16]
-0.2952562 0.64700365 -0.3743779 0.35699698 -0.14574641 0.07364713 0.20007841 -0.051370345
0.33511323 -0.28157738 0.5309344 -0.22350675 0.001282369 0.14986052 0.047895916 0.19822338
0.14878212 -0.68543077 0.5551243 -0.81784576 -0.09661454 -0.2870844 -1.0744238 0.2230543
-0.08657448 0.75904816 -1.1101481 0.6493387 0.31816807 0.37727407 0.12266109 -0.58999825
0.25125837 0.08800015 0.10598481 0.3943583 0.3536405 0.16129236 -0.10653359 0.5967462
-0.39637065 -0.38458565 0.5930984 -0.0829801 -0.9233721 -0.4576554 -0.0052873287 0.04403897
-0.076706424 0.03344803 -0.16254014 0.61195076 0.188745 0.3382401 0.33607373 0.018093139
0.072741576 -0.39055622 0.1430387 -0.24606936 0.10790433 -0.21791013 -0.23233478 0.23574512
00000000: d22b 97be 08a2 253f 76ae bfbe 4fc8 b63e
00000010: 8c3e 15be 4ed4 963d 5be1 4c3e b669 52bd
00000020: f693 ab3e e92a 90be 51eb 073f f4de 64be
00000030: 2a15 a83a 0975 193e 822e 443d 12fb 4a3e
00000040: 575a 183e 6478 2fbf a01c 0e3f 575e 51bf
00000050: d8dd c5bd bafc 92be b886 89bf 5968 643e
00000060: f64d b1bd fb50 423f 5519 8ebf 103b 263f
00000070: ede6 a23e 112a c13e bd35 fb3d 200a 17bf
00000080: f0a4 803e 6c39 b43d 900e d93d 55e9 c93e
00000090: 5e10 b53e d329 253e 482e dabd 5cc4 183f
000000a0: 18f1 cabe 69e8 c4be 4cd5 173f 78f1 a9bd
000000b0: 1d62 6cbf cf51 eabe 5441 adbb 3562 343d
000000c0: 4218 9dbd cd00 093d ec70 26be cea8 1c3f
000000d0: 5f46 413e ce2d ad3e db11 ac3e 1038 943c
000000e0: 89f9 943d fcf6 c7be bd78 123e 9bf9 7bbe
000000f0: f2fc dc3d d523 5fbe 2be9 6dbe 2b67 713e

action_head.bias f4 [4]
0.656983 0.18064858 -0.39186287 -0.3069087
00000000: 0a30 283f f1fb 383e 40a2 c8be 2323 9dbe

value_head.weight f4 [1, 16]
-0.0061529265 0.048494294 0.27666277 0.06711684 -0.37148362 -0.4280505 -0.012585605 -0.22563934
0.43826368 0.22899617 -0.36824593 0.29109666 -0.047823355 0.25345767 0.22148484 -0.25313818
00000000: 7d9e c9bb f4a1 463d bea6 8d3e 8e74 893d
00000010: 1a33 bebe 6f29 dbbe da33 4ebc 000e 67be
00000020: 1964 e03e f97d 6a3e bb8a bcbe 9f0a 953e
00000030: 6ce2 43bd 34c5 813e eccc 623e 549b 81be
