models/LinearModelV0.28.pt (torch, 5609 bytes, 7 tensors)

conv_layer.0.weight f4 [16, 1, 3]
0	0x3ede42e9	0.43410423
1	0x3f16a024	0.58838105
2	0x3f911456	1.1334331
3	0xbe903d9c	-0.28172004
4	0x3cefedaf	0.029288141
5	0xbf32d9d7	-0.6986365
6	0x3f3ad3a1	0.7297917
7	0x3e1b1d92	0.15147999
8	0x3f1d3ff8	0.61425734
9	0xbf069a56	-0.5257925
10	0xbd1854ea	-0.037190355
11	0xbf0a2031	-0.5395537
12	0x3df16107	0.117860846
13	0xbeb20ab9	-0.34773806
14	0xbe999ffe	-0.30004877
15	0x3dca073c	0.09864661
16	0x3eb4c91a	0.35309678
17	0x3ede1c34	0.43380892
18	0xbf31f542	-0.6951486
19	0xbebe0d72	-0.37119633
20	0xbe911c09	-0.28341702
21	0xbf6ee813	-0.9332287
22	0xbedb53ff	-0.4283752
23	0xbe97348a	-0.29532272
24	0xbc03e1c4	-0.008049432
25	0x3edc57a8	0.43035626
26	0x3f634a49	0.88785225
27	0x3f6929db	0.9107949
28	0x3ef40a17	0.47663948
29	0xbe1e943f	-0.15486239
30	0x3d3e50a1	0.046463612
31	0x3dfece95	0.12441746
32	0x3f678294	0.9043362
33	0x3f1d0e5a	0.61350024
34	0x3eb4eaaa	0.35335284
35	0xbed5384b	-0.4164451
36	0x3d65ed6d	0.05613463
37	0x3ea52de4	0.32261574
38	0x3eee7d1e	0.46579832
39	0xbdc46631	-0.09589804
40	0xbd8236ad	-0.06358085
41	0xbcab56f7	-0.020915492
42	0xbe2f457d	-0.17116351
43	0xbe479e01	-0.19493867
44	0xbf4cea21	-0.8004475
45	0xbf184bab	-0.5949046
46	0xbe845d13	-0.2585226
47	0xbf341495	-0.70343906

conv_layer.0.bias f4 [16]
0	0xbdfc84c0	-0.123300076
1	0x3e7893b8	0.242751
2	0x3e9b1023	0.3028575
3	0xbeb3e4bb	-0.35135445
4	0x3db4952b	0.08817514
5	0xbe04d6fc	-0.12972635
6	0x3e5de5c6	0.21669683
7	0xbf1410aa	-0.5783793
8	0x3ec044df	0.37552544
9	0xbcedd4b3	-0.029032087
10	0x3e7838ed	0.24240465
11	0xbdb9f5f3	-0.09080114
12	0x3e0f4742	0.13992026
13	0xbd96c3ca	-0.073615626
14	0xbd2bf31d	-0.041979898
15	0xbd5335ec	-0.051565096

layer_1.1.weight f4 [16, 32]
0	0x3dd0c37b	0.10193535
1	0x3e57ecfb	0.21086495
2	0xbe2b5428	-0.16731322
3	0xbc4f0d36	-0.012637427
4	0xbe1d70a1	-0.15374996
5	0x3e3fbbcf	0.18723987
6	0x3e5edf3e	0.21764848
7	0xbcae9e6e	-0.02131578
8	0xbe5d4c73	-0.21611194
9	0xbc00f30a	-0.007870445
10	0x3da43c34	0.08019295
11	0x3d06060a	0.032720603
12	0xbe0ef005	-0.13958748
13	0xbe3c7694	-0.18404609
14	0x3e6ee987	0.23331271
15	0xbc3727ed	-0.011178953
16	0x3dba96e9	0.09110815
17	0xbe424051	-0.18969847
18	0xbe0e61bb	-0.13904469
19	0x3cee508c	0.029091142
20	0xbd4e0679	-0.05029914
21	0x3daeff94	0.085448414
22	0x3c7667ae	0.015039368
23	0x3d6c61e8	0.05771056
24	0x3da58534	0.08082047
25	0xbcf35980	-0.029705763
26	0xbdbb894d	-0.091570474
27	0x3c1cf504	0.009579901
28	0x3b59b546	0.003321962
29	0x3b6d68be	0.0036225761
30	0xbd5a9fc7	-0.05337503
31	0xbe771722	-0.24129918
32	0xbe2b1705	-0.16708
33	0xbf4040be	-0.7509879
34	0x3eb29ca8	0.34885144
35	0x3f12fb75	0.5741494
36	0x3e6b9e38	0.23009574
37	0xbdd04675	-0.101696886
38	0xbca46247	-0.020066394
39	0x3dc887c6	0.09791522
40	0xbc5fc580	-0.0136579275
41	0x3ed6b90d	0.41938058
42	0x3bcfa1c1	0.0063364212
43	0xbeb06250	-0.34450006
44	0x3e4e3cd2	0.20140389
45	0x3d0af4e5	0.033924956
46	0xbe32c545	-0.17458065
47	0xbe2143cc	-0.15748519
48	0x3e668840	0.22512913
49	0xbe84c14e	-0.2592873
50	0x3d6dd82d	0.05806749
51	0x3cb8894a	0.022526402
52	0x3e08955c	0.13338226
53	0xbed80042	-0.42187697
54	0x3d9a6f6f	0.075407855
55	0x3db93f52	0.090452805
56	0x3e7374be	0.23775002
57	0xbe877d31	-0.264627
58	0xbbcd0b51	-0.0062574525
59	0xbe378098	-0.17920148
60	0x3db8480e	0.08998118
61	0x3f083189	0.53200585
62	0x3b681f5c	0.0035419082
63	0x3efe5f2f	0.49681994
64	0x3ebdedb6	0.37095422
65	0x3ea1e5c0	0.31620598
66	0xbe324cec	-0.17412156
67	0xbe9e5583	-0.30924615
68	0x3e60d378	0.21955669
69	0x3e80742f	0.2508864
70	0xbdfdf44d	-0.12400112
71	0xbe181f60	-0.14855719
72	0xba76c2fc	-0.000941321
73	0xbdeb2928	-0.11482459
74	0x3e3fe79a	0.18740693
75	0x3e59ba4b	0.21262471
76	0xbe9aa20a	-0.3020175
77	0xbebfb989	-0.3744624
78	0xbe2c84a4	-0.16847473
79	0xbe35b21a	-0.17743722
80	0x3c489550	0.01224263
81	0x3e57b32d	0.21064444
82	0x3e6d677b	0.23184006
83	0x3e462fe8	0.19354212
84	0xbd1fc1cc	-0.03900318
85	0x3e8e547a	0.27798826
86	0x3e53b092	0.20672825
87	0x3e1e6a21	0.15470172
88	0x3dcfdb7a	0.10149284
89	0xbdd0283a	-0.101639226
90	0xbdaca69e	-0.08430217
91	0x3db61272	0.08890237
92	0xbe806039	-0.25073412
93	0xbe97c067	-0.2963898
94	0xbeb5b55d	-0.35489932
95	0xbe3df436	-0.1855019
96	0xbe148b3c	-0.14506239
97	0xbf1f59e1	-0.6224652
98	0x3eb1fe44	0.34764302
99	0xbdbec32f	-0.09314572
100	0xbee5079f	-0.44732377
101	0xbe2c07ee	-0.167999
102	0x3ee49d30	0.44651175
103	0x3dd2068d	0.10255156
104	0xbe8c12b5	-0.27358022
105	0x3e9ed02b	0.31018195
106	0xbcba5546	-0.02274574
107	0xbea122cd	-0.31471863
108	0xbd896c8a	-0.06710155
109	0xbe1f1913	-0.15536909
110	0x3e29d597	0.16585384
111	0xba25881c	-0.00063145324
112	0xbea091ae	-0.31361145
113	0xbf17855b	-0.5918786
114	0x3e53851a	0.20656243
115	0x3dc35205	0.09537128
116	0xbf126343	-0.5718271
117	0xbedf5255	-0.43617502
118	0x3e9e4337	0.30910656
119	0x3e7e705c	0.24847549
120	0x3dd70660	0.10499263
121	0xbf0f163a	-0.5589329
122	0xbd99615e	-0.074892744
123	0x3c987067	0.018608285
124	0x3f1632e1	0.58671385
125	0x3ea4838f	0.3213162
126	0x3ed8cdd8	0.42344546
127	0x3e91e118	0.28492045
128	0xbe34b280	-0.17646217
129	0xbe39aab4	-0.18131524
130	0x3d1b314e	0.037888817
131	0x3d9cd281	0.07657338
132	0xbece1a6e	-0.4025454
133	0xbe6d821e	-0.23194167
134	0x3edd4a09	0.43220547
135	0x3e094c0b	0.13407914
136	0xbb4e8da6	-0.0031517535
137	0xbe705fb2	-0.23474005
138	0xbe134d62	-0.14384988
139	0x3e20e170	0.15710998
140	0x3e3822a4	0.17981964
141	0xbe2b19ac	-0.16709012
142	0x3f074345	0.5283702
143	0x3e948159	0.29004934
144	0xbe0b2089	-0.1358663
145	0xbe60285d	-0.21890397
146	0xbedaf443	-0.42764482
147	0xbc806a79	-0.01567577
148	0xbc092d92	-0.008372681
149	0xbe382c69	-0.17985691
150	0xbe4a5da6	-0.19762287
151	0x3ce06b0a	0.02739479
152	0xbd8cb12c	-0.0686973
153	0x3d15d444	0.036579385
154	0xbda43a28	-0.08018905
155	0x3d2dc754	0.042426422
156	0x3e318e4a	0.17339435
157	0xbd8d3bf3	-0.068962
158	0x3f0c148c	0.5471885
159	0x3d4e5b71	0.050380174
160	0xbededd5d	-0.43528262
161	0xbe542d31	-0.20720364
162	0x3e61e960	0.22061682
163	0x3d986ab4	0.07442227
164	0xbef43c85	-0.47702423
165	0xbe9686a9	-0.29399613
166	0x3eacc235	0.33741918
167	0x3c2d5ec5	0.010581677
168	0xbd95f629	-0.07322342
169	0x3da66a43	0.081257366
170	0xbe567d0b	-0.20946138
171	0xbe1dd381	-0.15412714
172	0x3eb3ba72	0.35103184
173	0x3de37a79	0.11107344
174	0x3f11a867	0.56897587
175	0x3eacb7da	0.33734018
176	0xbe0c685d	-0.13711686
177	0x3ce18fd1	0.027534397
178	0xbe3aa84a	-0.1822826
179	0xbe0c9831	-0.13729931
180	0xbdf87adf	-0.12132811
181	0xbdce14e8	-0.10062581
182	0xbe7ecce1	-0.24882843
183	0xbc760241	-0.015015186
184	0x3c104b62	0.008807035
185	0xbe1b650e	-0.15175268
186	0x3b81682d	0.0039491863
187	0x3d897e45	0.06713537
188	0x3e8150b1	0.25256875
189	0x3e5dc0a3	0.21655516
190	0x3eec8ab1	0.46199563
191	0x3eb1b15e	0.34705633
192	0xbf098c83	-0.5373003
193	0xbeeee8cf	-0.46661994
194	0x3ee218b4	0.44159472
195	0x3e38795d	0.18015046
196	0xbed9b007	-0.4251711
197	0xbe7ccc5c	-0.24687332
198	0x3e36fdd9	0.17870273
199	0x3c32d6fe	0.010915516
200	0xbd23013d	-0.039796103
201	0x3e825edb	0.25462994
202	0xbe371f82	-0.17883113
203	0xbdea8044	-0.11450246
204	0x3d57f82d	0.052726913
205	0xbd110969	-0.035409365
206	0x3e004007	0.12524424
207	0x3dc7a178	0.097475946
208	0xbe8e6cce	-0.27817386
209	0xbef813b2	-0.48452526
210	0x3e8b852a	0.27250034
211	0x3dfacac9	0.122457094
212	0xbf266d61	-0.6501065
213	0xbf04e4fe	-0.51911914
214	0x3e4c1671	0.19930436
215	0x3c1ed8d4	0.009695251
216	0xbe00717f	-0.12543295
217	0xbf0d7101	-0.55250555
218	0xbd0b823c	-0.034059748
219	0xbd955004	-0.072906524
220	0x3ed64938	0.41852736
221	0x3ece78ce	0.40326542
222	0x3ef04aba	0.46932012
223	0x3e37287f	0.17886542
224	0xbc491bf5	-0.012274732
225	0x3d67c660	0.05658567
226	0x3d0a9484	0.03383304
227	0x3c8ad213	0.016945874
228	0xbe845617	-0.2584693
229	0xbd6b24d8	-0.057408184
230	0x3d8a33b7	0.06748145
231	0x3dbbc8a6	0.0916913
232	0xbe03988e	-0.12851164
233	0xbd94e141	-0.07269526
234	0x3e0e82a2	0.1391702
235	0x3dcc0c10	0.09963238
236	0x3e18de68	0.14928591
237	0xbdba2471	-0.09088982
238	0x3efc9aff	0.49337003
239	0x3cd8270c	0.026385807
240	0x3e0ee136	0.13953099
241	0xbbcb0dba	-0.0061967047
242	0xbe6640fe	-0.2248573
243	0x3e538fd5	0.20660336
244	0x3e4c3174	0.1994074
245	0xbdc4c5fc	-0.09608075
246	0xbec1e782	-0.3787194
247	0x3d848f16	0.06472604
248	0xbcf7ea47	-0.03026308
249	0x3c51fde2	0.012816878
250	0x3e5af80c	0.21383685
251	0x3d2d9be4	0.042384997
252	0xbda2eb27	-0.07955008
253	0x3dc86b51	0.09786094
254	0x3de07d52	0.10961403
255	0x3dd0d7d3	0.10197415

layer_1.1.bias f4 [16]
0	0xbe97fc90	-0.29684877
1	0x3f01ae67	0.5065674
2	0xbe4286bb	-0.18996708
3	0xbe9215de	-0.28532308
4	0xbe7d4c9d	-0.24736257
5	0xbe97abe5	-0.29623333
6	0xbc88a6f8	-0.01668118
7	0xbe6e9d9a	-0.23302308
8	0x3ebd73d6	0.37002438
9	0x3e936481	0.28787616
10	0x3e06fe8c	0.1318304
11	0x3e388133	0.18018036
12	0x3dbf6729	0.09345848
13	0x3ea3d501	0.31998447
14	0x3e6ccfed	0.23126192
15	0x3d41ff21	0.04736245

action_head.weight f4 [4, 16]
0	0xbe8ab7cb	-0.27093348
1	0x3f2392f8	0.6389613
2	0xbeaca287	-0.3371775
3	0x3ed86b27	0.4226925
4	0xbe22afb0	-0.15887332
5	0x3d6b4107	0.05743506
6	0x3e698910	0.22806191
7	0xbd9e4173	-0.07727327
8	0x3ebcf1b1	0.36903146
9	0xbe887b2c	-0.26656473
10	0x3ef171cc	0.47157133
11	0xbe3e797c	-0.1860103
12	0x3cc5ec01	0.024160387
13	0x3e197e74	0.14989644
14	0x3d1fe108	0.039032966
15	0x3e29defc	0.16588968
16	0x3e2fe4c9	0.17177118
17	0xbf3e410e	-0.74318016
18	0x3f151f61	0.58251005
19	0xbf5dc800	-0.866333
20	0xbda61a69	-0.08110506
21	0xbe91cbe4	-0.2847587
22	0xbf916336	-1.1358402
23	0x3e7cfa87	0.24704944
24	0xbe02b6bc	-0.1276502
25	0x3f486d26	0.7829155
26	0xbf9286b3	-1.1447357
27	0x3f2b217c	0.6684797
28	0x3ea8f0a2	0.32996088
29	0x3ebf591d	0.37372676
30	0x3dfa67a9	0.12226803
31	0xbf1adcbb	-0.6049306
32	0x3e3bd3e6	0.18342552
33	0x3e033858	0.12814462
34	0x3d030983	0.031991493
35	0x3ec88fa7	0.39172098
36	0x3ea43335	0.32070318
37	0x3e16ced0	0.1472733
38	0xbcac39fe	-0.021023747
39	0x3f0bf98d	0.5467766
40	0xbebaafe8	-0.3646233
41	0xbed0be33	-0.4077011
42	0x3f21b7df	0.6317119
43	0xbe051f20	-0.13000154
44	0xbf5bf87e	-0.85926044
45	0xbed4d302	-0.41567236
46	0x3bcc2d37	0.006230976
47	0x3dd6dfaa	0.10491879
48	0xbd85f473	-0.065407656
49	0x3c555f74	0.013023246
50	0xbe399bf0	-0.18125892
51	0x3f0cf707	0.55064434
52	0x3e723b44	0.2365542
53	0x3ec25669	0.3795655
54	0x3e957ef4	0.2919842
55	0x3d88f6ab	0.06687673
56	0x3c6f8c10	0.014620796
57	0xbed3e58c	-0.41386068
58	0x3e572ab2	0.2101238
59	0xbe8c4638	-0.27397323
60	0x3d881ad1	0.0664574
61	0xbe84288f	-0.25812194
62	0xbe6c3468	-0.23066866
63	0x3e80e308	0.2517321

action_head.bias f4 [4]
0	0x3f3b0aa9	0.7306314
1	0x3e255600	0.16146088
2	0xbece7fc3	-0.4033185
3	0xbec78f64	-0.38976586

value_head.weight f4 [1, 16]
0	0x3c06437d	0.008194801
1	0x3d2361f8	0.039888352
2	0x3e9ae8ef	0.3025584
3	0x3d9ea835	0.07746927
4	0xbec64bd3	-0.38729724
5	0xbeead281	-0.45863727
6	0xbc55c404	-0.013047222
7	0xbe67d2c8	-0.22639
8	0x3ee9cecc	0.45665586
9	0x3e6f63af	0.2337787
10	0xbec850f2	-0.39124256
11	0x3e9f67e5	0.31133953
12	0xbd895e24	-0.06707409
13	0x3e82834d	0.254908
14	0x3e6a3c2c	0.22874516
15	0xbe889d2f	-0.26682422
