models/LinearModelV0.8.pt (torch, 2391 bytes, 5 tensors)

layer_1.0.weight f4 [2, 4]
000000 10 bd f1 3f 64 42 08 c0 a6 fa ee 3f 7e 6e 77 bd
       1.8885822 -2.1290522 1.8670242 -0.060408108
000010 97 04 c5 bf cf 4d 0e c0 c7 cb cf bf aa 9c 0f c0
       -1.5392026 -2.223499 -1.6234063 -2.243937

layer_1.0.bias f4 [2]
000000 f8 f6 b4 bf 9e 75 00 be
       -1.4137869 -0.12544867

action_head.weight f4 [4, 2]
000000 83 c9 65 c1 29 b6 57 bf 7e b3 3e 41 fc 59 a8 be
       -14.361697 -0.8426233 11.918821 -0.32881153
000010 bc e2 d0 3d fa 64 38 3c 16 32 04 c0 cc a6 19 40
       0.10199496 0.011254543 -2.065557 2.4008055

action_head.bias f4 [4]
000000 7c 66 5a 3f f8 f5 e6 3f ca ed c9 3f 0a 59 42 c0
       0.8531263 1.8043814 1.5775692 -3.0366845

value_head.weight f4 [1, 2]
000000 ba 44 65 3f 3f 64 a0 bf
       0.89557993 -1.2530593
