models/LinearModelV0.31.pt (torch, 5737 bytes, 7 tensors)

conv_layer.0.weight f4 [16, 1, 3]
000000 ea bf 5e 3e 8c d5 88 3e 96 c6 78 3f 3c d5 7d 3f
       0.21752897 0.26725423 0.9717802 0.99153495
000010 20 70 7d be 20 e2 43 bf f3 ae 2c bf 8f 2b d8 be
       -0.24749804 -0.76516914 -0.6745445 -0.42220733
000020 4d b1 d0 be 61 a1 c3 3e 57 40 2a be e2 ee 75 3f
       -0.4076027 0.3820906 -0.16626106 0.9606763
000030 c6 9c f4 3d fb e1 39 3f fa 53 86 3e df 79 ea bd
       0.11943965 0.72610444 0.26235944 -0.11449026
000040 73 d7 72 be e3 8c cc bd 69 eb 1e 3f 01 9c c9 3e
       -0.23715 -0.099878095 0.6207796 0.39376834
000050 25 da bc bd ee 91 1b bf 78 c3 27 bf af 27 b0 be
       -0.09221295 -0.60769546 -0.65532637 -0.34405276
000060 53 2a b7 be 3b 6e 1a bf 31 79 90 be 8b 85 1d bf
       -0.35774478 -0.6032445 -0.28217462 -0.61531895
000070 0b 6a 2b be de e9 8f bf b4 b7 4d bd 64 8c 2c 3e
       -0.16739671 -1.1243246 -0.05022402 0.1685043
000080 9c 71 59 bf 99 b1 b1 be 29 47 3f be 8b 34 fb 3e
       -0.8493898 -0.3470581 -0.18679489 0.49063525
000090 61 b2 1b bf 4a 96 09 bf f9 93 79 bd 11 ae 8e 3f
       -0.6081906 -0.5374495 -0.060932133 1.1146871
0000a0 4d 65 8e bc 6b 4d fa bc 0b e3 d6 3d b1 b1 28 3f
       -0.017382288 -0.030554494 0.10492524 0.65896136
0000b0 ac 9b 79 3e 62 f7 82 3e 8a 18 02 bf cc fb 4a bf
       0.2437579 0.25579363 -0.50818694 -0.7929046

conv_layer.0.bias f4 [16]
000000 f2 50 b5 3e c5 a3 9b be ea 66 28 bf 3b 5c f2 bd
       0.3541332 -0.30398384 -0.65782034 -0.11833998
000010 d8 cb c9 3e 5d 1d 76 be d0 1f 85 bd f2 5b f9 3d
       0.39413333 -0.24034639 -0.065002084 0.1217574
000020 37 92 db 3e 3f 51 4d 3e 44 e6 d6 3c d2 cf a3 3e
       0.4288499 0.20050524 0.026232846 0.31994492
000030 32 07 3e be 0e a0 2c bd 63 bf 61 3e af 93 48 3c
       -0.18557432 -0.042144828 0.22045664 0.012242242

layer_1.1.weight f4 [16, 32]
000000 da ae c5 bd f4 14 b4 be c5 6d 32 be b0 cb e0 3d
       -0.09652491 -0.35172236 -0.17424686 0.1097635
000010 98 53 9e 3d a6 f9 87 3e ff 95 e7 bd 5f 6b 56 be
       0.07730788 0.26557654 -0.11307906 -0.20939396
000020 a0 98 69 be a7 9f 8d bd fe 2f 21 3e a9 08 3f 3e
       -0.22812128 -0.06915217 0.15740964 0.18655647
000030 b8 a4 92 be 24 1c fc bd 2c fe 8a 3e 4e 9d 56 3e
       -0.28641295 -0.12310055 0.27147043 0.20958444
000040 21 14 66 3e 0a 9f 5c 3e 6f f8 8f 3d c5 1a 12 3d
       0.22468616 0.21545044 0.07029807 0.03567006
000050 de b5 51 bc ae fd 83 3d fb ef d5 3d b0 78 dd 3d
       -0.012799708 0.0644487 0.10446163 0.10814035
000060 ce 30 15 3e b9 9b 9f 3e 2d e5 06 be a2 4b 7a be
       0.14569399 0.31173494 -0.13173361 -0.24442914
000070 9f c1 2e be 77 13 23 be 1e 07 90 3d 3f 76 26 3e
       -0.17066048 -0.15925394 0.070326075 0.16256045
000080 9c 21 de 3d 94 23 1a be 4e a4 68 3d 03 30 e5 3d
       0.10846254 -0.15052634 0.05679732 0.11190798
000090 03 8b d5 bd b0 81 0d be 00 39 d6 bd 6f 81 84 be
       -0.10426905 -0.13819003 -0.10460091 -0.2588
0000a0 98 7b 63 3e b4 4a f1 bd e7 15 58 be 8e 9f 4f be
       0.22215116 -0.117818266 -0.21102105 -0.20275709
0000b0 b9 07 85 bb ed 6f 0c 3d 64 b4 df 3d 36 ab 51 3e
       -0.0040597585 0.03428643 0.10923079 0.20475468
0000c0 1b b2 61 3e 33 90 6f 3d 92 34 3e 3e 66 8c a7 3e
       0.22040598 0.05848713 0.18574741 0.32724303
0000d0 f4 c1 26 bc 4b 9f e4 3d e8 92 9f 3c be 17 97 3d
       -0.010178078 0.11163195 0.01947923 0.07377575
0000e0 2c ef 28 bd 8e 84 da 3c 01 b1 c1 3d 3b 10 37 3c
       -0.041243717 0.026674535 0.09457589 0.011173303
0000f0 51 95 83 bd 3c b8 ca bd 5c 06 68 3e 81 da ca 3d
       -0.06424964 -0.09898421 0.22658676 0.099049576
000100 81 65 aa bd 52 2d d7 be fc be 6f be e1 c1 80 3e
       -0.083201416 -0.42026764 -0.23412699 0.25147918
000110 22 94 b3 3e a1 e3 08 3d 96 13 19 bd 07 e1 b4 be
       0.35073954 0.03342021 -0.037372194 -0.35327932
000120 6c 93 55 be 5f bf ac be b9 06 4c 3e 81 ab df 3c
       -0.20857018 -0.33739755 0.1992444 0.02730346
000130 6c b0 8c be 1b f8 d1 3d ab 6d 55 3e 45 59 2f 3e
       -0.2747835 0.102524005 0.20842616 0.17123897
000140 03 81 f9 bd 0d 4f fe bd 73 ab b2 3e 00 77 d7 3d
       -0.1218281 -0.124174215 0.3489643 0.10520744
000150 5b ac 0b 3e 34 a8 04 3f 61 8a ca 3d c0 00 06 be
       0.13639967 0.5181916 0.09889675 -0.13086224
000160 5f 73 dc 3e a7 69 59 3e 86 47 94 be 07 07 43 3e
       0.4305677 0.2123171 -0.28960818 0.1904565
000170 2b d4 05 be da dc 71 be 44 ee 68 be ed b3 94 3e
       -0.13069217 -0.23619404 -0.22747141 0.29043522
000180 e9 1d 8d be 10 74 01 bf f6 1a c9 bd 40 a9 48 3e
       -0.27561882 -0.5056772 -0.098195955 0.19595814
000190 8d 7d 81 3e 63 1b c1 3e 84 85 a4 be 35 52 9f be
       0.252911 0.37716207 -0.32133114 -0.31117406
0001a0 3c 8a 41 be 50 b5 20 be c1 1c 96 3d a9 b8 14 3e
       -0.18900388 -0.15694165 0.07329703 0.14523567
0001b0 22 a3 95 be 47 b6 cd 3d d6 f0 76 3e c0 37 a9 3b
       -0.29226023 0.10044532 0.24115309 0.0051641166
0001c0 d3 d8 a2 bc 8c 3b c0 bd 86 b8 a0 3e 21 84 d2 3d
       -0.01987878 -0.09386358 0.3139078 0.10279108
0001d0 28 1d 35 bd e3 13 3b 3e 10 eb 4f 3c 68 d0 3e be
       -0.04421726 0.18269305 0.012690321 -0.18634188
0001e0 35 3a d7 3e 73 be 30 3e 43 0c dc be e9 4b a3 3d
       0.42036596 0.1726015 -0.42978105 0.07973463
0001f0 53 49 c2 bd 51 a1 05 be 1d 47 94 bd f7 eb 51 3d
       -0.09486642 -0.13049819 -0.07240126 0.051250424
000200 4c a0 cd 3d 6a b8 24 3f 59 e6 4d 3e b2 b4 1d bf
       0.1004034 0.64343894 0.20107402 -0.61603844
000210 b3 f8 1a be 25 79 a4 3c 0c 6d f1 3e da 19 be 3e
       -0.15133934 0.020077297 0.4715351 0.37129098
000220 cb c8 a7 be bc 94 78 3e 2f 3c 01 3d 09 90 d0 3c
       -0.3277038 0.24275488 0.031551536 0.025459306
000230 d9 65 cd 3e 4b 44 05 be 20 c5 ff bd 3b a4 c9 bd
       0.40116766 -0.13014333 -0.124887705 -0.098457776
000240 ce 5f 97 bb cc 13 8d be c7 c8 f0 be db 33 e3 be
       -0.004619575 -0.27554166 -0.4702818 -0.443755
000250 ec a7 40 be 35 59 e5 be 1c 65 fd bd fe 0b 64 3e
       -0.18814057 -0.44794622 -0.12372801 0.222702
000260 1c e7 97 be 35 e2 85 3d 76 90 d6 3e 6f ae ac be
       -0.2966851 0.06537286 0.4190709 -0.33726832
000270 af 40 94 be 0b 4c 44 3e 6f d5 7d 3e e5 d7 1e bf
       -0.289556 0.19169633 0.2478845 -0.6204818
000280 a8 26 83 be 95 35 1d 3d 98 1c 41 3e 84 29 77 be
       -0.2561543 0.038381178 0.18858564 -0.2413693
000290 12 71 b6 3e 20 1a b2 3e a2 e9 8e 3d 12 7f 09 3e
       0.3563314 0.34785557 0.06978156 0.1342738
0002a0 f2 8c 5f be 91 22 93 bd 82 27 9f 3d 01 48 c1 3d
       -0.2183111 -0.071843274 0.077712074 0.09437562
0002b0 f9 53 5e be f0 bb d6 be 6d 10 88 3e 8e 32 4a 3e
       -0.2171172 -0.4194026 0.26575032 0.19745848
0002c0 f3 df 3f bd 19 cd b7 bd 97 be 18 3e a8 d9 d1 bc
       -0.046844434 -0.08974666 0.14916454 -0.025616482
0002d0 39 cd e7 3d 76 0d 1d bd a6 36 64 bd db 08 81 3e
       0.1131844 -0.038342915 -0.05571618 0.2520207
0002e0 0a e7 a6 3d d8 0b 8d 3e 57 08 64 3e 2f a4 41 be
       0.08149536 0.275481 0.22268806 -0.18910287
0002f0 da 06 cc bd 90 61 06 be 81 ae 63 3e 05 58 88 bd
       -0.09962244 -0.13123155 0.22234537 -0.066574134
000300 09 ed f3 be 90 70 e3 be 0b b1 56 3d 6d 08 63 3e
       -0.4764178 -0.44421816 0.052414935 0.22171183
000310 bf d7 95 3e a5 05 44 3e 4d 65 1d be 4f d8 e2 bd
       0.29266164 0.19142778 -0.15370674 -0.11076414
000320 2a 46 59 be f2 69 c9 be bd 04 fc 3a bb 62 52 3e
       -0.21218172 -0.39338642 0.0019227486 0.20545475
000330 0d 19 df bd d5 46 dd bd c0 4a 37 3e e8 93 56 3e
       -0.1089345 -0.10804526 0.17899609 0.2095486
000340 c4 22 3f 3c 4e 2d 19 3e 52 fb 8f 3e 53 8e 71 bc
       0.011666004 0.14958689 0.2812143 -0.014743405
000350 b2 5f b5 3e a0 4c af bd ef 9d d6 bd 83 57 28 3b
       0.35424572 -0.08559537 -0.10479342 0.0025686927
000360 8a c0 db 3d e0 b8 80 3e 0c e1 95 be 3a a7 2e 3e
       0.10730083 0.25141048 -0.2927326 0.1705598
000370 59 c1 49 3c 0e f2 c7 be 72 d4 43 3b 41 a6 56 3e
       0.012314164 -0.3905186 0.0029881266 0.20961858
000380 d1 01 0d 3f ed ba a0 3e 95 97 f7 3d 7f 0e da be
       0.55080897 0.31392613 0.12089459 -0.42589185
000390 88 b1 d6 be 4f 15 87 bd 94 e6 b3 3e 84 02 4c 3e
       -0.4193232 -0.06595861 0.35136855 0.19922835
0003a0 63 0b 2d 3d 57 b7 04 3f f8 f9 b1 3c c7 28 86 bd
       0.042247187 0.51842254 0.02172564 -0.065507464
0003b0 ad 3e 4e 3e bf 0b 8d 3d bb 46 d7 be 68 f5 d8 be
       0.20141096 0.06887006 -0.4204615 -0.4237473
0003c0 55 a9 01 be 07 a4 78 be 51 74 0c bf 9e b4 8f be
       -0.12662251 -0.24281321 -0.54864985 -0.28067487
0003d0 27 3c b3 be 3e 65 0a be 8b f7 b7 3d 21 05 80 bd
       -0.3500683 -0.13515183 0.08982762 -0.06250978
0003e0 95 3c 83 be 84 f2 cd be d1 3e bc 3e 92 50 01 bd
       -0.25632158 -0.40224087 0.36766675 -0.03157098
0003f0 68 aa 06 bd 47 21 ae 3e 05 ab ac 3d f9 68 cf be
       -0.032877356 0.34009764 0.08431057 -0.40509775

layer_1.1.bias f4 [16]
000000 d5 6e 4a bd 5a a9 bf 3d fc d7 48 bd 02 69 85 be
       -0.049422104 0.09358473 -0.049034104 -0.26056677
000010 16 1b 21 be ba 24 bd bc 75 86 ef 3b ec a9 5b 3e
       -0.15732989 -0.023088802 0.0073097297 0.21451539
000020 97 8a 32 be 3a 5d 1f 3d bb a5 24 be 74 f5 a5 bd
       -0.1743568 0.038907267 -0.16078846 -0.08103457
000030 7d 88 b9 3d 09 49 80 3e d7 c9 2a be 73 56 37 be
       0.09059236 0.2505572 -0.16678558 -0.17904072

action_head.weight f4 [4, 16]
000000 42 91 80 3e 1a d8 d1 3e 0a 23 b4 bd 0d 60 9f bd
       0.25110823 0.40985185 -0.08795746 -0.07781992
000010 bc 36 d1 be 2d f7 20 3e 7f 84 ac 3e e9 5e f1 be
       -0.40862072 0.1571929 0.33694836 -0.47142723
000020 24 a8 ab be 4f 48 21 3e 97 94 29 bf 41 cb 8e bd
       -0.3352672 0.1575024 -0.66242355 -0.06972361
000030 12 67 72 be b3 bd c5 3d 2c 90 31 3e e5 d1 c7 bd
       -0.2367213 0.09655323 0.17340153 -0.09756831
000040 9a c6 de be bc 68 05 be 09 83 1a bf 71 f6 05 bf
       -0.43510896 -0.13028234 -0.60356194 -0.52329165
000050 dd d9 81 3f 77 a6 23 3e 51 8c b0 be 8f ac 4a 3f
       1.0144612 0.1598147 -0.34482053 0.79169554
000060 f9 d0 d3 be 9e f9 ba be 2e e2 1f bf fe 4c 38 bf
       -0.4137037 -0.36518568 -0.624545 -0.7199248
000070 a3 3f c7 3e 45 8f ed 3e fa 76 e6 3d 91 c4 3e bf
       0.38915738 0.46398368 0.11253162 -0.74518687
000080 d4 fd df 3d 98 66 b0 3d 27 46 b1 3e de 72 5a 3e
       0.10937086 0.08613318 0.34623834 0.21332881
000090 cb a6 eb be b3 1f 40 be 05 ba d0 bd 6a 0c 1d 3d
       -0.4602569 -0.18762092 -0.101917304 0.038341917
0000a0 df 6a 0b 3f e3 82 03 3e 73 4b 23 3f 4e ff 13 3f
       0.5445995 0.12842898 0.63787 0.5781144
0000b0 8f 98 05 3a 91 b6 1a 3d bc 85 ea be 72 90 a3 3d
       0.00050962804 0.037771765 -0.45805156 0.07986535
0000c0 9f d3 0b 3e c8 b5 a9 be 0e c6 42 3f 6b e9 53 3f
       0.13654946 -0.331465 0.7608346 0.8277804
0000d0 24 b5 9f be b5 f7 76 3e 6d eb 2f 3f 8b c4 24 bf
       -0.31192887 0.2411793 0.68718606 -0.643624
0000e0 0d 24 48 3e f4 2a ed 3d d0 4e e0 3e d3 16 94 3e
       0.19545002 0.11580458 0.4381013 0.28923663
0000f0 cf 6b e2 be 1d 6d c5 be 11 7d 27 3f 03 8b 68 3f
       -0.44222876 -0.3855981 0.6542521 0.90837115

action_head.bias f4 [4]
000000 d4 d0 ac 3e ba 67 b6 bd e2 5a 07 3e ae c1 ca bd
       0.33753073 -0.08906503 0.13218263 -0.09900223

value_head.weight f4 [1, 16]
000000 c1 99 f9 be c3 f8 07 bd eb 4e 11 bd a8 45 5b be
       -0.48750117 -0.033196222 -0.035475653 -0.2141329
000010 72 55 a2 be c5 e5 e8 be 1d 9c 91 bd 48 ad 36 3e
       -0.31705815 -0.454878 -0.07109854 0.17839539
000020 88 7f 9b be c3 65 47 be da e0 44 bc 7c eb fd be
       -0.30370736 -0.19472413 -0.012016499 -0.49593723
000030 f8 11 74 3e 15 c9 83 3e d2 01 91 be 39 9b 38 be
       0.2383498 0.2573935 -0.283217 -0.18027963
