models/LinearModelV0.13.pt (torch, 4713 bytes, 7 tensors)

layer_1.0.weight f4 [16, 4]
00000000: 54c5 c4bf e9ba c63e ad95 fb3e c9f7 533e
00000010: 4d7a 25bf 0fff e73e 87fd 673f 0c16 a83e
00000020: 9928 77bf 32f5 d9be 1279 4cbf 19d5 2ebf
00000030: 4ee9 be3e 3430 8c3e 5658 96bf ed0d 333d
00000040: b064 07bd b877 2ebe f0bc c73d eca0 8c3e
00000050: e7d9 c53e dcf9 91bf 1b14 df3e 4854 b93e
00000060: 32ad 82be 184d 94be 293c 9e3f cc35 85be
00000070: bc91 183f 9347 b03e 4431 9bbf a10e cc3e
00000080: b09e 97bc 0419 27bf 9713 aebe 1e8c 4ebf
00000090: 621e 5d3f 955c 69bf 329f cb3e 8417 d53e
000000a0: 8dce 553e 03d0 bf3e 2632 5f3e 65fa cebf
000000b0: 90eb 4bbf 25fd 2cbf 3ba9 3dbf 5e0a c93f
000000c0: 8faa c13e aa2a 8f3e f390 8e3f e03f 213d
000000d0: e3cb b1be e2a8 ba3f c3e2 0ebf bf52 e2be
000000e0: 0d9b 14bf 68e4 01bf 3796 3c3f 9607 f2be
000000f0: 1df3 8b3e ce5a 483f c02b 9a3e 4828 4e3f
-1.537272 0.38814476 0.4913763 0.20699991 -0.6463974 0.45311782 0.9062123 0.3282932
-0.9654632 -0.42569882 -0.7987224 -0.6829391 0.37287372 0.27380526 -1.1745708 0.043714453
-0.033055007 -0.17037857 0.09752834 0.27466524 0.3864281 -1.1404376 0.43570027 0.36197114
-0.25522763 -0.28965068 1.236211 -0.26017606 0.59597373 0.34429607 -1.212441 0.3985491
-0.018508285 -0.65272546 -0.3399932 -0.8068255 0.86374485 -0.91156894 0.39769894 0.41619503
0.20879574 0.37463388 0.21796474 -1.6170164 -0.79656315 -0.6757377 -0.7408635 1.5706289
0.37825438 0.27962238 1.1137985 0.039367557 -0.34725866 1.4582789 -0.5581476 -0.44203755
-0.5804909 -0.50739145 0.7366671 -0.47271413 0.27333918 0.78263557 0.30111504 0.80530214

layer_1.0.bias f4 [16]
00000000: 84ee bf3d 1895 083f 510d 4a3e 9967 4e3e
00000010: 6e1f eebe 24ae d5bd 6dcd b1bd 5a70 db3d
00000020: 998f 163e 2c42 4abd 13fa a03c 2215 42be
00000030: bbaf f33d 57d9 4cbe 5cd3 7abe 9484 e43e
0.09371665 0.533525 0.19731642 0.20156707 -0.46508354 -0.10433605 -0.0868176 0.10714789
0.14703216 -0.049379513 0.019650495 -0.18953374 0.11898752 -0.20004784 -0.2449469 0.446324

layer_1.2.weight f4 [16, 16]
00000000: 11e2 403e e3dc b13e bb8a b8bd b999 53be
00000010: fecf 73be 6e33 1e3f 4f52 0fbf dbd3 14bf
00000020: 1775 f53e 2df1 b03e f2fb f53e acbe 0e3f
00000030: 07aa f4be 29a9 06be 96d1 0dbf 2eb2 6e3e
00000040: 4ce5 c1bc d841 823d 8bbb 2b3f be7b bd3e
00000050: d893 7dbe ca40 e43d a618 6ebe e664 9e3c
00000060: 2c8f 583f 4ada c73e 9880 84bf c9fd a3be
00000070: 7406 103e bd4f 493f 7f71 dcbd 01b4 8ebe
00000080: 929d f63e 4d1a 6f3e a40c 283f 62ed 223e
00000090: e62c 65be 8739 14bf add0 3abe 52bf 823e
000000a0: ceb0 a63e af26 03bf bf66 273f d685 333f
000000b0: e7bf 93be 09ae 82bf e671 93be 9d63 dabe
000000c0: 705d f43c 24d0 df3d c0e7 ec3c 047c 66be
000000d0: d895 3dbe 5ed1 21be 4014 aebb ac60 4cbe
000000e0: 4867 22bd ac0c 4ebe b042 ed3c 429a 12be
000000f0: d440 0ebe ee89 0cbe d65d 03be 42d5 17be
00000100: 3432 b5be 6173 4abe 76e5 22bd 7c63 a53e
00000110: 88c9 11bd 0944 cfbe d731 313f 5665 1d3f
00000120: 6af6 b73d a1d8 a1be fc8d 123f e5b6 193f
00000130: e003 dc3e 6fac c2be 42d2 483f fc1a 153f
00000140: d28e 403e e35b 7f3e 3464 f23d 3b44 64bb
00000150: 1017 5abe e4af 193f c654 f3be 1895 cabe
00000160: 9988 ab3d 5e64 4c3f 1fab 063f c794 b2bd
00000170: a723 c9be 1c43 e33e 0d91 11bf 1ad4 253e
00000180: f3fb 1ebf 73bc cf3e 9b8b 29bf 44c9 3d3e
00000190: f4b4 bbbd ddf7 d73e fbe4 b03e a32e 913d
000001a0: d1c9 f9be 1d29 d23e 6638 123e f82c 5dbe
000001b0: bb86 043f b150 c33e 9da6 6fbd 9694 e13e
000001c0: 3bcc b33d 9d31 a03e 683c debd 899b 4cbe
000001d0: a030 bfbc 255a 463f 8aa2 2abe bd8b c4be
000001e0: 8a9a 603e 1c0c 6e3f ac4c cabc fb8e 16be
000001f0: ad01 89be b22d 823f 77f2 eebe 89c9 953e
00000200: 536f 163e c0a3 ea3d 533c 5e3f 7257 8c3e
00000210: 423e 08be a412 4c3f 7d59 3d3f 7cdf abbd
00000220: fb2d ce3e 580e 0e3f 3dc4 17bf d7e0 06bf
00000230: 8f8f 4b3e 6437 673f b0da 613f 52f2 b2be
00000240: 5da7 733e 0707 0d3f d2f3 d339 0b09 19be
00000250: 0047 c33a 35a4 933e 5621 a6be 2d9f bfbe
00000260: 11fe 74be 8a44 cf3e b7d1 e5be 9ed9 0a3e
00000270: 215e 2a3f 8f03 213f f80d ecbe 4e6b 083f
00000280: 1a3f 183d 203e 853e 1be0 97bb d7a1 713d
00000290: 4afb 1b3e 558b 98bd a97b 43be 0a53 c0be
000002a0: 78cc 273f 8fc2 fdbe 3c09 b83f 86d2 b93d
000002b0: 755d fa3e c29e 1fbe 3624 dfbd 4b07 38bb
000002c0: 653a 7ebe 6331 44bf 5515 94bf 7a60 123f
000002d0: 2069 21bc 44f0 9a3e 96cf 1bbf a8e0 2f3f
000002e0: abde eb3e 4faa 393f fef1 d63e 3921 98bf
000002f0: d0c5 853e 3724 91bf 5165 10bf 1a06 083e
00000300: 210e 2fbf 4b01 6b3e 69da a5be 03de 2a3f
00000310: 3852 efbd 2950 d8bc 980c 493f 70c2 583f
00000320: 14f6 cabd ad1d 72be 6290 15be 2d36 763e
00000330: 7581 c33e d694 0f3f fca5 f93e 4dcc 143f
00000340: 4978 913f 1860 343f 7bc2 de3e 486f 59be
00000350: f6ed 003e 6351 10bf a0bb d8bd 516f c3be
00000360: 92fa dbbe f872 29be a461 87be 8127 463e
00000370: 1cf2 b33e 5545 acbe 96f4 3ebc 9972 013e
00000380: 60ea 4e3f b8b3 1a3f 4200 cd3d 4c9c 0c3e
00000390: 62df 6abe ebd4 cebe 1547 e33e 964d 073f
000003a0: 9822 f8bc 35e2 c2bd 12c5 75bf 0783 d3be
000003b0: a505 153f a12b fbbe da77 7c3d 2c6e 8fbe
000003c0: 0e77 083f c941 0e3e 7b76 b73e a489 2abf
000003d0: 4232 323e b616 b9be 2cf4 553d 1bdb 52bf
000003e0: 9956 60bd 9d6a 38be 5572 e73d 385c 73bd
000003f0: 7b9e 31bf b335 513e 250f 763e 5bab edbd
0.18836237 0.34738836 -0.09010836 -0.2066411 -0.23809811 0.61797225 -0.5598497 -0.58135766
0.47940895 0.34559003 0.48043782 0.5575969 -0.4778597 -0.13150467 -0.5539793 0.23310158
-0.023668908 0.06360215 0.6708304 0.3700847 -0.24763429 0.1114517 -0.2325159 0.019335221
0.8459346 0.3903373 -1.0351744 -0.3202956 0.14064962 0.78637296 -0.10763835 -0.27871707
0.48167092 0.23349877 0.6564429 0.15910867 -0.22380409 -0.5790028 -0.18243666 0.2553659
0.32556766 -0.512309 0.65391153 0.7012609 -0.28857347 -1.0209361 -0.28797835 -0.42654124
0.02982971 0.109283715 0.0289191 -0.22508246 -0.18514192 -0.15802523 -0.0053124726 -0.19958752
-0.039649278 -0.20122021 0.028962463 -0.14316657 -0.13891917 -0.13724491 -0.12828764 -0.14827445
-0.35389864 -0.19770576 -0.039769612 0.32302463 -0.035592586 -0.40481594 0.69216675 0.6148275
0.08982547 -0.31610587 0.572479 0.600447 0.42971706 -0.3802218 0.7844583 0.582443
0.18804482 0.24937396 0.118355185 -0.0034830708 -0.2129786 0.6003401 -0.47525615 -0.39566875
0.08375663 0.7984065 0.5260486 -0.08719783 -0.39285013 0.44387138 -0.56861955 0.16194192
-0.62103194 0.40573463 -0.66228646 0.18533808 -0.091653734 0.42181292 0.34549698 0.070889734
-0.48786786 0.41046992 0.14279327 -0.21599185 0.5176808 0.381475 -0.058508504 0.44058675
0.08779188 0.31287852 -0.10851365 -0.19981207 -0.023338616 0.774813 -0.16663566 -0.38387862
0.21933952 0.9298723 -0.024694763 -0.1470298 -0.2675909 1.0170195 -0.4666936 0.29255322
0.14690904 0.11457014 0.868108 0.27410465 -0.13305 0.79715943 0.73964673 -0.08392236
0.40269455 0.55490637 -0.5928381 -0.5268683 0.19878982 0.90318894 0.88224316 -0.349505
0.23794313 0.5508885 0.00040426716 -0.14944856 0.0014898479 0.28836218 -0.32447308 -0.3742613
-0.23925044 0.4048198 -0.44886562 0.13559577 0.6654988 0.62896055 -0.46104407 0.53288734
0.037169553 0.2602396 -0.0046348698 0.058992233 0.15232578 -0.074484505 -0.19090141 -0.37563354
0.6554637 -0.495625 1.4377818 0.09073357 0.48899427 -0.15587905 -0.108955786 -0.0028080519
-0.24826963 -0.7663786 -1.156901 0.5717846 -0.009851724 0.30261433 -0.60863626 0.68702173
0.4606832 0.72525495 0.419815 -1.1885139 0.2612748 -1.1339177 -0.56404597 0.13283578
-0.68380934 0.22949712 -0.32393196 0.66745013 -0.11685604 -0.02640541 0.7853484 0.8467169
-0.09910217 -0.23644133 -0.14605859 0.24044104 0.38184705 0.5608648 0.4875945 0.5812424
1.1364833 0.7045913 0.43507752 -0.21233857 0.12590775 -0.56374186 -0.10582662 -0.38170865
-0.42964607 -0.16547763 -0.2644168 0.19351007 0.35145652 -0.33646646 -0.0116549935 0.12641372
0.8082638 0.6043048 0.10009815 0.13731498 -0.22936776 -0.4039682 0.4439017 0.5285276
-0.030289933 -0.09515802 -0.9600383 -0.41310903 0.5821174 -0.49056724 0.061637737 -0.28013742
0.53306663 0.13892283 0.3583258 -0.6661627 0.17401984 -0.3615014 0.052234814 -0.8236558
-0.054770086 -0.1800942 0.11301104 -0.05941412 -0.69382447 0.20430641 0.24029215 -0.11604949

layer_1.2.bias f4 [16]
00000000: 04e7 843e 2642 b53d 9507 e53d bc3a 0dbe
00000010: de81 8b3e 20f4 503e 4210 963e 6212 ca3e
00000020: a8f6 f0bd 64f2 173e 3ea8 bebd a82b da3d
00000030: 6878 ad3e 1e59 fc3d 8124 663e 3a50 e8be
0.259575 0.088505074 0.11183087 -0.13791937 0.27247518 0.20405626 0.2930928 0.3946715
-0.11765796 0.14838558 -0.093094334 0.10652858 0.33880925 0.12321685 0.22474863 -0.45373708

action_head.weight f4 [4, 16]
00000000: 7e7f b93d 62d6 a0be 784d 43bf ac9a ee3d
00000010: ff7b 193f a2e8 65bc 3c30 613e 7442 253e
00000020: 7013 cf3e 0c14 d7be 2895 313e b20a d6bf
00000030: 2c5b d83e 55ac 98bf d4c8 38bf f345 e6be
00000040: 5fac a3be aa55 d7be 1324 1f3f 6041 1c3c
00000050: 9f7d 033f 1cbc 1ebf 24f8 b6be 0101 4dbf
00000060: 3884 05bf d4bf dcbe 65e8 103f a48c 6f3f
00000070: 4351 cc3d 68c8 133f fbf4 593e ecb4 02bd
00000080: e0bc 453f a0bf 0ebf 52c3 d0bd 22b1 04be
00000090: db3e eebe a1cb 243f e284 80be ce5f 1b3f
000000a0: 066f a5be 5290 bb3e 87f5 bf3e 9126 173f
000000b0: d77e 3dbf 677a e83d 5441 fdbe bf5a 7d3e
000000c0: 3096 34bf 58d9 323f 5be2 08bf 8cd0 693e
000000d0: cd7b afbe df68 b0be af34 56be d1ab 263e
000000e0: 9447 403f 1919 d63e d5cb 84bf f055 e33e
000000f0: 43fe c03c 815f 023c df6f bb3e 70f7 89be
0.0905752 -0.3141356 -0.7629008 0.11650595 0.5995483 -0.014032515 0.21991056 0.16138631
0.40444517 -0.42007482 0.17342055 -1.6722014 0.4225706 -1.1927592 -0.7218144 -0.44975242
-0.31967446 -0.42057544 0.6216442 0.009537071 0.5136356 -0.6200578 -0.3573619 -0.80079657
-0.52154875 -0.43115103 0.56604606 0.93573976 0.09976437 0.5772767 0.21284859 -0.03191082
0.77241325 -0.55761147 -0.101935044 -0.12958196 -0.4653233 0.64373213 -0.25101382 0.6069306
-0.32311267 0.36633545 0.3749201 0.5904322 -0.7402167 0.113514714 -0.49463904 0.24741648
-0.7054167 0.6986289 -0.5347039 0.2283346 -0.3427414 -0.3445501 -0.20918535 0.1627648
0.7510922 0.41816023 -1.0374705 0.44401503 0.023558741 0.00795734 0.36608788 -0.26946592

action_head.bias f4 [4]
00000000: 3b31 f23d 7064 76bd 5bb8 8ebe 1ec6 44be
0.11825796 -0.06015438 -0.27875027 -0.192162

value_head.weight f4 [1, 16]
00000000: 87d7 653c d039 c9be 550c 09bf b0fe 853d
00000010: df86 593d eb7f 6fbd 505b 083f d714 363d
00000020: c54d e5be 785a 133f d18f 043e 1ca6 853e
00000030: 127b a13e 166f 803e d5d7 5d3e c50e 37bf
0.0140284365 -0.3930192 -0.5353444 0.065427184 0.05310714 -0.0584716 0.5326433 0.04445347
-0.44785896 0.5755992 0.12945487 0.26103294 0.31539208 0.25084752 0.21664365 -0.7150691
