models/LinearModelV0.22.pt (torch, 5609 bytes, 7 tensors)

conv_layer.0.weight f4 [16, 1, 3]
00000000: 1f15 da3e a431 173f 8858 8c3f ffcb 9dbe
00000010: 8849 3f3d 751e 34bf 75ad 403f 844f 183e
00000020: 348d 123f 638c 10bf 709a cbbc 7bbf 00bf
00000030: bf02 2d3e f66f c4be d905 9ebe ead2 843d
00000040: 6aa8 c33e 2436 e03e 4de4 3fbf fa5e c2be
00000050: 7f25 84be 5ad8 72bf 2af7 ddbe ed40 74be
00000060: cfbe 45bd f033 de3e 85d3 5e3f 4ba1 713f
00000070: 81ff fe3e ae22 53be 947d 333d da5f ae3d
00000080: 5d14 663f d789 243f c7f2 c43e cd69 e5be
00000090: 770b 003d 6958 b73e 95c8 e43e d4a2 0fbe
000000a0: c1b2 88bd cc67 3e3c f3cb 2bbe c059 33be
000000b0: f3f0 4bbf bcf6 1ebf 61c6 83be 4d10 2abf
0.4259424 0.5906012 1.0964518 -0.308197 0.046700984 -0.70358974 0.75264674 0.14874083
0.5724671 -0.56464213 -0.024853915 -0.50292176 0.16895579 -0.3836667 -0.30863836 0.06485541
0.38214427 0.43791306 -0.74957734 -0.37963086 -0.25809857 -0.94861376 -0.43352634 -0.23852892
-0.048277672 0.43399 0.87041503 0.9438674 0.4980431 -0.20618698 0.043820933 0.08514376
0.8987482 0.64272827 0.38466474 -0.44807282 0.031260934 0.3580964 0.44684282 -0.14026958
-0.066747196 0.011621427 -0.16777019 -0.17514706 -0.79664534 -0.62095237 -0.2573729 -0.66431123

conv_layer.0.bias f4 [16]
00000000: 6907 fcbd dd86 753e 0451 9a3e 1e7a b6be
00000010: 4068 e03d 2422 16be ee4c 593e 9ef2 14bf
00000020: 8f70 bc3e c5fb ddbc 85a3 723e 4ffb b2bd
00000030: a121 f83d 7f5e a9bd 74f5 1dbd 26c7 4abd
-0.12306101 0.23977228 0.30139935 -0.35640043 0.10957384 -0.14661461 0.21220753 -0.58182704
0.36804625 -0.027097592 0.2369519 -0.087393396 0.12115789 -0.08269977 -0.03856416 -0.04950633

layer_1.1.weight f4 [16, 32]
00000000: 9ec1 af3d c9c2 6a3e 4aaa 2abe 7894 bcbc
00000010: bbb2 2fbe 8ba6 543e 2921 713e 492e 16bd
00000020: 7301 69be 4202 06bd 3040 9f3d 717d 663d
00000030: 20c8 fbbd 67eb 40be 8b96 753e 04fc adbc
00000040: 3668 b63d d15f 26be cd7d 23be e464 793c
00000050: e37d 70bd b4eb f73d fa99 3a3a 509b 2d3d
00000060: 6c89 903d d6b0 ba3a d672 a6bd 229a e63c
00000070: 72c8 a83c 8206 c6bc 6cb9 d8bc 2d93 85be
00000080: af9a 24be cb0b 3abf 6c31 b53e e050 0d3f
00000090: efc4 423e e4de aebd c7d4 ac3c cf2a c63d
000000a0: 2d81 e1bc db12 de3e 16f9 c03c 265e b1be
000000b0: 86c6 553e 79bb 753b a685 06be 44a6 11be
000000c0: ac2d 6d3e 0e6a 8bbe f1f3 433d 41f8 293d
000000d0: b6aa 073e d45a dabe 12b2 8f3d a464 d23d
000000e0: 7b6f 873e bc94 8cbe 7f1c 1fbc 3abe 5ebe
000000f0: 8c0c a93d 4da3 073f 2c87 563c b1ed ee3e
00000100: 2b83 ab3e 0caf 9a3e b411 20be c618 9bbe
00000110: dcc2 583e d399 7d3e 3110 f8bd e641 1bbe
00000120: e941 583c 8ed8 f6bd 3ae2 2c3e b180 583e
00000130: 1aa2 91be efea b8be ebea 34be 0014 39be
00000140: 272c b83a e900 5e3e ba9f 643e 9eef 353e
00000150: 68e1 79bd e869 933e efa9 543e 8538 103e
00000160: f24b a63d e5ce d1bd 19c0 b2bd a68d db3d
00000170: 8c3f 5bbe 8173 98be d575 a6be f1e0 2fbe
00000180: 0076 2dbe 5170 22bf a04d be3e 0882 c9bd
00000190: 6136 dbbe 646a 1fbe 6702 de3e c262 a63d
000001a0: 66f8 85be 4840 a43e 9dfe 53bd 4e2d a7be
000001b0: c0ca a8bd 214b 16be 1bd0 f43d 6769 9bbc
000001c0: 3443 acbe cf7a 15bf 278a 7a3e 50ff a63d
000001d0: a9a6 1ebf 8c11 d6be 3af8 b23e 3d15 6c3e
000001e0: 092a aa3d 4fbd 14bf eee4 c3bd d654 073d
000001f0: de25 293f 6713 a03e 8e55 e23e e7db 933e
00000200: 3e48 21be a65d 2abe 1bd5 a83c 1945 8b3d
00000210: 2ff4 c5be 35ef 64be 4c00 da3e d121 003e
00000220: f742 4abc eae7 86be 01d3 0abe 47b8 3a3e
00000230: 1658 283e 8fa7 33be fdac 023f 314f 903e
00000240: 9a36 0abe 1c84 4abe b5cb d7be 2c2a 6bbc
00000250: 335c ad39 7fb5 24be 14f3 48be f921 d53c
00000260: 39cb 86bd 9c62 793d 01dd 8dbd 0aac 653d
00000270: 30f2 263e ebe6 bcbd f13d 0a3f 0b23 1a3d
00000280: 1f6b d0be 75d2 42be 0baf 4f3e ea11 873d
00000290: b1e2 ebbe 383e 92be 7b44 a83e 4a6d 033a
000002a0: 9cd3 b2bd 9a03 823d 14d9 4bbe afd9 0bbe
000002b0: 1d7f ab3e 2277 d03d 594e 0e3f a511 a83e
000002c0: 676b 05be ed14 473d d819 32be 1bd4 04be
000002d0: 2724 d8bd a032 b2bd b6dc 81be 6105 1bbc
000002e0: 0257 a43c c3f8 0cbe 7b3f 8d3c a4d5 963d
000002f0: 6167 6b3e 3d70 4e3e 7545 e13e 8e4e ac3e
00000300: d8b4 0bbf 6034 f8be 7ee1 e63e 5819 463e
00000310: 135e c7be c0ba 81be a464 113e 90a3 eb3a
00000320: c5ea 74bc a629 8b3e 4a93 56be 0a7a 05be
00000330: 9cc1 7d3c 2cb0 93bc 46d2 ae3d c48e b93d
00000340: 29f2 95be 3c9e fbbe 23f7 a73e 088c e33d
00000350: 1cd4 2ebf 18c5 08bf 463c 7b3e 87ba 09bc
00000360: 9604 18be 9938 18bf 438a 58bd e0ca a0bd
00000370: 24bb e53e 3d11 d83e 6ea2 e33e f84b 473e
00000380: 15be 54bc 4776 a53d 7dda e93c 0dff 203a
00000390: 641f 8abe 4850 21bd f564 a03d cfc5 993d
000003a0: b604 14be 7514 cabd 8019 203e df2b 023e
000003b0: 7580 203e ed7b d5bd 106c 003f d467 ab3c
000003c0: db39 113e 95ac c73c 0edc 71be 4ac1 543e
000003d0: 584c 4f3e 0b5a 83bd 0675 c9be ab6f 663d
000003e0: 756d d7bc d374 2f3d 1293 733e 88da 523d
000003f0: 9b38 a8bd 2031 903d 8367 003e 3ebe a53d
0.085818514 0.22925867 -0.16666523 -0.023020014 -0.17158024 0.20766656 0.23547806 -0.036665235
-0.22754459 -0.032716997 0.07775915 0.056271974 -0.1229403 -0.18839799 0.23983209 -0.021238334
0.089065954 -0.16247489 -0.15965958 0.015221808 -0.058713805 0.12105504 0.0007118281 0.042384446
0.07057461 0.0014243375 -0.08127372 0.028149668 0.020603392 -0.024173025 -0.026455604 -0.2608885
-0.16074632 -0.72674245 0.35389268 0.5520153 0.19020437 -0.08538607 0.021097554 0.09676134
-0.027527416 0.4337376 0.023556273 -0.34642142 0.20876512 0.0037495776 -0.1313692 -0.14223582
0.23161954 -0.2722935 0.047840063 0.04149652 0.13248715 -0.4264742 0.07016386 0.10273102
0.2645224 -0.27457225 -0.009711384 -0.21752253 0.08254346 0.5298355 0.013093751 0.4666572
0.3349851 0.30211675 -0.15631753 -0.30292338 0.21168083 0.2476571 -0.12112463 -0.15161857
0.013199308 -0.12053023 0.16883174 0.21142842 -0.28443986 -0.3611674 -0.17667739 -0.18074036
0.0014051244 0.21680035 0.22326556 0.17767188 -0.06100598 0.28791738 0.2076795 0.1408406
0.08119954 -0.1024454 -0.08728046 0.10720377 -0.2141096 -0.29775622 -0.32511774 -0.17175652
-0.16939545 -0.6345263 0.37168598 -0.098392546 -0.42814925 -0.15567929 0.43361208 0.08124305
-0.26166075 0.32080293 -0.05175649 -0.32651752 -0.082417965 -0.14677097 0.119537555 -0.018971158
-0.33645022 -0.58390516 0.24466763 0.08154166 -0.61973053 -0.41810262 0.34955007 0.23054977
0.08308799 -0.5810136 -0.09565149 0.03303989 0.66073406 0.31264803 0.44205898 0.2887871
-0.15750214 -0.16637287 0.02060943 0.06800289 -0.3866286 -0.22356875 0.42578351 0.125129
-0.012345067 -0.2634881 -0.13557054 0.18234359 0.16439852 -0.17544387 0.5104521 0.28185418
-0.13497391 -0.19776958 -0.42147604 -0.014353316 0.00033065825 -0.1608486 -0.19623977 0.026017176
-0.065817304 0.060885057 -0.06926919 0.056072272 0.16303325 -0.092237316 0.54000765 0.037631076
-0.40706727 -0.19025595 0.20281617 0.06595214 -0.4607139 -0.28563094 0.32864746 0.0005013539
-0.087317675 0.06348343 -0.19907027 -0.13657258 0.33495417 0.10178973 0.555883 0.32825962
-0.13029252 0.04860394 -0.17392671 -0.12971537 -0.105537705 -0.08701062 -0.25363702 -0.009461732
0.02006102 -0.1376677 0.017242184 0.073649675 0.22988655 0.20160003 0.43998304 0.33653682
-0.5457282 -0.4847746 0.45093912 0.19345605 -0.3893896 -0.2533779 0.14198548 0.0017977823
-0.014948552 0.27180213 -0.20954624 -0.13034835 0.015488055 -0.018028341 0.085362 0.090604335
-0.29286316 -0.4914416 0.32805738 0.11110693 -0.68292403 -0.5342574 0.24534711 -0.008406288
-0.148455 -0.5946136 -0.05286623 -0.07851195 0.4486934 0.42200652 0.44459862 0.19462574
-0.012984772 0.080792 0.028546566 0.0006141521 -0.26977074 -0.039383203 0.07831756 0.07508432
-0.14454922 -0.09867183 0.15634727 0.12712048 0.15674002 -0.104240276 0.5016489 0.020923533
0.14182226 0.024374286 -0.236191 0.20776859 0.20243967 -0.06413659 -0.39347094 0.05625884
-0.02629731 0.04283602 0.23786572 0.05147794 -0.08213922 0.0704062 0.12539487 0.080929264

layer_1.1.bias f4 [16]
00000000: f897 8dbe 93dd e83e c140 28be d96d 82be
00000010: 0351 6fbe 0452 96be 3de0 a63a 88c4 69be
00000020: af64 b53e d427 913e 794e cc3d 42f5 3f3e
00000030: 114c ae3d cd7c 993e 4cc6 5b3e fe12 423d
-0.27655005 0.45481548 -0.16430952 -0.25474432 -0.23370747 -0.29359448 0.0012731623 -0.22828877
0.35428378 0.283507 0.09975905 0.18745902 0.08510602 0.29978028 0.21462363 0.047381394

action_head.weight f4 [4, 16]
00000000: 4ef2 93be 4d7c 253f ee2d bbbe 729e c23e
00000010: e284 1abe 4563 8e3d c1bf 593e d677 62bd
00000020: fa93 af3e 419d 90be ff58 073f 9307 61be
00000030: 38a4 64bc 46fe 163e a5fc 573d 289c 403e
00000040: 5811 133e dcf5 2cbf 0009 0d3f 30b9 4fbf
00000050: 4483 cdbd 19c8 93be 7167 88bf 5e90 5f3e
00000060: ac6b a2bd 6bb3 413f 228f 8dbf bdb9 253f
00000070: 2852 a23e 113d c23e 2b7c fd3d 9cb8 16bf
00000080: 6734 573e 7af1 f23d beed 6b3d 0b87 cc3e
00000090: 9b92 a93e 03de 1d3e 9139 77bd a152 0f3f
000000a0: 3f2b bcbe baac c7be 8afe 1c3f 92c3 d2bd
000000b0: 9c85 5bbf 3bc5 dbbe 875b 0f3b ade7 8c3d
000000c0: 2ef6 55bd b581 6cbc 3f74 16be f59b 143f
000000d0: dbe0 693e c29b b73e 016e 9b3e f2d0 3f3d
000000e0: eece 093d ba8e c4be bdd3 053e 6232 73be
000000f0: abf5 d13d 78d6 7ebe 1134 89be e5af 6e3e
-0.288958 0.6464279 -0.3655848 0.3801151 -0.15089753 0.06952528 0.21264555 -0.055290066
0.34292585 -0.28244975 0.5287017 -0.21975546 -0.013955168 0.14745435 0.052731175 0.18809569
0.14362085 -0.6756265 0.5509186 -0.8114195 -0.100348026 -0.288636 -1.0656568 0.21832415
-0.07930693 0.75664395 -1.1059306 0.6473654 0.31703305 0.37937215 0.12377199 -0.5887544
0.21016084 0.11862464 0.057599775 0.3994678 0.33119664 0.15416722 -0.060357634 0.55985457
-0.36751744 -0.38998967 0.61325896 -0.10291208 -0.85750747 -0.42923912 0.0021874623 0.06880126
-0.05223673 -0.014435221 -0.14692782 0.5805047 0.22839682 0.3586102 0.30357364 0.046830125
0.03364461 -0.38390142 0.13069053 -0.23749688 0.102519356 -0.24886501 -0.26797536 0.23309286

action_head.bias f4 [4]
00000000: 4e2c 273f 637a 3c3e eaf5 b6be 078d a9be
0.6530198 0.18406062 -0.35734493 -0.33115408

value_head.weight f4 [1, 16]
00000000: e6de 8ebc d88d 663d b124 823e c28d 9d3d
00000010: 6f41 b3be 5dfa c7be 453e 033c c55f 64be
00000020: 79f9 d83e 119c 4e3e 7fbe b0be f595 853e
00000030: 9ad3 00bd 2feb 743e bd9b 483e 0b9c 61be
-0.01744027 0.056287616 0.25418618 0.07693054 -0.3501086 -0.390582 0.008010452 -0.22302158
0.42377833 0.20176722 -0.34520337 0.2609097 -0.0314518 0.2391784 0.1959066 -0.22032182
