models/LinearModelV0.100.pt (torch, 5619 bytes, 7 tensors)

conv_layer.0.weight f4 [16, 1, 3]
00000000: b6b7 e23e 7726 cf3e 0f89 e33e 9991 0cbe
00000010: cdb0 60bd 9b52 5cbf 65df 0f3c dfd7 c83c
00000020: a5bd a63b 9a03 1f3f 35e8 0c3e 7ab3 463f
00000030: 524f 2639 b611 65ba ccde 4a3a a412 16bd
00000040: 230a f3bd cf00 d9bd cf89 55bd 9940 83be
00000050: 4f35 57bd fe12 bc3c f82f 40be 53fd f4bd
00000060: 5bbe 26bf ed49 86be 5a98 ffbe 6449 5fbe
00000070: 63d8 50bf a801 78bf 070e 47bf b418 c73e
00000080: 533a f13e 829d 123e 7f24 9abe 0f39 f9bd
00000090: 88b7 3d3b 86d8 bd3b 647d 933a 3a5e 0e3b
000000a0: 72d5 923b 2d07 0c3b cf8b 00b9 6dda d93b
000000b0: 91f9 4a3b 171a 0f3c 0952 633c 4fe9 e73a
0.44280785 0.40459034 0.44440505 -0.13727416 -0.05485611 -0.86063546 0.008781289 0.024516998
0.0050885254 0.6211487 0.13760455 0.7761761 0.00015860543 -0.0008738296 0.0007738888 -0.03663887
-0.11867168 -0.10595857 -0.052133378 -0.25635222 -0.052541073 0.022958275 -0.18768299 -0.1196238
-0.6513421 -0.26228276 -0.49920923 -0.2180534 -0.8158018 -0.9687753 -0.7775578 0.38886034
0.4711481 0.14317897 -0.3010597 -0.12169086 0.0028948504 0.005793634 0.0011252579 0.0021723644
0.004481011 0.0021366582 -0.00012259114 0.006648353 0.0030971507 0.008734248 0.013874539 0.0017693433

conv_layer.0.bias f4 [16]
00000000: 50c1 f33d fa95 63be c620 303c 4b2f d93d
00000010: e967 0cba c03c 4fbd 652e 6fbd 06d8 81bd
00000020: 3aee 0dbe 819b 89be 1bb7 c13d 767f a1bd
00000030: a147 423b 801f 583a 7a89 923a a63d 123c
0.11902106 -0.2222518 0.010750001 0.106047235 -0.000535606 -0.050595045 -0.058393855 -0.06340031
-0.13860407 -0.26876453 0.09458753 -0.07885639 0.0029644745 0.000824444 0.0011179887 0.008925831

layer_1.1.weight f4 [16, 32]
00000000: 28cf 7abd 5d3e 943d 5dd2 9cbd ae1c 643e
00000010: 9c5a d9bc e4ca bdbb 89cf 3cbe 5f3f 8abe
00000020: d850 953d 0e18 02bc 663c 953d f874 533d
00000030: 7225 40bc c0d3 00bc 3d3f b8bb 95db 6ebd
00000040: 3367 0e3e ce21 a73c 497b 91be 3f87 2e3c
00000050: a0ef cc3e 1d86 84be a50f aebd 4aef 89bd
00000060: 6f0d 7cbd 3a31 943c b77f 9b3d 4ce1 813d
00000070: e73a f23c 3cd4 d33c f31a 503b 5199 4fbd
00000080: 5825 4ebe 96fc f8bd 8a51 5e3e 73cb d53c
00000090: cc9e e23c 2f30 45bd 7cad 7abe 1e6e 59be
000000a0: 3e32 cd3c 64de 743d c67a 003e 5b6c 1e3d
000000b0: bdb1 933b d116 f33d 626d 123d c071 cfbc
000000c0: 2f02 923e 2020 993e 4ca4 3c3f 8ea4 083f
000000d0: 1966 e9bd fbe8 b73d bf1f 863e a92c 6d3d
000000e0: a66a 2b3d 9def 383c 1dcf d03c 7222 013d
000000f0: 6f7a 42bd 6966 ec3c b321 59bd f440 f7bc
00000100: 2e6d 7cbd d636 ad3b e9dd b63d 7c2a 4cbe
00000110: a744 0bbd 41dd 243d 183a 063e 5293 d539
00000120: 07c7 bebc 17e1 80bd 06c8 1ebd 0aae 64bd
00000130: 967b 513c f345 2abb e157 58bd e3c7 ba3d
00000140: 39fb 1dbd 8d66 7cbd 8a1e 6abd 028f 90bd
00000150: 28f0 39be efbe 3dbb e957 54bd 61d4 a6bb
00000160: 69fa dcba 6a32 133d e01a 9cbc 84f3 7cbd
00000170: da1d 203c 2538 53bd 4841 8bbc 8310 ae3c
00000180: 3936 3abd 7921 1a3e bc93 bfbe 7961 c03d
00000190: 3214 19bd 3da8 f43c 926c ac3e 870e 69be
000001a0: cc0d b2bd 85c7 fa3c bf9f 3fbd a6bb 0abd
000001b0: c155 373e ff8e 39be bba4 11be a06d f2bd
000001c0: ab95 0abd 127c c33d 0c67 b1be 622b 97be
000001d0: 8434 033f 7de2 5e3e 3c82 6dbd 950d 96be
000001e0: d97c 1e3c e9bf 363d 4596 78bd 7b84 e0bc
000001f0: c052 9ebd b835 713c 6807 18be 099c 993c
00000200: 7aa1 bc3c a0dd 0d3c b39b 7abb 59e8 e33c
00000210: 8731 1bbd 1aa8 14bd 121e 17bd 2ad1 10bd
00000220: 1e80 baba efad fcbb 70e8 743a 71c1 7bbb
00000230: 889d 433d e573 54bd b7f6 d03c 062c afbc
00000240: 61f3 fb3c 80ca dd3c cb48 0cbc 578d 8d3c
00000250: 55cf 853d e084 1cba 02f9 2f3d 262a 183d
00000260: 6380 39bc 41da 59bc 2c30 06bc 8dc9 c7bb
00000270: edc5 46bc a9d4 97bb 7c3b 6abd be58 f5bb
00000280: ace0 8abd 90ba 973c bbab ed3d 844e 103d
00000290: 9945 153d d2e1 2a3d 371e 77be 7865 04be
000002a0: 47c7 1dbd 1ce8 903a 8a00 adbd fa32 103c
000002b0: 1279 953d 8a1a 4ebd 9687 ed3d 4fe3 b0bd
000002c0: 0fb6 bc3d 347e 8f3d 72c9 6d3d c28f 643e
000002d0: e141 023e 23ac c9bd 4cb7 dd3c 6000 a8bc
000002e0: 7aae 563d e4fb b73b 3323 b4bc 385b 573d
000002f0: b05a 24bd 26df 7f3d 3945 49bd f757 bc3d
00000300: e1aa bebe b981 c2be 19d9 c23d 4918 2b3f
00000310: 5bf6 1abe e954 733c 3a7f 06bf 25ef 0ebf
00000320: d36d de3c cd93 54bd e48a 423c a793 a4bd
00000330: f533 b33d cfc9 473c d467 ffbc e08a 313b
00000340: 9e5d 2e3f 5b51 e43e f761 ef3e 25a3 633f
00000350: f9cb c03e 2d8a aebe 6d8b 91bd 61dd d63c
00000360: 4a0a b5bd f859 0d3d 48ae f3bc 1556 593c
00000370: 2b98 0e3d 578c 93bc 3177 f0bd 82e2 fa3c
00000380: 96d1 073e e836 dd3d 17a5 19be a190 f7be
00000390: 6a59 573a 8ded 843d f8f9 f23e 8b1c c13e
000003a0: 13bb 53be 691c 42bc 278b 8b3d d805 e03d
000003b0: 596f debd 20b5 903d 1fc0 df3d 8017 b43d
000003c0: 749d cbbe e43f 58be 425d e7bd df06 e7be
000003d0: a31e c7be 7899 c03e e494 c83d 2b04 f8bd
000003e0: 995d 003c c595 9f3d 0cde 8dbd 1d88 b1bd
000003f0: df6c a0bb 933c 80bd a9f7 ccbc 4631 37bb
-0.061232716 0.07238457 -0.07657311 0.22276565 -0.026532464 -0.0057920087 -0.18438543 -0.27001473
0.0729081 -0.007940305 0.07286911 0.051625222 -0.011727678 -0.007862985 -0.005622773 -0.05831488
0.13906555 0.020401862 -0.28414372 0.010652362 0.4002657 -0.2588357 -0.08499078 -0.06735094
-0.06153625 0.01808988 0.07592719 0.063418 0.029569102 0.025858037 0.0031754344 -0.050683323
-0.20131433 -0.12157552 0.21710792 0.026097989 0.02766361 -0.048141655 -0.24480242 -0.21233413
0.025048371 0.0597824 0.12546834 0.038677555 0.004507272 0.11869586 0.035748847 -0.025322795
0.2851729 0.29907322 0.736882 0.5337609 -0.11396427 0.089799844 0.26196095 0.05790392
0.041849755 0.011287597 0.025489384 0.03152699 -0.047480043 0.028857427 -0.053010654 -0.03018234
-0.06162756 0.005286078 0.08929045 -0.19938082 -0.03400102 0.040250067 0.13108099 0.00040736288
-0.023288263 -0.062929325 -0.038764976 -0.05583004 0.012785813 -0.0025981634 -0.052818183 0.091201566
-0.038569663 -0.061621238 -0.05715803 -0.070585266 -0.18158019 -0.0028952917 -0.05184165 -0.0050912355
-0.0016859296 0.03593675 -0.019055784 -0.061755672 0.009772742 -0.051567215 -0.016998902 0.021248108
-0.045461867 0.15051831 -0.374174 0.093935914 -0.037372775 0.029865379 0.33676583 -0.22759448
-0.08694038 0.030612716 -0.046783205 -0.03387036 0.17903806 -0.18120955 -0.14222996 -0.118373156
-0.03383414 0.09545149 -0.3464893 -0.29525286 0.5125201 0.21766086 -0.05798553 -0.29307237
0.009673321 0.044616614 -0.060690183 -0.027406922 -0.07730627 0.01472228 -0.14846575 0.018751161
0.023026217 0.008658797 -0.0038239777 0.027820753 -0.03788903 -0.036293127 -0.03689391 -0.035355724
-0.0014228856 -0.007711164 0.0009342497 -0.003841486 0.047757655 -0.05186834 0.025508268 -0.021383297
0.0307557 0.027074099 -0.008562277 0.01727931 0.06533686 -0.00059707277 0.04296208 0.03714957
-0.011322114 -0.013296665 -0.008190196 -0.006097025 -0.01213215 -0.0046335054 -0.057185635 -0.0074873855
-0.06781134 0.018521577 0.116050206 0.03523113 0.036443327 0.041719265 -0.2413262 -0.12929332
-0.038520124 0.0011055502 -0.084473684 0.008801216 0.07298483 -0.05031828 0.115981266 -0.08637106
0.092144124 0.07006493 0.05805344 0.22320464 0.12720443 -0.098472856 0.027064942 -0.020507991
0.052412488 0.0056147445 -0.02198944 0.052577227 -0.04012555 0.06246867 -0.04913828 0.091964655
-0.37239745 -0.37989596 0.09514064 0.6683393 -0.1513304 0.014851787 -0.5253788 -0.55833656
0.027151978 -0.051898766 0.011873934 -0.08035975 0.087501444 0.012194111 -0.031177439 0.0027090833
0.681116 0.4459332 0.4675443 0.88920814 0.3765562 -0.34089795 -0.071066715 0.026228609
-0.08839853 0.03450963 -0.02974619 0.013265152 0.034813087 -0.018011255 -0.11741484 0.030625585
0.13263544 0.10801488 -0.15004383 -0.4835253 0.0008214923 0.06490622 0.47456336 0.3771709
-0.20676832 -0.011847594 0.068136506 0.109386146 -0.10861082 0.07065797 0.10925316 0.08793545
-0.39768565 -0.21118122 -0.112970844 -0.4512243 -0.3889056 0.37617087 0.09794024 -0.1211017
0.007834815 0.07792238 -0.06927118 -0.0866854 -0.004895791 -0.062615536 -0.025020437 -0.0027952953

layer_1.1.bias f4 [16]
00000000: 4103 483d 948c 053e 466c 5d3d 02ed 2abd
00000010: 1ce2 19bd dcb8 ad3d 0cf8 943d f216 da3c
00000020: e955 abbe cc09 f0be ae8e b4be 6748 553e
00000030: c7ce 923d 7b1f 1dbd c12e 1ebb 60a6 673e
0.04883123 0.13041908 0.054058336 -0.041729935 -0.03756915 0.08482525 0.07273874 0.02662227
-0.33463982 -0.46882474 -0.35265106 0.208284 0.07168346 -0.0383601 -0.0024136754 0.22622061

action_head.weight f4 [4, 16]
00000000: 26c9 9cbc ffd6 1d3f c4c8 6abd 1bb4 eebd
00000010: c7d7 a8bc 2a47 423e 3623 8a3f 5c31 93be
00000020: 598e 4fbe a1af 71be 6ea7 82bf 7c70 85be
00000030: 878b e9be fc29 073d ac1e ac3d 9c2b 643f
00000040: 5ce8 c6be 65b6 a4bd e3b9 34bd 3a62 1abe
00000050: 8132 973d 24e2 afbe 8aa5 83be 0baf 803e
00000060: 8fa9 2d3e 0515 923f 3bb9 4a3f 1d74 5cbe
00000070: fcc3 7d3d ec35 263e 7d98 9bbe 60d9 1abf
00000080: 8faf fabd 6e87 d43d a776 013e ded3 1bbf
00000090: 6dec c0bd c867 073e f3c2 06bf 0bae dc3e
000000a0: e186 b2be 615d 4fbe fe39 0b3f 401b e23e
000000b0: 3331 ba3e 790e febc 3831 21be 48df 20bf
000000c0: 1a6a 1a3f 4160 33bf f3f1 10be 9df7 1b3f
000000d0: 9700 e03c e342 903d d652 b2be 3ae3 8cbb
000000e0: b8ed 9e3d e273 73be 0add 6f3e eb6b 573e
000000f0: b972 ecbd 85af 5b3c e66a 873d 498e 70be
-0.019138884 0.61656183 -0.05732037 -0.11655446 -0.020610703 0.1897246 1.0791996 -0.28748596
-0.20269145 -0.23602153 -1.0207345 -0.2606238 -0.45614263 0.032999024 0.08404288 0.8912904
-0.3884915 -0.080426015 -0.044122588 -0.15076533 0.0738268 -0.3435222 -0.25712234 0.25133547
0.16959213 1.1412665 0.7918889 -0.21528669 0.061954483 0.16231507 -0.30389777 -0.6048794
-0.122405164 0.10377394 0.12642919 -0.6087016 -0.09420095 0.13223183 -0.5264122 0.43101534
-0.3486853 -0.20250465 0.54385364 0.44161415 0.3636566 -0.03101276 -0.15741432 -0.628407
0.6031815 -0.70068747 -0.14154796 0.609247 0.027344031 0.07044008 -0.34828824 -0.0042995485
0.07760185 -0.23774675 0.23424163 0.21037261 -0.11545319 0.013408546 0.06612186 -0.23491777

action_head.bias f4 [4]
00000000: e392 083e 2df1 ccbf 796c 243d e354 a83d
0.13337283 -1.6011101 0.04014251 0.08219316

value_head.weight f4 [1, 16]
00000000: ca57 1bbd a6ee 03bd c52f 5c3b 9806 19bc
00000010: 03c0 bfba f927 06bc 23a5 b1be cc41 283e
00000020: bd8f 24bf d7bf 013d 863f 893d 6172 863e
00000030: 6046 2f3d 4e27 20bc 58e9 9ebc e290 4ebd
-0.03792552 -0.032210015 0.0033597809 -0.009339951 -0.0014629368 -0.008188241 -0.34696302 0.1643135
-0.6428183 0.031677093 0.06701569 0.2625914 0.042791724 -0.009774996 -0.019398376 -0.05043114
