models/LinearModelV0.75.pt (torch, 5737 bytes, 7 tensors)

conv_layer.0.weight f4 [16, 1, 3]
0	0xbe4c2585	-0.19936188
1	0xbe17eb77	-0.14835916
2	0xbed2788a	-0.4110759
3	0x3e0d45f1	0.13796212
4	0x3f2d35e9	0.67660385
5	0x3f3a319e	0.7273196
6	0x3f32ad23	0.69795436
7	0xbdc7f5a8	-0.09763652
8	0x3f485081	0.7824784
9	0x3eaf19c6	0.3419935
10	0x3e37507b	0.17901795
11	0x3f8214c8	1.0162592
12	0x3f0fdf72	0.56200325
13	0xbdfb23c4	-0.12262681
14	0xbf28b18d	-0.6589592
15	0xbb31bcf2	-0.0027120677
16	0x3b51f59a	0.003203726
17	0xbbdd142a	-0.0067467885
18	0x3bc697e9	0.0060605896
19	0x3b98a00c	0.004657751
20	0xba805736	-0.0009791616
21	0x3e5a046a	0.21290746
22	0x3e47810d	0.19482823
23	0x3ee3a222	0.44459635
24	0x3e44baa0	0.19211817
25	0x3e2f4159	0.17114772
26	0x3e986ec8	0.2977202
27	0xbda57760	-0.080794096
28	0x3d2a9323	0.041644227
29	0xbe77c9b7	-0.24198042
30	0xbdac1407	-0.084022574
31	0x3eb579ec	0.35444582
32	0xbf2d3067	-0.6765198
33	0x3ef27001	0.47351077
34	0x3e126165	0.14294966
35	0x3f831732	1.0241454
36	0xbf1bbedd	-0.6083811
37	0x3de5fb7e	0.11229609
38	0xbb8fd098	-0.00438888
39	0x3f1f04d6	0.62116754
40	0x3f048633	0.5176727
41	0x3f53af9f	0.8268985
42	0xba5a78e0	-0.0008334052
43	0x396043c0	0.00021387544
44	0xbb822fbc	-0.0039729755
45	0xbf7b63af	-0.9819898
46	0xbed937d8	-0.42425418
47	0x3c0acc33	0.008471536

conv_layer.0.bias f4 [16]
0	0xbde24b04	-0.11049464
1	0x3ea58816	0.32330388
2	0x3d9338c6	0.07188563
3	0x3e1cc892	0.15310887
4	0xbd8ff94d	-0.07029972
5	0x3a27e7d9	0.00064050924
6	0x39f5b534	0.00046865048
7	0x3e0dcb79	0.1384715
8	0x3d8a1997	0.06743162
9	0xbd194f09	-0.03742889
10	0xbc4e9a59	-0.012610042
11	0xbcb6e1c3	-0.022324448
12	0x3d3ef161	0.046616916
13	0xbca906a0	-0.020633042
14	0xba4b3d48	-0.0007752967
15	0xbe3799b2	-0.17929724

layer_1.1.weight f4 [16, 32]
0	0x3dee03c7	0.11621814
1	0xbe6fa4e7	-0.23402749
2	0xbe62dcd6	-0.22154555
3	0x3ece5820	0.4030161
4	0x3e2838c6	0.16427907
5	0x3f159076	0.58423555
6	0xbd1c1c7a	-0.038113095
7	0x3f7664a4	0.96247315
8	0x3ec04faa	0.3756078
9	0xbf175a30	-0.5912199
10	0xbc32e82c	-0.010919612
11	0xbcc1051f	-0.023562012
12	0x3c1699f5	0.00919198
13	0xbc160a59	-0.0091577405
14	0xbe186d45	-0.14885433
15	0x3e8e518e	0.27796596
16	0x3bda9d3c	0.006671576
17	0x3e43fd44	0.19139582
18	0x3e09cd5a	0.13457242
19	0xbe3b240a	-0.18275467
20	0x3e5699b6	0.20957074
21	0xbf0f7463	-0.5603697
22	0x3b965820	0.004588142
23	0x3f5b5ecd	0.8569153
24	0xbe3beeff	-0.18352889
25	0x3d4c0616	0.04981049
26	0x3e5d0a9a	0.21586075
27	0x3f2d9280	0.67801666
28	0x3bc81ed7	0.006107192
29	0xbba31361	-0.0049766754
30	0xbeb09f2c	-0.34496439
31	0x3e573f77	0.21020304
32	0x3e9132a0	0.28358936
33	0x3c1c2040	0.009529173
34	0xbf3447f8	-0.70422316
35	0xbe08d591	-0.13362719
36	0xbe204406	-0.15650949
37	0xbe762954	-0.24039203
38	0xbebabade	-0.36470693
39	0xbc28295e	-0.010263769
40	0x3ccb1f5e	0.02479523
41	0xbf1d990d	-0.6156166
42	0x3cc0eb23	0.023549622
43	0x3c936734	0.017993547
44	0xbc08c6e8	-0.008348204
45	0x3cbc2eab	0.022971472
46	0xbebe84b9	-0.37210634
47	0xbd7cbd37	-0.061703887
48	0xbe25550f	-0.16145729
49	0xbd001055	-0.031265575
50	0x3c3267be	0.010888992
51	0xbd47fb18	-0.048823446
52	0xbd5b1eba	-0.0534961
53	0xbe6854ca	-0.22688594
54	0xbd100d06	-0.03516867
55	0x3c9bbed4	0.019011892
56	0xbd3ee9d4	-0.046609715
57	0x3f057a09	0.52139336
58	0xbebed135	-0.37268987
59	0xbddf73b8	-0.109107435
60	0x3c9d0097	0.01916532
61	0x3be4f3fc	0.006987093
62	0x3ee20c60	0.44150066
63	0x3f524282	0.8213273
64	0xbc0a6998	-0.008448027
65	0x3d2574cf	0.0403946
66	0x3d0356b3	0.032065105
67	0xbdbba373	-0.09162035
68	0x3d60111a	0.05470381
69	0xbcaf2ddd	-0.021384174
70	0x3d43a866	0.04776802
71	0xbc2a1f14	-0.010383386
72	0xbd063884	-0.03276874
73	0xbac335ec	-0.0014893389
74	0x3bcd8102	0.0062714824
75	0x3b93fad2	0.004515984
76	0x3bb2faca	0.0054620253
77	0x3ba689b2	0.0050823325
78	0x3d54418e	0.05182033
79	0xbcfa716f	-0.030571667
80	0x3c9ed43f	0.019388316
81	0x3a4d937e	0.00078421074
82	0x3b6b2781	0.00358817
83	0xbcd1c882	-0.025608305
84	0x3c9850f8	0.018593296
85	0xbd63b0c4	-0.0555885
86	0x3dc41132	0.09573592
87	0xbcc460d8	-0.02397196
88	0xbd8321eb	-0.06402954
89	0x3c79edce	0.015254451
90	0x3ce77a44	0.028256543
91	0x3d3a1a23	0.045435082
92	0xbb96a4bd	-0.004597275
93	0xbc0b1baa	-0.008490482
94	0xbe270316	-0.16309771
95	0xbd135fd9	-0.03598008
96	0xbc7b1430	-0.015324637
97	0xbcbd0bd5	-0.023076931
98	0x3cbba276	0.022904616
99	0x3c781b85	0.01514328
100	0xbdc4d449	-0.09610803
101	0x3a619aa4	0.0008606112
102	0xbd439d6b	-0.047757547
103	0x3b9b60c5	0.0047417604
104	0xbd23f4bf	-0.04002833
105	0xbd4adc54	-0.049526528
106	0xbadb040f	-0.0016709584
107	0x3c3c0f08	0.011478193
108	0xbb980f3d	-0.0046404884
109	0x3b57c018	0.0032920893
110	0x3d45a0cb	0.048249047
111	0x3c3e801e	0.011627225
112	0xbd4ea2dc	-0.050448284
113	0xbc9b7528	-0.018976763
114	0xbd373c3a	-0.04473517
115	0xbcc16283	-0.023606544
116	0x3d959853	0.07304444
117	0xbd559978	-0.052148312
118	0xbd7d0df8	-0.0617809
119	0x3c4d0ee4	0.012515757
120	0x3b930462	0.0044866065
121	0x3d646d2c	0.055768177
122	0x3d3d8411	0.046268526
123	0xbcb55712	-0.022136245
124	0x3b779519	0.0037778078
125	0x3b920371	0.0044559767
126	0x3dcd2ab3	0.1001791
127	0x3acf9cdd	0.0015839596
128	0x3de25d21	0.11052919
129	0x3df8b177	0.12143224
130	0xbd3db4de	-0.046315067
131	0x3d7d1b16	0.06179341
132	0xbb615319	-0.0034381805
133	0x3c8f8780	0.017520666
134	0xbca3638c	-0.019944929
135	0x3c9ad132	0.01889858
136	0xbd44b001	-0.048019413
137	0xbbac7f2b	-0.005264183
138	0x3c9187df	0.017764984
139	0x3d01b9e1	0.03167141
140	0xbd09a292	-0.033602305
141	0xbc889af4	-0.01667545
142	0x3d588ed9	0.052870605
143	0xbdee5c61	-0.11638714
144	0xbd9f2625	-0.07770947
145	0x3d48a8e5	0.048989195
146	0x3db4587e	0.08805941
147	0x3d4f5e66	0.050627135
148	0x3da2d418	0.0795061
149	0xbd8bdb5c	-0.06828949
150	0x3daa3808	0.08311468
151	0x3d8cbad3	0.068715714
152	0x3dbfcbe1	0.09365059
153	0xbdab3ecd	-0.08361588
154	0x3e148afb	0.14506142
155	0x3e166a1a	0.14688912
156	0x3cdda003	0.027053839
157	0x3d0e2d1e	0.034710996
158	0xbe185123	-0.14874701
159	0xbd81315c	-0.06308243
160	0xbd2bffff	-0.041992184
161	0xbd87d156	-0.066317245
162	0xbcb0f8aa	-0.021602947
163	0xbcb6c5a2	-0.022311036
164	0x3d318d71	0.04334778
165	0xbd8f3c5c	-0.069939345
166	0x3d09f8aa	0.03368441
167	0xbbdf47f9	-0.0068139997
168	0x3d8f4a38	0.06996578
169	0xbcb05892	-0.021526609
170	0xbc58d22a	-0.013233701
171	0x3be8f3fd	0.007109164
172	0x3bf8a5ba	0.0075881155
173	0xbd307e56	-0.043089233
174	0xbbbb4a06	-0.0057156114
175	0x3b962293	0.0045817583
176	0x3d6e95d9	0.058248375
177	0xbac9efec	-0.0015406585
178	0x3d756f37	0.059920516
179	0x3d12612f	0.035737213
180	0xbc8548c8	-0.016270056
181	0x3cf32037	0.029678447
182	0x3ca45690	0.020060807
183	0x3c6062b3	0.013695407
184	0xbd5f0faa	-0.054458298
185	0x3c1e0a79	0.009646052
186	0xbe225d70	-0.15855956
187	0xbda6ca8e	-0.08144103
188	0xbc10510d	-0.0088083865
189	0x3c9c7bc8	0.019101992
190	0x3e28e487	0.16493426
191	0x3e2e72e5	0.17036016
192	0xbde20b4a	-0.110373095
193	0xbdace7e6	-0.084426686
194	0x3d12652d	0.03574102
195	0x3e995673	0.29948768
196	0x3e14be70	0.14525771
197	0x3d7ddfe1	0.061981086
198	0xbc493d90	-0.012282744
199	0x3e3617db	0.17782538
200	0x3e9a80b1	0.3017631
201	0xbe247b6c	-0.16062707
202	0x3cf612ee	0.030038323
203	0x3b3169eb	0.0027071189
204	0x3cb6fb60	0.022336662
205	0x3d97cd7f	0.07412242
206	0xbd28fba3	-0.041255604
207	0x3e084673	0.13308124
208	0x3d24fde1	0.04028118
209	0xbd26a436	-0.040683948
210	0xbda5c230	-0.08093679
211	0x3c9706da	0.018435884
212	0xbd0508c6	-0.03247907
213	0xbcc395cd	-0.023875142
214	0x3d5abd23	0.05340303
215	0x3e6129b3	0.21988563
216	0xbdee7e2d	-0.1164516
217	0x3e0d43cb	0.13795392
218	0x3e220bb7	0.15824781
219	0x3c8a3e42	0.01687539
220	0x3d474817	0.048652735
221	0x3be69643	0.0070369556
222	0xbea7e178	-0.32789207
223	0x3d72c435	0.05926915
224	0xbbe8d6b0	-0.007105671
225	0xbd8f91e0	-0.07010245
226	0xbdd593fb	-0.10428616
227	0x3e30e2c8	0.1727401
228	0xbd0c1729	-0.034201775
229	0xbd14d20f	-0.03633314
230	0x3da1d209	0.07901389
231	0x3da8df2a	0.0824569
232	0x3e3225b9	0.17397203
233	0xbd550eb2	-0.052015968
234	0x3d32b230	0.043626964
235	0x3cc70edf	0.024299083
236	0x3b5abdee	0.0033377367
237	0x3d625808	0.055259734
238	0xbc869a0c	-0.016430877
239	0x3b009719	0.0019621311
240	0xbe2c906b	-0.16851966
241	0x3dbbf7ac	0.09178099
242	0xbc4ce026	-0.012504613
243	0x3dc62855	0.096756615
244	0xbd1a3ec4	-0.037657514
245	0x3d90b4ea	0.070657566
246	0xbd31f7b0	-0.043449104
247	0xbe07ba38	-0.1325463
248	0xbdc20d39	-0.09475178
249	0x3e556133	0.2083786
250	0xbd8818c8	-0.06645352
251	0x3d6329e6	0.05545988
252	0xbb6a2799	-0.0035729168
253	0xbc4edc7e	-0.012625812
254	0x3c40b1e3	0.0117611615
255	0x3cdce5e8	0.026965097

layer_1.1.bias f4 [16]
0	0xbbfa66ab	-0.0076416335
1	0xbed157ad	-0.40887204
2	0x3c9c63b0	0.019090503
3	0xbd4e96c6	-0.050436758
4	0x3cc9462c	0.024569593
5	0x3d005125	0.031327385
6	0x3d500355	0.050784428
7	0xbcb219bc	-0.021740787
8	0xbd5aa45d	-0.053379405
9	0x3de6da16	0.11272065
10	0x3dbfa5da	0.093578056
11	0xbdecae02	-0.11556627
12	0x3f008ba8	0.502131
13	0xbe377fcc	-0.17919844
14	0xbe8cf215	-0.27528444
15	0xbc1c2dad	-0.009532374

action_head.weight f4 [4, 16]
0	0xbf1133c0	-0.5671959
1	0x3df07ed3	0.1174294
2	0x3deebb29	0.11656792
3	0xbe25fe3e	-0.16210267
4	0xbe338029	-0.17529358
5	0x3d7f4ca3	0.062328946
6	0x3e5d3ce9	0.21605267
7	0x3e2089c7	0.15677558
8	0x3ea12e41	0.314806
9	0x3e6e5f8f	0.2327864
10	0x3ed6e1e7	0.41969225
11	0x3f80db2d	1.0066887
12	0x3eceb483	0.40372095
13	0xbf94d6d4	-1.162806
14	0xbf9055bd	-1.1276165
15	0x3c7bcf9b	0.015369321
16	0x3e96dd8d	0.29465905
17	0x3fe5fb34	1.7967286
18	0x3c22b6e4	0.0099313
19	0x3e8384a1	0.25687125
20	0xbe56dfef	-0.20983861
21	0x3e7af750	0.24508405
22	0xbf3cdcc4	-0.7377436
23	0x3d4e8332	0.050418086
24	0x3cafbb41	0.021451594
25	0xbf2b9916	-0.67030466
26	0x3db454af	0.088052146
27	0x3fc05da9	1.5028583
28	0xc03b0fca	-2.9228387
29	0xbe0f5583	-0.13997464
30	0x3ea9fe32	0.33201748
31	0x3e2f406f	0.17114423
32	0x3ecbd70d	0.39812508
33	0xbfba2fce	-1.4545839
34	0x3e3ad7e6	0.18246421
35	0xbe7c6022	-0.24646047
36	0x3e9c11ee	0.3048243
37	0xbec091c2	-0.37611204
38	0x3f209f6b	0.6274325
39	0xbe11188f	-0.14169525
40	0x3ea3e0cb	0.3200744
41	0x3f2dd5db	0.6790444
42	0xbec41409	-0.38296536
43	0xbfab5c7f	-1.3387603
44	0x3f6183b6	0.880916
45	0x3f0a0b6b	0.5392367
46	0x3e9ebf5d	0.31005374
47	0x3cd3bd36	0.025847059
48	0x3db97507	0.09055524
49	0xbe929150	-0.2862649
50	0xbe0bc7d0	-0.13650441
51	0xbccc16d5	-0.02491323
52	0xbd25045d	-0.040287364
53	0xbd723130	-0.05912894
54	0xbdf4af16	-0.119474575
55	0xbd4ee04f	-0.050506886
56	0xbe6d52a2	-0.23176053
57	0xbdd2902d	-0.102814056
58	0xbe66a8ba	-0.22525302
59	0xbecdfa65	-0.40230098
60	0x3eddeccd	0.43344727
61	0x3ef9b20b	0.48768649
62	0x3ebfe0b5	0.37476125
63	0xbe3e87cf	-0.18606494

action_head.bias f4 [4]
0	0x3dfbfc8e	0.1230403
1	0xbf8e3f3d	-1.1113049
2	0x3e958b0a	0.2920764
3	0x3f13ab3d	0.57683164

value_head.weight f4 [1, 16]
0	0x3e778309	0.2417108
1	0xbbb6c84c	-0.0055780765
2	0xbbfd1a82	-0.0077241072
3	0x3a90bedb	0.0011043207
4	0x3a3e98de	0.0007270704
5	0xba9921ec	-0.0011683083
6	0x3cd9ce13	0.026587522
7	0xb720e626	-9.590329e-06
8	0x3d23b379	0.03996608
9	0x3c9371ef	0.017998664
10	0x3a4f6876	0.0007911989
11	0x3b68261c	0.0035423106
12	0x3cd7f76a	0.026363093
13	0xbc7b3950	-0.015333489
14	0x3b31dd8c	0.002714011
15	0x3b363bcb	0.0027806635
