models/LinearModelV0.60.pt (torch, 5737 bytes, 7 tensors)

conv_layer.0.weight f4 [16, 1, 3]
000000 b9 a4 85 be 10 43 42 be 31 d7 ed be b4 36 19 3e
       -0.26102236 -0.18970895 -0.4645324 0.14962274
000010 be a6 2f 3f ae 9d 3d 3f 66 f5 31 3f ca 42 d5 bd
       0.68613803 0.74068725 0.69515073 -0.1041313
000020 15 23 38 3f 48 2d af 3e cc ad 46 3e 87 19 72 3f
       0.7192853 0.34214234 0.19402236 0.945702
000030 27 74 03 3f c6 79 06 be 89 d0 26 bf 87 51 05 bd
       0.5134911 -0.1313239 -0.6516195 -0.032548454
000040 f2 4c 90 bc d5 5f 40 bd 96 65 c3 ba e9 67 8c 3b
       -0.017614815 -0.046966393 -0.0014907594 0.004284848
000050 dd d8 8f 3b 8d 8d 8e 3e 0b d3 81 3e 96 32 ef 3e
       0.004389866 0.2784237 0.25356326 0.46718282
000060 8f ca 89 3e 16 35 8d 3e 40 3f b6 3e 58 b8 ec bd
       0.26912352 0.27579564 0.3559513 -0.11558598
000070 03 32 cc 3d 46 04 9d be b1 a0 b1 bd f9 7e c8 3e
       0.099704765 -0.30667323 -0.086732276 0.39159372
000080 94 b4 2a bf fb f5 f6 3e 6c 75 38 3e 7b 65 71 3f
       -0.6668179 0.48234543 0.18013543 0.9429547
000090 2b 45 19 bf cc ca fa 3d 7a 6e 6c 3d fc 02 24 3f
       -0.59871167 0.12245712 0.057722546 0.64067054
0000a0 bb 83 0e 3f 60 ad 46 3f 19 24 03 3c c0 40 ae ba
       0.55669755 0.776083 0.008004212 -0.0013294443
0000b0 d4 25 88 38 cc b1 70 bf a3 71 f1 be 03 f2 cb 3c
       6.4920314e-05 -0.94021297 -0.4715701 0.024895674

conv_layer.0.bias f4 [16]
000000 d1 d4 12 be de 1c aa 3e 4f a1 a0 3d 37 7f 1e 3e
       -0.14338996 0.3322515 0.07843267 0.15478216
000010 bd f8 90 bd b8 75 cc bb ad 51 05 bc f5 32 2f 3e
       -0.07078693 -0.006239619 -0.008137149 0.17109282
000020 f2 7a 90 3d ef c0 56 bd 87 00 1f bc 4a ed 69 bd
       0.070547 -0.05243009 -0.009704716 -0.057111062
000030 35 dc 7b 3d b0 eb 62 bd 74 32 98 3b dd 4c 4d be
       0.061489303 -0.05540055 0.0046446864 -0.20048852

layer_1.1.weight f4 [16, 32]
000000 cf 71 fd 3d 06 8c 5b be 76 6d 43 be da c3 b7 3e
       0.12375223 -0.21440133 -0.19084725 0.3589161
000010 94 0f 30 3e b2 b8 05 3f 23 3b 59 bc cb 91 5d 3f
       0.17193443 0.5223495 -0.013258728 0.8655059
000020 20 a9 a9 3e 8a cf fc be ac 5c f9 bc f7 b0 9e bd
       0.33136845 -0.4937709 -0.030439697 -0.07748597
000030 a5 64 52 3c d7 f2 0a bd 9f f5 23 be 80 9b 83 3e
       0.012841378 -0.033922996 -0.16011666 0.25704575
000040 3a 0e 45 3d 29 13 5b 3e ae 07 22 3e ac 01 5a be
       0.04810927 0.21394028 0.15823242 -0.212897
000050 fe bd 53 3e 69 0b 02 bf ec c1 b3 3c 85 23 43 3f
       0.20677945 -0.5079866 0.021943055 0.76226074
000060 88 aa 14 be 55 3b 90 3c d6 52 81 3e 78 b0 23 3f
       -0.14518178 0.017606417 0.2525851 0.63941145
000070 9a 40 ed 3c 4c 86 83 bb 82 cf a5 be ce ff 32 3e
       0.028961468 -0.004013812 -0.32384878 0.17480394
000080 17 18 c5 3e 97 5c 7a 3c b2 9a 3c bf 6a f5 41 be
       0.38494942 0.015280864 -0.73673546 -0.18941274
000090 ac 1e 55 be c6 c4 07 be 33 1b d4 be 5a fe fc 3b
       -0.20812482 -0.13258657 -0.41427 0.0077207508
0000a0 60 bc 03 bb 46 e8 19 bf 30 c6 ad 3d 5f dc 44 3c
       -0.0020101294 -0.60120046 0.08485067 0.012015431
0000b0 4d 35 bf bc 8e 43 d7 3c 86 eb f8 be c1 02 c6 bd
       -0.023340845 0.02627733 -0.4861719 -0.09668494
0000c0 7c bd 47 be 95 b9 17 bd 11 73 f9 3c 9e 9b b5 bd
       -0.19505876 -0.03704222 0.030450376 -0.08867572
0000d0 b9 72 8f bc 6a d4 9b be 7f ac 50 bd dd 52 a5 3d
       -0.017510759 -0.30435497 -0.050945755 0.080724455
0000e0 f5 55 94 bc 79 0f 08 3f b4 3d c7 be 5f 1b b7 bd
       -0.018107394 0.5314861 -0.38914263 -0.089407675
0000f0 12 bb 37 bb 9c d9 bb 3c 22 29 eb 3e 08 b5 4a 3f
       -0.0028035087 0.022930913 0.4592982 0.7918248
000100 c2 3e ca 3c a3 a8 0d 3d b0 1b 7e 3d 85 f9 ab bd
       0.024688128 0.034584653 0.062038124 -0.083972014
000110 32 b1 af bc 88 e2 23 3c d3 58 bb 3c d0 83 16 3d
       -0.021446798 0.01000274 0.022869503 0.0367468
000120 d0 79 9b bd a5 d0 82 b9 dc f8 b0 3c af 53 d2 3c
       -0.07591593 -0.00024950985 0.02160304 0.02567467
000130 84 59 33 bd c3 44 bf bc c6 c5 87 3d 89 30 a2 bb
       -0.04378654 -0.023348218 0.06629519 -0.0049496335
000140 7e 4f 12 bd de f4 11 3c ee 40 84 3c 8b 42 86 bd
       -0.03572034 0.008908479 0.016144242 -0.06555661
000150 60 38 50 3d 9b e3 c2 bd 0c 04 4b 3d dc de 3f bd
       0.050835013 -0.095160685 0.049564406 -0.046843395
000160 59 d3 0e bb 04 3a 05 3d 44 21 9d bd 7a 46 68 3d
       -0.0021793453 0.03252603 -0.076723605 0.056707837
000170 bf 34 86 3c 67 54 f4 39 78 f6 0d be 6b 6d d7 bd
       0.016382573 0.0004660219 -0.13863552 -0.10518917
000180 02 ee 25 3b 5e cb 39 bc f6 45 17 3d c4 30 99 bc
       0.0025318866 -0.01133999 0.036931954 -0.018700011
000190 32 73 38 be b9 51 4c 3d 7f 3b 87 bd 21 c4 88 bb
       -0.18012694 0.049882624 -0.06603145 -0.004173771
0001a0 d1 6f 8c bd ea b4 ce bc 7f 80 45 bb c2 f0 3e 3d
       -0.06857265 -0.02523275 -0.0030136404 0.046616323
0001b0 63 62 20 bc 4e 29 ef 3a c4 a4 42 3d 88 5a 09 bd
       -0.009789082 0.0018246563 0.047520414 -0.033533603
0001c0 dc 20 aa bd 62 22 8f bc 57 b1 16 bd 51 56 cb bc
       -0.08307049 -0.01747245 -0.03679022 -0.024821432
0001d0 b0 0c dd 3d 49 78 a1 bd 48 75 8b bd c4 df 9d 3d
       0.107934356 -0.07884271 -0.06809479 0.077086955
0001e0 72 1c 1a 3d 63 c7 5a bc 68 18 9e 3d ef cd f1 3b
       0.037624784 -0.013353202 0.07719499 0.0073792855
0001f0 a9 84 d0 3a 92 97 6c 3c f7 8d 11 3e 53 21 f1 bc
       0.0015908676 0.014440434 0.14214312 -0.029434836
000200 2f 3d f2 3d 85 66 ec 3d e5 f7 e4 bc 9f 89 dd 3d
       0.11828076 0.115429915 -0.027950237 0.10817265
000210 73 ae ad 3b 1e 22 7c 3d 45 58 5f bc 16 59 b9 3d
       0.005300337 0.061555974 -0.013631885 0.09050195
000220 cb 3c c8 bc 5f 30 01 bd bf 62 06 3d 72 46 62 3d
       -0.02444305 -0.03154027 0.032809015 0.055242963
000230 62 f1 10 bd 43 d7 b6 bc a8 df c2 3d 50 a4 d6 bd
       -0.03538645 -0.022319442 0.09515315 -0.10480559
000240 60 b4 8e bd 74 ed ca 3d 83 e3 0a 3e 87 78 36 3d
       -0.069679976 0.09908572 0.13563351 0.044548538
000250 ca d0 fb 3d 69 f0 df bd 1d cb c6 3d 49 ec fb 3d
       0.12295683 -0.109345265 0.097067095 0.12300927
000260 8a 1d b4 3d 98 1c 15 be 3a 1d 47 3e 2a 61 46 3e
       0.08794697 -0.14561689 0.19444743 0.19373003
000270 d8 f3 19 3d ae 94 71 3d 83 dd 55 be 5b 35 a1 bd
       0.037586063 0.058979683 -0.20885281 -0.07871505
000280 59 a6 f8 bc 62 11 9c bd 08 a3 a5 bd be a0 13 bd
       -0.030352758 -0.07620503 -0.08087736 -0.036041968
000290 b0 27 c9 3d a9 32 f0 bd 97 85 1a 3d f2 d0 15 bc
       0.09822023 -0.11728413 0.037725057 -0.009144055
0002a0 4a e1 9f 3d 81 af e9 bd c2 cc 86 bc 2c ee a5 3c
       0.07806642 -0.11410428 -0.016455058 0.02025517
0002b0 20 0b 82 bb 9f f1 9c bd b2 c5 4e bd 5b 35 ec bc
       -0.0039686114 -0.07663273 -0.050481506 -0.028834036
0002c0 45 ed 5a 3d b6 0a 0a bd 8f e3 38 3d 29 da 55 3d
       0.053448934 -0.03370162 0.04513889 0.052210007
0002d0 a1 02 75 bd 9d 43 9d 3c ab 55 04 3d 07 4c 6d 3c
       -0.05981696 0.01919728 0.03230826 0.014483458
0002e0 9f 19 ab bd f6 d1 27 3e 23 13 53 be a2 19 dc bd
       -0.08354496 0.16388687 -0.20612769 -0.107470766
0002f0 02 be ba 3c 6e 75 50 3d c0 45 41 3e b9 14 8d 3e
       0.02279568 0.05089324 0.18874264 0.27554873
000300 b5 09 15 be 1b 83 19 be 83 bd 8b 3d 59 65 b7 3e
       -0.14554484 -0.14991419 0.06823256 0.3581951
000310 14 14 38 3e ca 39 a3 3d 17 8c c2 3b 00 a5 70 3e
       0.17976409 0.07970007 0.00593711 0.23500443
000320 6e 77 9d 3e 8e b7 50 be 6e 72 25 3d c2 6b 2b 3b
       0.3075518 -0.2038252 0.04039233 0.0026156758
000330 df 70 03 3d b3 d5 d8 3d 3d 40 db bc 93 5f 55 3e
       0.032090064 0.10587635 -0.02676403 0.2083724
000340 10 aa 70 3d 5f 92 96 bc aa 3d e5 bd b3 93 79 bc
       0.058755934 -0.018380342 -0.11193402 -0.015232968
000350 18 f5 44 bd 8e 60 ea bc ac 8e 79 3d 3d c9 84 3e
       -0.048085302 -0.028610494 0.060927078 0.25934783
000360 03 2b 02 be a9 8e 3d 3e 47 c0 36 3e da c4 d4 3c
       -0.1271172 0.18511452 0.17846785 0.025972772
000370 18 21 93 3d 84 cf a9 3b 09 57 b8 be 3b e0 1b 3d
       0.071840465 0.0051822085 -0.36003903 0.03805564
000380 6e e6 a6 3a ac 83 db bd 6f 4f 28 be aa 6e 49 3e
       0.0012733468 -0.10718474 -0.16436552 0.19671121
000390 7b e2 d5 3c cf ad ae 3b c8 69 ad 3d b0 0a 38 3e
       0.02610897 0.005330778 0.08467442 0.17972827
0003a0 81 8a 7c 3e b6 56 1e be c5 ab c4 3d 9a ce 4e 3d
       0.2466221 -0.15462765 0.09603075 0.05049
0003b0 f4 ab f9 3b 3e c7 b4 3d 9e 60 06 bd f7 6e 39 3c
       0.0076193754 0.08827065 -0.032806985 0.01131796
0003c0 8d f0 67 be 80 22 dc 3d 28 79 1e bd 43 bd ba 3d
       -0.22650357 0.10748768 -0.038689762 0.0911813
0003d0 29 5b 68 bd a3 24 29 3c 6d b5 0c bd e1 55 cf bd
       -0.056727562 0.010323676 -0.03435271 -0.10123802
0003e0 bb d1 46 be 8c e1 aa 3e db f9 5a bd 0c f2 9f 3d
       -0.19415943 0.33375204 -0.053460937 0.07809839
0003f0 be 2f ef bc 09 df 1e bd 7d 14 49 bd c9 69 9c 3d
       -0.02919757 -0.03878692 -0.049091805 0.076373644

layer_1.1.bias f4 [16]
000000 79 59 f3 3a 6d 36 ca be 74 2b b4 3d 30 96 c3 bd
       0.0018566094 -0.3949465 0.087973505 -0.0955013
000010 f3 ed 2c 3d 57 9d 13 3d d4 a8 9e 3d 4f 96 f2 bc
       0.042219114 0.036038723 0.07747045 -0.029612688
000020 5b bc 76 bd c6 c6 17 3e a2 f7 d8 3d f5 55 e4 bd
       -0.060238224 0.1482192 0.10594107 -0.111492075
000030 14 17 d6 3e c2 c7 35 be 92 60 8e be 5b ff b3 bb
       0.41814482 -0.17751983 -0.27808052 -0.005493087

action_head.weight f4 [4, 16]
000000 9c 41 1e bf 37 db 9d 3d df 24 d7 3d 6c ce 8b be
       -0.6181886 0.077078275 0.105050795 -0.27305925
000010 80 97 b6 be 18 5c 64 3e db b5 81 3e 11 c3 cf 3e
       -0.3566246 0.22300756 0.25334057 0.4057851
000020 d2 27 bf 3e 8c 93 bb 3e c4 3f 24 3f 44 4a 85 3f
       0.37335068 0.36636007 0.641598 1.0413289
000030 96 fc d1 3e 3e 89 a4 bf 3d b1 a0 bf e2 ce d7 3d
       0.4101302 -1.2854383 -1.2554089 0.10537507
000040 fb 57 a0 3e 0e 0f c5 3f 45 a5 58 bd 55 47 0b 3f
       0.31317124 1.5395219 -0.05289199 0.5440572
000050 8d 83 aa be 24 a4 f8 3e 6d 13 6c bf 78 2f 61 3d
       -0.3330349 0.4856273 -0.9221714 0.05497691
000060 13 09 61 bd 36 32 40 bf 49 df a3 3d d1 1d b1 3f
       -0.054940294 -0.75076616 0.08001573 1.3837224
000070 67 ad 27 c0 75 f8 32 bd 4d cc ce 3e 89 f8 38 3e
       -2.6199586 -0.04369398 0.40390244 0.18063559
000080 c6 8e ac 3e 07 86 a9 bf 29 e7 7d 3d 96 3a a2 be
       0.33702677 -1.3244027 0.06198803 -0.31685323
000090 d0 93 d6 3e 74 81 04 bf 0f a4 13 3f 0a a7 84 be
       0.41909647 -0.5176003 0.5767221 -0.2590869
0000a0 f8 3c 8e 3e cc b2 27 3f 1c c2 0d bf 4c 27 9d bf
       0.2778089 0.655072 -0.5537431 -1.2277617
0000b0 2d 6e 41 3f ac 90 1a 3f ad 9c b0 3e 49 3b 61 bc
       0.7555874 0.60377 0.34494534 -0.013747045
0000c0 63 07 29 3e a4 b7 93 be 9e 90 f0 3c c4 e4 4c 3c
       0.16506724 -0.28851044 0.029365834 0.012505714
0000d0 62 3e 40 3d 46 e3 73 be 3f 89 b6 bd 34 27 28 be
       0.046934493 -0.23817167 -0.08912896 -0.16421205
0000e0 9f 78 5c be c0 2a 27 be a6 b1 ab be 4d c8 c7 be
       -0.21530388 -0.16324902 -0.33533973 -0.39020005
0000f0 28 2b d5 3e af 1b 03 3f 75 51 d6 3e ee 89 70 be
       0.41634488 0.51214117 0.41859022 -0.23490116

action_head.bias f4 [4]
000000 65 79 a2 3d 80 88 64 bf 63 24 37 3e bf 26 1f 3f
       0.079333104 -0.8927078 0.17884974 0.62168497

value_head.weight f4 [1, 16]
000000 a9 8b 4a 3e 3f 83 6e bb 4b 81 13 bd 71 1b 3f bc
       0.19779839 -0.0036394147 -0.036011975 -0.011664257
000010 e5 a0 99 3b 85 ab 14 bc 7c 3c ee 3c ff 16 36 bb
       0.0046883696 -0.009074097 0.029081576 -0.0027784703
000020 a9 14 37 3d 59 b7 b2 3c f5 b6 21 ba 0d 3a cd 3a
       0.044697437 0.021815943 -0.00061689253 0.0015657559
000030 a1 96 a4 3c c6 de 28 bc 36 ad e5 3b c6 b0 27 3c
       0.020091357 -0.01030702 0.0070091737 0.010235017
