models/LinearModelV0.94.pt (torch, 5609 bytes, 7 tensors)

conv_layer.0.weight f4 [16, 1, 3]
000000 36 08 d1 3e ef da c4 3e 25 c8 e8 3e c8 27 c5 bd
       0.40826577 0.38448283 0.45465198 -0.09626728
000010 94 5c 25 bd 10 19 5e bf ed 52 66 3c df 3a ff 3c
       -0.040371493 -0.8675699 0.014057857 0.031156002
000020 34 1b d6 3c b2 54 15 3f bf a6 f2 3d 94 7e 46 3f
       0.026136018 0.5833236 0.118482105 0.7753689
000030 b7 a8 14 bb 48 35 c9 bb 68 c6 02 3b 79 3e 13 bd
       -0.002268357 -0.006140385 0.0019954685 -0.03594825
000040 81 7b 07 be 54 ac 10 be 09 cc 53 bd a0 26 83 be
       -0.13230707 -0.14128238 -0.051708255 -0.25615406
000050 80 8a d4 bd 5f 29 da 3c 8c 9f 4f be 5e 00 1a be
       -0.10377979 0.026631055 -0.20275706 -0.15039203
000060 48 68 1e bf 52 29 77 be c9 cd fc be c6 82 3a be
       -0.6187787 -0.24136856 -0.49375752 -0.18213949
000070 f2 f8 4c bf 07 4b 7b bf fa c7 45 bf 0f f7 cd 3e
       -0.8006736 -0.9816136 -0.77258265 0.40227553
000080 ed d5 f9 3e b7 fe 13 3e 85 e9 9e be 61 93 1e be
       0.48796025 0.14452635 -0.31037536 -0.15485908
000090 c6 c2 4f 3b 6d 7e bf 3b b5 36 17 3c 9c 00 af b9
       0.0031701787 0.0058439285 0.009229352 -0.00033379055
0000a0 af 21 13 3b 7c 68 6c 3c 0c 98 04 ba b4 0b ed 3a
       0.0022450497 0.014429208 -0.0005058057 0.0018085153
0000b0 2b ab 40 3c 32 58 67 3c 62 a7 a4 3c ca 02 29 3c
       0.01175956 0.0141201485 0.020099346 0.010315606

conv_layer.0.bias f4 [16]
000000 6a 0d 01 3e 81 fd 64 be cb 57 61 3c 06 70 df 3d
       0.12602773 -0.22362329 0.013753842 0.10910039
000010 a2 fd 98 bb d5 00 66 bd da 20 8e bd cd 16 87 bd
       -0.0046689073 -0.056153137 -0.0693986 -0.06596146
000020 7b 6e 15 be 87 7c 8c be e4 b6 96 3d 01 39 ab bd
       -0.14592926 -0.27438757 0.07359102 -0.08360482
000030 fc 0e 16 3b cd dd 03 bb 9e bc 97 ba fa 37 65 3c
       0.0022897115 -0.0020121217 -0.0011576598 0.013990397

layer_1.1.weight f4 [16, 32]
000000 44 e1 5b bd 5c 5c 9b 3d 58 54 75 bd 99 88 62 3e
       -0.053681627 0.075859755 -0.05989489 0.2212242
000010 65 38 7f bc e3 2d 02 bc 77 69 4c be 09 df 89 be
       -0.01557741 -0.007945511 -0.19962107 -0.26927975
000020 f7 11 a3 3d be fa c4 bb af 93 6c 3d 3e e7 78 3d
       0.07962411 -0.006011336 0.05775803 0.060767405
000030 d0 e3 27 bd fd 9c c0 bb dd fd cb bc f0 8c 70 bd
       -0.040988743 -0.0058780895 -0.024901325 -0.05872816
000040 c2 4f 0e 3e 38 92 2d 3c 65 fd 92 be 1f b8 9d 3c
       0.13897613 0.010593943 -0.2870895 0.019252835
000050 6c 1f cb 3e c6 c0 95 be 21 c5 d5 bd 57 90 81 bd
       0.3967241 -0.29248637 -0.1043799 -0.06326359
000060 fb 97 99 bd c7 1c b0 3c 35 38 c4 3d 74 6f 9a 3d
       -0.07499691 0.021498097 0.09581033 0.07540789
000070 36 c9 01 3d 96 f6 ef 3c fc 33 4b 3c 15 1a 6a bd
       0.03168603 0.029292386 0.012402531 -0.05715378
000080 60 33 2b be 0d fa ec bd 62 16 50 3e 5a 4a 69 3d
       -0.16718817 -0.11571131 0.20321038 0.056955673
000090 1a 18 55 3c a6 0d 4f bd 6a c3 4f be 97 82 5f be
       0.013006235 -0.050550126 -0.20289388 -0.2182716
0000a0 6c 0b 1c 3d c3 4a 84 3d bd 34 18 3e 73 ec 4f 3d
       0.03809683 0.06459572 0.14863868 0.050762605
0000b0 92 df 1b 3c e9 62 ff 3d 57 4d 2e 3d d3 84 70 bc
       0.009513753 0.124700375 0.042554226 -0.014680105
0000c0 ed 81 85 3e 21 7f 99 3e c1 69 37 3f 93 5e 0a 3f
       0.26075688 0.29979804 0.7164574 0.5405056
0000d0 e1 bd ed bd 0b 09 89 3d 4a fb 8e 3e 4c 76 8d 3d
       -0.11608482 0.06691178 0.27926093 0.06907329
0000e0 aa 75 48 3d 29 8f 8b 3c dd 3c ce 3c e1 e9 20 3d
       0.04894034 0.017036038 0.025175506 0.039285544
0000f0 62 55 60 bd e1 51 19 3d 95 46 96 bd b5 66 28 bd
       -0.054768927 0.0374316 -0.07337681 -0.041113574
000100 75 37 7d bd 09 23 fd ba 33 e2 b0 3d 0c 4d 50 be
       -0.061820466 -0.001931281 0.08636894 -0.20341891
000110 a3 2c 33 bd cc a2 3f 3d e5 0a 1d 3e 21 62 46 bc
       -0.04374374 0.046786115 0.15336187 -0.012108357
000120 49 34 e0 bc f2 2d 9e bd 05 3e 15 bd 32 fc 80 bd
       -0.027368682 -0.07723607 -0.0364361 -0.062981024
000130 df 0c bf 3c 46 fe 31 3b cd d2 44 bd c2 42 e7 3d
       0.023321567 0.0027159615 -0.048052598 0.1129203
000140 bf a3 5c bd 35 df 61 bd 2d ee 81 bd 3c 35 8d bd
       -0.053867098 -0.055144507 -0.063442566 -0.06894919
000150 dc cd 4a be 50 60 d1 3a 86 2e 2c bd 07 ea e7 ba
       -0.19805092 0.0015974138 -0.042036556 -0.0017693647
000160 7b 29 e8 b9 55 76 45 3d 48 d1 db bc b9 d4 9a bd
       -0.00044281394 0.048208553 -0.026833192 -0.07560105
000170 9f 40 73 3c 55 af 88 bd e9 69 a4 bc ee 53 d3 3c
       0.01484695 -0.06674067 -0.020070033 0.025796857
000180 75 ee a5 bd 51 f5 28 3e fd b7 ab be a3 ae 12 3d
       -0.08102123 0.16499831 -0.3353881 0.035811078
000190 29 f3 f7 bc ef 89 08 3d 57 9c 92 3e 5e f8 36 be
       -0.030267315 0.03333467 0.28634903 -0.17868182
0001a0 5d f1 da bd a3 59 31 3d f2 a4 6b bd ee d4 45 bd
       -0.10690568 0.043298375 -0.05753035 -0.04829877
0001b0 d9 07 3b 3e de f4 37 be c9 3c 21 be 92 b7 06 be
       0.18264712 -0.17964503 -0.15745844 -0.13155964
0001c0 73 24 b4 bb 6d f6 82 3d 01 07 9e be e9 a4 9d be
       -0.005497509 0.06394658 -0.3086472 -0.3078988
0001d0 94 f0 01 3f 42 ea 69 3e bb 78 8a bd da d7 98 be
       0.5075772 0.22843269 -0.06761309 -0.29852182
0001e0 0c 22 f1 3b 8b cb 65 3d dc 3f 91 bd e2 bf d1 bc
       0.007358795 0.056102317 -0.07092258 -0.025604192
0001f0 44 ae d0 bd cb 88 ac 3c ab 84 31 be db 38 b3 3c
       -0.101894885 0.021061322 -0.17335765 0.021877697
000200 e6 fe bc 3c 7e 3c 69 3c 7b c4 81 bb da f5 f8 3c
       0.023070764 0.014235614 -0.00396019 0.030390669
000210 f8 ee 33 bd e8 f9 42 bd 59 29 44 bd 58 bd 12 bd
       -0.04392907 -0.04760161 -0.047890995 -0.035825104
000220 2b 0e 1a bb 28 65 07 bc 7c 64 0b bc e8 73 21 bc
       -0.002350698 -0.008263864 -0.008507844 -0.009854294
000230 7b d3 5b 3d 0f 6f 8a bd c4 3a b4 3c 00 77 10 bd
       0.05366848 -0.06759464 0.022000678 -0.035269737
000240 9c c9 38 3d ae d0 de 3c 1f 09 37 bc 68 04 73 3c
       0.045114145 0.027199116 -0.011171608 0.0148325935
000250 c0 38 a2 3d ed c0 82 3a 34 31 1e 3d a4 9c 16 3d
       0.079209805 0.0009975709 0.038621143 0.036770478
000260 27 d3 91 bc 1b 8e a2 bc a2 52 2e bc 5e c3 d4 bb
       -0.01780088 -0.019843152 -0.010639818 -0.006493016
000270 4a be ae bc fb 56 a9 bb 6a 60 a9 bd d6 bf 0c bc
       -0.021330971 -0.0051678396 -0.08270343 -0.008590659
000280 8b 15 8f bd c6 9d 39 3c 21 07 09 3e 64 b6 3e 3d
       -0.06986531 0.01132912 0.13381626 0.04656066
000290 6e ce 2d 3d 71 ee 57 3d 22 9b 81 be 9c 2e 12 be
       0.042433195 0.05271763 -0.2531367 -0.14275593
0002a0 31 87 4e bd 7c ae 7f 39 0b 1f c3 bd 15 23 bf 3c
       -0.050421897 0.00024383696 -0.09527405 0.023332158
0002b0 b6 b4 ab 3d dd d5 36 bd 9a 44 0f 3e 54 cc ad bd
       0.08384077 -0.04463755 0.13991013 -0.08486238
0002c0 0b ae bb 3d 6d 6a a3 3d 36 1e 80 3d de 75 7f 3e
       0.091640554 0.079792835 0.06255762 0.24947307
0002d0 49 77 fa 3d cd a6 01 be 4f ac 0c 3d f2 7d ad ba
       0.12229783 -0.12661286 0.034344014 -0.0013236387
0002e0 21 2f 95 3d d2 0c f2 3b da 01 07 bd 5b 85 83 3d
       0.0728438 0.007386782 -0.03296075 0.0642192
0002f0 98 71 62 bd 2a 21 a9 3d bc df 80 bd 3e bc f9 3d
       -0.055284113 0.08258279 -0.06292674 0.121941075
000300 4b 4d ab be ab 31 c1 be 65 78 c1 3d 92 e7 2f 3f
       -0.33457407 -0.37733206 0.094467916 0.68712723
000310 46 ac 1e be de 56 91 3c 82 49 ff be 51 e4 0d bf
       -0.15495405 0.017741617 -0.4986077 -0.5542651
000320 58 8b d2 3c dd f8 80 bd 23 2b 89 b9 b6 bc 86 bd
       0.02570121 -0.06297467 -0.00026162816 -0.065789625
000330 d4 0d 82 3d a4 bd c8 3c 49 2c 2b bd 14 6d 15 3d
       0.06350294 0.02450449 -0.04179028 0.036480978
000340 31 ac 26 3f b8 6f df 3e a3 33 e2 3e 1c f1 66 3f
       0.65106493 0.43639922 0.4418002 0.90211654
000350 c7 27 b9 3e fd a5 c4 be cb c1 98 bd e3 34 6e 3d
       0.3616316 -0.3840789 -0.07458838 0.058155905
000360 09 c9 c5 bd e7 b2 1c 3d e7 fa 17 bd dd a8 09 3c
       -0.09657485 0.038256552 -0.037104513 0.008402077
000370 a9 49 1d 3d ee 91 ce bc 19 48 f9 bd 2a 70 02 3d
       0.038400326 -0.02521607 -0.12171955 0.03184525
000380 22 86 d8 3d 26 92 db 3d 6d 6b 1e be 69 24 00 bf
       0.10572459 0.10721235 -0.15470667 -0.5005556
000390 7a f5 c3 bb 4d 8c 90 3d d0 f2 eb 3e e7 0b c1 3e
       -0.005980191 0.0705801 0.4608369 0.37704393
0003a0 3d 7e 66 be f2 e3 36 bc 24 63 ad 3d 57 99 cc 3d
       -0.22509094 -0.011162745 0.08466175 0.09990185
0003b0 19 ee b7 bd 56 34 7e 3d 86 c1 fe 3d a9 d9 77 3d
       -0.089809604 0.06206163 0.124392554 0.06051031
0003c0 62 51 c1 be c7 13 52 be ee e5 bd bd b6 8c ee be
       -0.37757403 -0.20515357 -0.09272371 -0.4659173
0003d0 c4 6b c1 be 29 a8 d4 3e de 10 d9 3d d1 a1 20 be
       -0.3777753 0.41534546 0.1059892 -0.15686728
0003e0 cc 09 f2 3b 63 e6 b6 3d 5b 20 9c bd aa e1 bd bd
       0.007386422 0.089306615 -0.07623359 -0.09271558
0003f0 ac 26 a3 bb dc 4f 87 bd 88 85 01 bd eb ed 71 bb
       -0.0049789753 -0.06607029 -0.031621486 -0.0036915492

layer_1.1.bias f4 [16]
000000 ae 22 88 3d b2 8d e4 3d bc d0 68 3d 13 fd d8 bc
       0.066472396 0.11159839 0.05683969 -0.026487863
000010 5d 43 37 bd 19 0a b9 3d af a9 89 3d 12 f4 d2 3c
       -0.044741977 0.09035129 0.06721818 0.025751147
000020 38 32 aa be 00 2f f8 be 4e 65 ac be 6c 1a 57 3e
       -0.3324144 -0.48473358 -0.3367104 0.21006173
000030 e5 d6 a6 3d 2b 37 58 bd 80 e1 6d ba a5 03 57 3e
       0.08146457 -0.052786987 -0.00090744346 0.20997484

action_head.weight f4 [4, 16]
000000 b4 84 77 bd ea 0b 1c 3f 4e cb 00 bd ba 79 05 be
       -0.06042929 0.6095568 -0.031443886 -0.13034716
000010 b3 ec 1f bd 44 e5 31 3e 10 24 83 3f 46 25 6f be
       -0.039044093 0.17372614 1.024538 -0.23354062
000020 42 9a 65 be f1 e8 42 be 63 0f 76 bf 1a 56 67 be
       -0.22422126 -0.19034173 -0.9611723 -0.22591439
000030 b1 c3 db be e2 35 70 3d 74 ad 6e 3d 8e e1 54 3f
       -0.42922738 0.058645137 0.058270887 0.8315667
000040 74 c8 cb be c2 f3 a0 bd 35 d7 44 bd e3 39 14 be
       -0.3980137 -0.07858993 -0.0480568 -0.14475207
000050 3a f6 9a 3d 7d 98 bb be b9 bb 7c be d7 10 84 3e
       0.07566495 -0.36639777 -0.24680986 0.25794098
000060 27 c7 4b 3e 9d 9f 95 3f b2 d1 4c 3f ab 99 78 be
       0.1990019 1.1689335 0.8000747 -0.2427737
000070 82 4b 34 3d 97 fe 30 3e 06 ec a7 be a1 f4 1d bf
       0.044017322 0.17284618 -0.3279726 -0.617014
000080 ee 79 6c bd 5f c7 97 3d c0 ec fc 3d 6e f3 10 bf
       -0.05773347 0.07411074 0.12349844 -0.56621444
000090 e2 79 da bd 4d 6b 0e 3e 1b 28 fd be d1 12 c8 3e
       -0.106677786 0.1390812 -0.4944466 0.39076856
0000a0 45 be ab be db e9 5d be c8 3b 00 3f dc f4 d5 3e
       -0.33543602 -0.2167124 0.5009122 0.41788375
0000b0 b4 15 a6 3e 33 ec 2d bd bb a5 25 be b6 13 17 bf
       0.32438433 -0.042461585 -0.16176502 -0.5901445
0000c0 c3 83 1a 3f dc 37 2e bf 20 20 22 be 40 53 18 3f
       0.603573 -0.68053985 -0.15832567 0.5950203
0000d0 16 b7 3e 3d f4 0c a1 3d 77 8d ac be 66 c3 21 bb
       0.046561323 0.07863799 -0.3370168 -0.0024683117
0000e0 7e 09 95 3d 58 c1 89 be 22 c6 57 3e e3 ef 5e 3e
       0.07277201 -0.26905322 0.21071675 0.21771197
0000f0 3a f7 db bd 62 97 64 3c e4 9d a9 3d 99 e7 5a be
       -0.10740514 0.013952108 0.08282068 -0.2137741

action_head.bias f4 [4]
000000 cd 15 db 3d c4 3f cf bf c5 60 15 3d 59 f8 c6 3d
       0.106975175 -1.6191335 0.03646924 0.09715337

value_head.weight f4 [1, 16]
000000 96 dc 5f bd f9 3f 8b bc e2 16 7f 3a 30 2b e5 bb
       -0.054653727 -0.016998278 0.0009730888 -0.0069936737
000010 e5 36 87 3b 0c 51 ac bb e3 54 b1 be 36 67 41 3e
       0.004126417 -0.005258685 -0.34635076 0.18887028
000020 0b 51 2a bf 20 8c cb 3c ff 5a 3a 3d fc a7 99 3e
       -0.6652991 0.02484709 0.045496937 0.30010974
000030 b0 0e 00 3d 48 f1 14 ba 8c dd 2b bb 85 f2 dc bc
       0.031264007 -0.00056817057 -0.0026224582 -0.026971111
