models/LinearModelV0.9.pt (torch, 5727 bytes, 7 tensors)

conv_layer.0.weight f4 [16, 1, 3]
0	0xbeb2b5f9	-0.3490446
1	0xbd4d92b5	-0.05018874
2	0xbefc3b55	-0.49264017
3	0xbbf2d79f	-0.007410958
4	0x3f312311	0.6919413
5	0x3f1ab694	0.6043484
6	0x3f3c0e88	0.7345967
7	0xbe93d0bf	-0.28870198
8	0x3f0a91bf	0.5412864
9	0x3e888908	0.26667047
10	0x3e000e3c	0.1250543
11	0x3f2c1c9b	0.6723115
12	0x3f175020	0.59106636
13	0xbdb50260	-0.088383436
14	0xbf20906f	-0.6272039
15	0xbe56c178	-0.2097224
16	0xbe68f66a	-0.2275025
17	0xbe5033ab	-0.2033221
18	0x3b928aa8	0.0044720955
19	0x3ecba746	0.39776057
20	0x3e0c0c29	0.13676514
21	0x3e9fce3d	0.31212035
22	0x3ea101de	0.31446737
23	0x3ebec8f6	0.37262696
24	0x3ec247db	0.37945446
25	0x3eef70dd	0.46765795
26	0x3ee437a3	0.44573697
27	0xbe24ff6d	-0.16113062
28	0x3f0172ee	0.50565994
29	0xbee1cbee	-0.44100899
30	0xbdde7f2f	-0.10864102
31	0x3f30454f	0.68855757
32	0xbf2d222c	-0.6763027
33	0x3f0b8074	0.5449288
34	0x3e401be8	0.18760645
35	0x3f3aaa33	0.72915953
36	0xbf348fed	-0.70532113
37	0x3e227c1d	0.15867658
38	0x3dcb39d8	0.09923142
39	0x3f327f46	0.69725454
40	0x3f1c7f9e	0.6113223
41	0x3f10fedc	0.56638885
42	0x3d099877	0.033592667
43	0xbe6c16c2	-0.23055556
44	0xbd959754	-0.07304254
45	0xbf6ce9ef	-0.92544454
46	0xbf227921	-0.6346608
47	0x3dae50f9	0.08511538

conv_layer.0.bias f4 [16]
0	0xbeb8702c	-0.3602308
1	0x3efbe788	0.49200082
2	0x3e219dc1	0.15782835
3	0x3e73c88e	0.23806974
4	0x3d34dd77	0.044156518
5	0xbd90cee3	-0.070707105
6	0xbd72acd1	-0.05924684
7	0x3eed2c8c	0.4632305
8	0xbd867c98	-0.06566733
9	0xbeacbc6f	-0.33737513
10	0xbd0e40d1	-0.034729782
11	0xbe47e37e	-0.19520375
12	0x3db2438f	0.08704292
13	0xbe216e46	-0.15764722
14	0xbdf5f493	-0.120095395
15	0xbed3b23c	-0.4134692

layer_1.1.weight f4 [16, 32]
0	0x3e0c8a7b	0.13724701
1	0xbda8b4f6	-0.082376406
2	0xbdba6c71	-0.09102715
3	0x3e0cd468	0.13752902
4	0x3e4f54c2	0.20247176
5	0x3ebdea8d	0.3709301
6	0x3d30500f	0.0430451
7	0x3f0324f3	0.51228255
8	0x3e77b31a	0.24189416
9	0xbe30b079	-0.17254819
10	0xbe0f4492	-0.13991001
11	0xbe4b84b5	-0.19874842
12	0x3cdff4bb	0.027338376
13	0xbdcc8de1	-0.09987999
14	0xbe5b6630	-0.214257
15	0x3e15e8da	0.14639607
16	0x3e0e47a8	0.13894522
17	0x3dc23af9	0.094839044
18	0x3e6327ef	0.22183202
19	0xbe55c760	-0.20876837
20	0x3e805d52	0.25071198
21	0xbeb295d2	-0.3487993
22	0x3c642f8c	0.013927352
23	0x3ecefcde	0.40427297
24	0xbdbf8173	-0.09350862
25	0xbe2b21e3	-0.16712146
26	0x3e9c344c	0.3050865
27	0x3ec155fc	0.37760913
28	0x3dc37e50	0.095455766
29	0x3b792f2b	0.00380225
30	0xbec434e4	-0.38321602
31	0x3d40cc72	0.047069974
32	0x3f28ca7f	0.65933985
33	0xbd0a6379	-0.03378627
34	0xbf3923fa	-0.7232052
35	0xbf1fca36	-0.62417924
36	0xbeccd519	-0.4000633
37	0x3e95a53c	0.29227626
38	0xbf2a9403	-0.666321
39	0xbddd03a5	-0.10791711
40	0xbc5619c8	-0.01306767
41	0xbe8f2280	-0.2795601
42	0x3e877f20	0.26464176
43	0x3dbd5f7d	0.092467286
44	0xbdbfd415	-0.09366623
45	0xbd1d9a5a	-0.03847728
46	0xbf3a0896	-0.7266935
47	0xbe7643e9	-0.24049343
48	0xbd9c1c99	-0.07622642
49	0xbdfd9e0a	-0.12383659
50	0x3e8d59df	0.2760763
51	0xbe8f1118	-0.2794273
52	0x3f0427c0	0.51623154
53	0xbf0a7337	-0.54082054
54	0xbd970014	-0.07373062
55	0x3dd9bc54	0.10631624
56	0xbd03cf1c	-0.032179937
57	0x3d766c24	0.060161725
58	0xbe8b9587	-0.27262518
59	0xbe0f1be1	-0.13975479
60	0x3e1f1c96	0.15538248
61	0x3e1d3fdd	0.15356393
62	0x3e4dc97b	0.2009639
63	0x3f1d66b9	0.6148487
64	0x3d84e523	0.06489017
65	0x3b9639da	0.004584533
66	0x3e5c5b8d	0.21519299
67	0xbdfab885	-0.122422256
68	0xbe190289	-0.14942373
69	0x3dd60425	0.10450009
70	0x3d58a99c	0.052896127
71	0x3e5ed382	0.21760371
72	0xbd95a146	-0.07306151
73	0x3c44ab6f	0.012003764
74	0xbda3b243	-0.07992985
75	0x3b8747b0	0.004128419
76	0xbdce8cd5	-0.10085455
77	0xbdd15c4d	-0.10222683
78	0x3e82b726	0.25530356
79	0x3e02e2c6	0.1278182
80	0xbdaf72e2	-0.08566834
81	0x3d27f51e	0.041005246
82	0x3d97b974	0.07408419
83	0xbe744760	-0.23855352
84	0x3e58b59f	0.21163033
85	0xbe678605	-0.22609718
86	0x3cefb831	0.029262634
87	0xbd625516	-0.055256926
88	0x3d673f5b	0.056456905
89	0x3d4ceea9	0.05003229
90	0xbe33a7af	-0.17544435
91	0x3db3d377	0.08780568
92	0x3d95f00b	0.07321175
93	0xbdb53dd1	-0.08849681
94	0xbe82e0d2	-0.2556215
95	0xbe84e22d	-0.25953808
96	0x3e420617	0.18947636
97	0x3d04202b	0.03225724
98	0xbd115b7f	-0.035487648
99	0xbe1ec38e	-0.15504286
100	0xbefe2b75	-0.4964253
101	0x3e7a14a4	0.24421936
102	0xbe8d7246	-0.27626246
103	0x3c926097	0.017868323
104	0xbca43a9e	-0.020047482
105	0xbdfd9197	-0.12381285
106	0xbd0d8ef7	-0.03456017
107	0x3e4b2909	0.19839872
108	0x3dc02a54	0.093830734
109	0x3bcf330d	0.0063232244
110	0xbddc72a8	-0.107640564
111	0xbe93fe4f	-0.2890496
112	0xbdd6c14e	-0.10486089
113	0x3c298662	0.010346981
114	0x3e49b26b	0.19696967
115	0xbdc266ce	-0.09492265
116	0x3ec0ffab	0.3769506
117	0xbe93c036	-0.28857583
118	0xbe1a703f	-0.15081881
119	0x3e95f4e9	0.29288414
120	0x3d409b93	0.047023367
121	0xbebfc134	-0.3745209
122	0x3e2b84be	0.16749856
123	0x3c967b0f	0.018369226
124	0x3d147499	0.03624401
125	0x3dcbe954	0.09956613
126	0x3e57b385	0.21064575
127	0x3ddee7d2	0.1088406
128	0x3d925124	0.071443826
129	0x3cebada3	0.02876932
130	0x3c4cbe30	0.012496516
131	0x3e98f08f	0.29871032
132	0x3e2e1ceb	0.17003219
133	0x3d81127c	0.06302354
134	0x3dd92022	0.10601832
135	0x3e94d831	0.2907119
136	0x3cd0bcbb	0.025480619
137	0xbe63d9ee	-0.22251102
138	0xbca1d2eb	-0.019753894
139	0xbd78edc7	-0.060773637
140	0xbc5bbacc	-0.013411235
141	0x39f7fa08	0.000472978
142	0x3e43a6e8	0.19106638
143	0x3b0214a0	0.001984872
144	0xbc379067	-0.011203862
145	0x3e4dc87f	0.20096014
146	0x3e23e2c4	0.16004473
147	0xbba282a0	-0.0049594194
148	0x3da1ee4d	0.079067804
149	0xbe416f29	-0.1889006
150	0x3e286a27	0.16446744
151	0x3e27076b	0.16311423
152	0xbba8a5e5	-0.0051467293
153	0xbd8a11df	-0.0674169
154	0x3e903d43	0.2817174
155	0x3e589440	0.21150303
156	0x3d76c8ff	0.06025028
157	0x3d9cfd30	0.07665479
158	0xbeb6af16	-0.35680455
159	0xbd505fd4	-0.05087264
160	0x3dbf712b	0.09347757
161	0x3cc29038	0.02375041
162	0xbe2c0056	-0.16797003
163	0xbe8e36b0	-0.27776098
164	0x3ca76f4c	0.020438813
165	0xbe053764	-0.13009411
166	0xbbc90218	-0.006134283
167	0xbe46b48e	-0.19404814
168	0xbd19edd7	-0.037580337
169	0xbbd6f51a	-0.00655998
170	0x3e192f34	0.14959413
171	0x3e693ffa	0.22778311
172	0xbda63fec	-0.08117661
173	0xbe05548a	-0.1302053
174	0xbe79e16f	-0.24402402
175	0xbe9155e6	-0.28385848
176	0x3d08e85d	0.033424724
177	0xbd90e928	-0.07075721
178	0x3da021e5	0.07818965
179	0x3e26cac2	0.16288283
180	0xbd7e9215	-0.062151033
181	0x3d82033c	0.06348273
182	0x3dbd6152	0.09247078
183	0x3de41d61	0.11138416
184	0xbcdda775	-0.027057389
185	0x3e280d30	0.1641128
186	0xbe7b47b9	-0.24539079
187	0xbbbd74ca	-0.0057817446
188	0x3e2eea0d	0.17081471
189	0x3e48a048	0.19592392
190	0x3eb1715b	0.34656796
191	0x3e9cf924	0.3065883
192	0xbe87b991	-0.26508763
193	0xbe529eb9	-0.2056836
194	0x3e57b393	0.21064596
195	0x3ecc35f6	0.3988492
196	0x3e8f5bb3	0.27999648
197	0x3ce14a34	0.027501203
198	0x3e10adb6	0.14128765
199	0x3e39f1b9	0.18158616
200	0x3e68fdd0	0.22753072
201	0xbe1ee122	-0.15515569
202	0xbbd50c51	-0.0065017124
203	0xbdde619a	-0.1085846
204	0x3d59b0d2	0.053147145
205	0x3e280249	0.16407122
206	0x3caeacdc	0.02132266
207	0x3ea00859	0.3125637
208	0x3e090e6a	0.13384405
209	0xbc038bea	-0.008028964
210	0xbe4105ca	-0.18849865
211	0xbc84ed44	-0.016226418
212	0xbdee8ef6	-0.116483614
213	0x3da57dfe	0.08080672
214	0x3deaa8a4	0.11457947
215	0x3e54bd5d	0.20775361
216	0xbdd08391	-0.10181344
217	0x3e484520	0.19557619
218	0x3e86cd09	0.26328304
219	0xbcb6003d	-0.02221691
220	0x3e0ab905	0.13547142
221	0xbcff01d4	-0.031128801
222	0xbed6a700	-0.41924286
223	0xbdcde9f2	-0.10054387
224	0xbcba786f	-0.022762505
225	0xbe592492	-0.21205357
226	0xbe41fe92	-0.18944767
227	0x3dfb10d4	0.12259069
228	0x3e1f0f1c	0.15533108
229	0x3e3f4a96	0.18680796
230	0x3e15fec6	0.1464797
231	0x3e9a9283	0.30189905
232	0x3ec4ba5a	0.38423425
233	0xbe296380	-0.16541862
234	0x3e25ec44	0.1620341
235	0x3db4241a	0.08795948
236	0xbd35c0ab	-0.044373196
237	0x3db5409f	0.08850216
238	0xbc49e867	-0.012323475
239	0x3c951be2	0.018201772
240	0xbe6db525	-0.23213632
241	0x3dfc8056	0.12329166
242	0xbd78b852	-0.060722657
243	0xbcb67f51	-0.022277506
244	0xbae486fb	-0.0017435247
245	0xbe09b432	-0.13447645
246	0x3ce56d60	0.028006256
247	0xbd4fd4a7	-0.05073991
248	0xbedfe7a6	-0.4373142
249	0x3ea9a699	0.33134916
250	0x3de4a5dc	0.11164448
251	0x3df43f1f	0.11926102
252	0x3c7d5cd3	0.015464026
253	0xbd8b6e15	-0.06808106
254	0xbea6abd8	-0.3255298
255	0x3ce629b0	0.02809605

layer_1.1.bias f4 [16]
0	0x3de44a6f	0.111470096
1	0xbe8e9487	-0.27847692
2	0x3e1b2d24	0.15153939
3	0xbe5115be	-0.2041845
4	0x3e1e4a82	0.1545811
5	0xbdcea182	-0.10089399
6	0x3e17337c	0.14765733
7	0xbcfb3c77	-0.03066848
8	0xbdfdc4de	-0.12391065
9	0xbb6c4735	-0.0036053185
10	0x3dcd10c9	0.10012967
11	0xbe12a5c1	-0.14321043
12	0x3e6f5522	0.2337232
13	0xbe013a25	-0.12619837
14	0xbe4b579a	-0.19857636
15	0xbcdb8aa4	-0.026799507

action_head.weight f4 [4, 16]
0	0xbef8eef1	-0.48619798
1	0xbec4cf9e	-0.3843965
2	0xbe77a074	-0.24182302
3	0xbee919a5	-0.45527378
4	0xbe82da9e	-0.25557417
5	0x3e319941	0.17343618
6	0x3e99c060	0.30029583
7	0x3e896108	0.2683184
8	0x3ebf30c6	0.373419
9	0x3f100a51	0.5626574
10	0x3e9c39ab	0.30512747
11	0x3eb924f9	0.3616102
12	0x3ef7648e	0.48318905
13	0xbf32a7dc	-0.69787383
14	0xbf4a9115	-0.7912763
15	0x3da4a2cd	0.08038864
16	0x3ee874e3	0.45401677
17	0x3f526190	0.8218012
18	0xbd67730f	-0.056506213
19	0x3f2f6e67	0.68527836
20	0xbe58bc25	-0.21165521
21	0x3ec2ee6d	0.3807253
22	0xbf344deb	-0.70431393
23	0xbc2c4c3e	-0.010516224
24	0xbca246f3	-0.019809222
25	0xbf196acb	-0.5992858
26	0xbd54cc2b	-0.051952522
27	0x3f3b03fa	0.7305294
28	0xbfac2c6b	-1.3451055
29	0x3e9f906e	0.3116488
30	0x3f158084	0.58399224
31	0x3e38b25e	0.18036792
32	0x3c159475	0.009129633
33	0xbf1f8e26	-0.62326276
34	0x3d27387a	0.040825345
35	0xbe0d291e	-0.13785216
36	0x3e21b7de	0.15792796
37	0xbe76be5e	-0.24096057
38	0x3e0e7970	0.13913512
39	0xbebc40e0	-0.36768246
40	0x3de0ccd1	0.10976566
41	0x3ead4c57	0.33847305
42	0xbec16321	-0.37770942
43	0xbecf2c0a	-0.40463287
44	0x3e861577	0.2618825
45	0x3e171eb5	0.14757808
46	0x3cbe375b	0.023219755
47	0xbde9ee89	-0.1142245
48	0x3e39a124	0.18127877
49	0xbe250b4a	-0.16117588
50	0x3eb564ab	0.35428366
51	0xbc861969	-0.016369538
52	0xbc391648	-0.011296816
53	0xbeca7bb6	-0.3954751
54	0x3d85c12c	0.06530985
55	0xbcb0a172	-0.021561358
56	0xbdb94043	-0.0904546
57	0xbe118ff2	-0.14215067
58	0xbe29fa73	-0.16599445
59	0xbc5d736a	-0.013516286
60	0x3e96bcd7	0.29440948
61	0x3dd3fe56	0.10351245
62	0x3dce4b0c	0.10072908
63	0xbe1d1b13	-0.15342359

action_head.bias f4 [4]
0	0xbda19dd6	-0.07891433
1	0xbeeb91a8	-0.46009564
2	0xbe42909d	-0.19000478
3	0x3f4b4149	0.7939649

value_head.weight f4 [1, 16]
0	0x3e8947b5	0.2681252
1	0x3be65289	0.007028882
2	0x3bf9f2d4	0.0076278243
3	0x3c425c79	0.0118628675
4	0x3e1e24bd	0.15443702
5	0xbd31dacc	-0.04342155
6	0x3e064949	0.13113894
7	0x3e00e5a3	0.125876
8	0x3e47eedb	0.1952471
9	0xbcb09a29	-0.021557884
10	0x3d4f1423	0.050556313
11	0xbd6dc3d6	-0.05804809
12	0x3d8f069d	0.06983683
13	0x3d67dee7	0.05660906
14	0x3df0a073	0.11749353
15	0x3e387b7e	0.18015859
