models/LinearModelV0.4.pt (torch, 5727 bytes, 7 tensors)

conv_layer.0.weight f4 [16, 1, 3]
00000000: a483 d73d 16bd 823e 0252 943e 3b09 9abe
00000010: 12dc 983d 45c8 16be 9c3b b13e 463c 963e
00000020: d6bc b63e f3b2 2e3f 5137 7abc d39e 943e
00000030: 93b4 36bd 4551 37bf 7674 573d 811b 3c3c
00000040: 161f e9be 5536 babe c5f3 2d3e 06dc 41bf
00000050: 1cac 4ebf 050e e83c 38ea b23d 3355 f93c
00000060: 854d a7bd 428b d43e a2ac 413f a73e 3fbf
00000070: 4560 b8be 90ca 63bd dacb 1f3e 6458 843e
00000080: 9adf 633e 252e 0e3f 1a62 013f 2420 d1be
00000090: dbf8 85bd e973 763e 414b dbbe 76df b8be
000000a0: 2802 6b3d 7cac 353f 551e 463e 7b0b f4bd
000000b0: 5674 483f 9072 0cbf 5f11 813e 657d 39bd
0.10523155 0.25534886 0.28968817 -0.30085167 0.0746385 -0.14724834 0.3461579 0.2934286
0.35690945 0.68241805 -0.0152719775 0.29027423 -0.044605803 -0.7160838 0.0526013 0.011481167
-0.4553153 -0.36369577 0.16987522 -0.75726354 -0.8073137 0.028326998 0.0873608 0.030436134
-0.081690826 0.41512495 0.7565404 -0.74704975 -0.36010948 -0.0556131 0.15605107 0.25848687
0.22253266 0.5553916 0.50540316 -0.40844834 -0.06541606 0.24067654 -0.42830852 -0.36107987
0.057375103 0.70966315 0.19347508 -0.11916252 0.78302515 -0.5486231 0.25208566 -0.0452856

conv_layer.0.bias f4 [16]
00000000: 14ca 493e 3075 003f 1d8d 9a3e a904 313e
00000010: 16a0 53bd 643b 8ebe 845e ab3e 3620 2dbe
00000020: 508c 313e cb84 debe 26fd 62be 33f1 943d
00000030: 5425 2bbe 0566 413e b4f0 eb3e 2760 483e
0.19705993 0.50178814 0.30185786 0.17286934 -0.05166634 -0.27779686 0.33470547 -0.16906819
0.17338681 -0.43460688 -0.22166881 0.072725676 -0.16713458 0.18886574 0.4608208 0.19567929

layer_1.1.weight f4 [16, 32]
00000000: f228 39bd e34a d83d 5f60 c4bd 17f9 b8bd
00000010: 8478 f73d 0db7 89bd b2e8 643b 9121 60bd
00000020: 4664 a83d f625 073e ae10 9ebd 7599 053e
00000030: 5783 b23d 3cc0 323e db52 e13d 7f31 153e
00000040: a1a4 04be 2c5a 26be 7243 593d 877c 523d
00000050: bfe6 03be 4965 213e ba67 2fbd 3a6d 0a3e
00000060: c759 d13d 5e3b e5bc 5f6f 24bd 1e72 a1bd
00000070: 7e1e 433e 8d95 093e f5a1 643d 11bf b23d
00000080: 74d1 223e 63d9 863e fced d6bd d371 45bc
00000090: 3f13 233e 93c3 d13c ca71 803e 4d2c 96bb
000000a0: ae26 a83d 0b61 bb3d 907b dc3d dcf6 77be
000000b0: a2cc 113b a741 c4bd 7a86 f63d f9c1 553d
000000c0: 1a6d a3bd 8dbc ad3e 5603 98be 81d2 08be
000000d0: 5129 083e 2e6b 9e3c 55b5 953e 6cc6 0bbe
000000e0: 69c4 383d bca1 c83c 84ec 9f3c f1e3 223d
000000f0: d8d6 2cbd fc32 433e fbc2 aabe 56ed 0b3e
00000100: dafc 153c 5452 51bd 8ad1 b6bc 8176 3c3e
00000110: 4d9a 19be 21fd b3be 1626 bdbe a447 6bbe
00000120: d761 2a3e d82b 683b ab46 113e 6175 893e
00000130: b955 413e bcfb 423b a756 cc3d 00a8 24be
00000140: 6ef1 80be 1615 b2be 56e5 103e 8bbe a33e
00000150: ba1c 773b 3c68 7dbe 676d 04bc f6d8 12be
00000160: 9e86 103b 283f be3d f16e d43d a55e 04bd
00000170: 3a0b 24be 8967 69bd cd77 013e 7e00 593d
00000180: d7ec 4fbd dc7d 0fbd 44d4 87bd a459 803d
00000190: 0ae3 ca3c b4d0 b5bc f163 69bc a699 a4be
000001a0: b674 703e 4038 2abd 8c36 0c3d 15c7 de3d
000001b0: 178d e33d 1bfc ba3e cb38 0bbe 54e9 9fbd
000001c0: ae8b 353e ab12 dfbe 2fec 413c 915e fdbd
000001d0: b724 f8bc ed51 b6be db14 99be e333 133e
000001e0: e6dd efbd 9d21 c03e d244 113d 1995 16be
000001f0: 2898 383b 84b8 85be 2322 dfbc cc6f 783e
00000200: a416 663e b191 c5bb ea36 163d 5e8b 2cbe
00000210: 7366 b03e dc41 d13d ac2b 5a3e d0f4 203e
00000220: ca86 673d e50c f6bd da19 02be 8510 04be
00000230: e528 e23c 24c0 44be a7a7 023e 3569 bbbd
00000240: f865 8a3e f14c 463e 3792 55be 5351 ebbd
00000250: ccca b03c 2cf6 b039 08db 8e3e 9ae8 6b3e
00000260: a2ac 8a3d 350e 24be 44c0 03bd 72dd 403e
00000270: 7cef 713e d08f 513e 98de 49bd f7a0 e03d
00000280: c461 43be 6a6b 58be 86f7 683d 5728 bcbd
00000290: 8179 11be fbc5 74bd e3b4 9fbe 1f1d 6e3d
000002a0: b9e1 12be 9798 c63d fc28 103d 06a4 9f3d
000002b0: e18a 8abd cf10 aa3e abe4 5abd eef2 3dbe
000002c0: 0b81 133c 475a 6ebe ed72 c33e 1329 1d3e
000002d0: e640 8bbd 447b b8bc 8643 dabd f0e4 d43d
000002e0: 3224 963e f1e0 08bd 01be eb3b c260 17be
000002f0: 9730 7fbe c5f5 973a 93df 123e 2772 96bc
00000300: d368 bc3d b06b 3f3e caff a4bc 4acb d8bc
00000310: 0feb 203e a8f7 be3d 3a64 513e c48e 50be
00000320: 6f44 233e e9dd ebbb d5d2 803e b6cb 9fbd
00000330: 9f5d f0bc c28e 9bbe ac7d a2bd 3829 88bd
00000340: 78d5 bc3d 061e 8c3e e135 e4bd a40f 7f3e
00000350: f0d8 ca3d 455b 183d 328a 50be b49d 89be
00000360: ca9a 4ebe a224 433d 98d6 663d 5a5f c23e
00000370: 237c b83d d1ce 153e f196 f5bd 158d 273d
00000380: e030 30be a742 94bd 49da 083d 254a 57bd
00000390: 9eb6 4ebd 2c26 86bd 61b5 6bbd be1f cdbc
000003a0: 6d6c 773e cb71 293e b2e8 c13b 7aca 22be
000003b0: 0d60 3e3e 4690 9bbd 7fe1 b83d d389 fcbd
000003c0: c219 8d3d b4a2 e93d 7325 693e ee04 503d
000003d0: 015a 83bd 7a87 26be c5bb 1abe ad48 18bd
000003e0: ca7f 013d f3e8 3d3d 320e 5ebd 36ee 7e3d
000003f0: 5b33 c6bd d880 8f3d afbe f5bc dc26 d63d
-0.045205064 0.105611585 -0.09588694 -0.09031885 0.120835334 -0.06724367 0.0034928736 -0.05471951
0.08222251 0.13198075 -0.07718025 0.1304682 0.08716457 0.17456144 0.110021316 0.14569663
-0.12953426 -0.16245335 0.053042836 0.05138829 -0.12880991 0.15761293 -0.04282353 0.13518229
0.10222202 -0.02798241 -0.040145274 -0.07883094 0.190546 0.13435955 0.055818517 0.08727849
0.15900213 0.26337728 -0.10494611 -0.012051064 0.1592531 0.025605952 0.25086814 -0.004582918
0.082105026 0.09149369 0.10765755 -0.24215263 0.0022247215 -0.09582835 0.12037368 0.05218694
-0.07979794 0.33932915 -0.29690045 -0.13361551 0.13297011 0.019338217 0.29239908 -0.1364991
0.045109186 0.024491183 0.01952196 0.039768163 -0.04219708 0.19062418 -0.33351883 0.13664755
0.009154523 -0.051103905 -0.022316713 0.1840458 -0.15000267 -0.3515406 -0.3694312 -0.22976547
0.16638885 0.0035426524 0.14187114 0.26847365 0.18880357 0.0029752096 0.09977465 -0.16079712
-0.25184196 -0.34781712 0.14149985 0.3198131 0.0037706331 -0.24746794 -0.008082724 -0.14340577
0.0022052894 0.0928939 0.10372723 -0.032316823 -0.16019908 -0.056983504 0.12643357 0.052978985
-0.050762977 -0.03503214 -0.06632283 0.062670976 0.024766464 -0.022194244 -0.014245019 -0.32148474
0.23482022 -0.04155755 0.034231707 0.10877816 0.11110895 0.36520466 -0.13595884 -0.07808176
0.17729065 -0.4356893 0.011836096 -0.12371553 -0.030290945 -0.3560938 -0.29898724 0.14375262
-0.11712246 0.37525645 0.035466023 -0.14705314 0.0028166864 -0.26117337 -0.027237957 0.24261397
0.22469574 -0.0060293307 0.036673464 -0.1685004 0.34453163 0.1021764 0.21305722 0.15718389
0.05652503 -0.12014178 -0.12705174 -0.12896927 0.02760739 -0.19213921 0.12759267 -0.09150926
0.2703092 0.19365288 -0.20856558 -0.11490121 0.021581076 0.00033752748 0.27901483 0.23037949
0.06771208 -0.16021045 -0.03216578 0.18834475 0.23626512 0.20465016 -0.049284548 0.109682016
-0.19080263 -0.21134725 0.05687668 -0.09187382 -0.14206506 -0.05975912 -0.31192693 0.05813324
-0.14343919 0.09697073 0.035195336 0.07794957 -0.0676477 0.3321595 -0.05344073 -0.18549702
0.009002934 -0.23276626 0.3817362 0.153477 -0.06799488 -0.022519715 -0.1065741 0.10395229
0.2932449 -0.033417646 0.007194281 -0.14783004 -0.2492088 0.0011593631 0.143431 -0.018364979
0.09199681 0.18693423 -0.020141501 -0.026464123 0.15714668 0.093245804 0.2044839 -0.20366961
0.15944074 -0.0071980846 0.25160852 -0.07802527 -0.029341517 -0.30382353 -0.07934126 -0.06648487
0.092204034 0.27366656 -0.11143089 0.2490831 0.09904659 0.037196416 -0.20365217 -0.2687813
-0.20176235 0.047642358 0.056356996 0.37963372 0.09008052 0.14629675 -0.119916804 0.04090603
-0.17206144 -0.072392754 0.033411298 -0.052560944 -0.050467126 -0.065502495 -0.057546023 -0.02503955
0.24162455 0.16547315 0.005917632 -0.15897551 0.18591328 -0.07595877 0.09027385 -0.123309754
0.068896785 0.11407986 0.22768192 0.05078595 -0.06413651 -0.16262618 -0.15110691 -0.037178684
0.03161601 0.046364736 -0.054212756 0.062238894 -0.09677764 0.07006997 -0.029998152 0.104566306

layer_1.1.bias f4 [16]
00000000: 67b9 02be a90f f9bd 3fce 61be ec0d 4c3e
00000010: b83f e8ba 6de7 9a3d b211 cc3d cf5f f8bb
00000020: 3c12 9b3d 7f87 593e 37fc c2bb 05e9 b0bd
00000030: 583e 7cbd 3158 a3bd 8d3d ff3c b5db 31bb
-0.12766038 -0.1216119 -0.22051333 0.19927186 -0.0017719185 0.07563672 0.099643126 -0.0075797806
0.07571837 0.21243094 -0.0059504765 -0.08638195 -0.061582893 -0.079758056 0.03115728 -0.0027139012

action_head.weight f4 [4, 16]
00000000: 8f7b 5b3e e66e fc3c 5dcb 8f3e d74e 893e
00000010: 63e5 3dbe 9f99 05be 0ea0 19be d821 f5bd
00000020: a63a e4bc 1e6f 843e 4255 6cbd 7133 3abe
00000030: af2e d73e d146 dbbe 00f1 a03e 440b cebc
00000040: ce4e a33d fb51 103f ced9 79be 1648 87be
00000050: cc3d c13e 521b 01bf 455e c23e 7c1b dcbc
00000060: 61a6 0fbe 547b 1e3e 3a6f c3be 2262 89bd
00000070: 088e b9bd 7ab6 203f 4b04 00bf 391b a5bd
00000080: 20b3 a93d e6a6 6bbe be33 40be 9c68 963e
00000090: ed63 9d3d 1ed8 85bd e855 c1bc 9162 313d
000000a0: 7ba3 123e 0079 49bc 6594 613e cae1 043e
000000b0: bc83 583d 17c4 aa3d f6cd 5b3e 5ed7 1bbe
000000c0: 8158 093e c7f0 11be c464 cd3d f06f 56be
000000d0: bcf6 37be 6423 803e 1708 86be ec66 32bd
000000e0: 997f f73d 82e7 9abe 8b64 643e 6fab 853d
000000f0: 76d0 3d3d ae72 01be d420 b1be 8e9f 8d3e
0.21433853 0.0308146 0.2808484 0.26817963 -0.18544535 -0.13046883 -0.15002462 -0.11969346
-0.027859997 0.25866026 -0.057698496 -0.18183686 0.42027804 -0.42827466 0.31433868 -0.025151856
0.07974015 0.5637509 -0.24399492 -0.26422185 0.3774246 -0.5043231 0.37962547 -0.026868574
-0.14028312 0.15476733 -0.38170797 -0.067081705 -0.090602934 0.6277844 -0.5000655 -0.08061833
0.082861185 -0.23012885 -0.18769738 0.29376686 0.07685075 -0.06535362 -0.023600534 0.04330689
0.14320175 -0.012296915 0.22029264 0.12976757 0.052860007 0.083381824 0.21465287 -0.15218875
0.13412668 -0.14252006 0.10028985 -0.20941138 -0.17965215 0.25027 -0.26178047 -0.043555185
0.12084884 -0.3025475 0.22303979 0.06526839 0.046341382 -0.12641403 -0.34595358 0.27660793

action_head.bias f4 [4]
00000000: becd acbc d29b f7bd ad04 753c 1232 ac3d
-0.0210942 -0.12090267 0.014954728 0.08407988

value_head.weight f4 [1, 16]
00000000: a567 e1bb 99cf d73c 436b b0be 5c80 3e3d
00000010: e7d6 953e c70c e5bc ffbc 67bd c90c acbd
00000020: 4bfd 2abd a474 493e e692 27be 3c46 37bd
00000030: 4652 0e3e 0305 763e afbb 5bbe 6be0 43be
-0.0068788105 0.026344107 -0.34456834 0.04650913 0.2926552 -0.027960194 -0.056576725 -0.08400876
-0.041745465 0.19673401 -0.16364631 -0.044744715 0.13898572 0.2402535 -0.21458314 -0.19128577
