models/LinearModelV0.16.pt (torch, 5737 bytes, 7 tensors)

conv_layer.0.weight f4 [16, 1, 3]
0	0xbea11937	-0.3146455
1	0xbe1e2d1a	-0.15446892
2	0xbef1bd69	-0.4721482
3	0x3d866005	0.06561283
4	0x3f31e11d	0.6948412
5	0x3f2a2d8a	0.6647574
6	0x3f304384	0.6885302
7	0xbe3ae020	-0.1824956
8	0x3f06de6b	0.5268313
9	0x3e941e08	0.28929162
10	0x3e2cfb5f	0.16892765
11	0x3f34fae8	0.7069535
12	0x3f0cf705	0.5506442
13	0xbdbf7bda	-0.09349795
14	0xbf219889	-0.63123375
15	0xbe56b45f	-0.20967244
16	0xbe854974	-0.26032603
17	0xbe45da4a	-0.19321552
18	0x3db1c28b	0.08679684
19	0x3eaaa990	0.3333249
20	0x3e19a629	0.15004791
21	0x3eaafc24	0.33395493
22	0x3eb46d87	0.35239813
23	0x3ed343f7	0.4126279
24	0x3ed78daa	0.4210027
25	0x3ef8b0bd	0.4857234
26	0x3ed5dfc7	0.4177229
27	0xbda2a1e8	-0.079410374
28	0x3ea87584	0.32902157
29	0xbec20330	-0.37893057
30	0xbd8af1c8	-0.06784397
31	0x3f11eae2	0.5699903
32	0xbf1cfe92	-0.61325943
33	0x3f0a0c5a	0.53925097
34	0x3e662ae1	0.22477295
35	0x3f38eef6	0.72239625
36	0xbf278845	-0.65442306
37	0x3deb3dff	0.11486434
38	0x3e0702ab	0.13184611
39	0x3f3557fc	0.7083738
40	0x3f233495	0.6375211
41	0x3f1761ee	0.59133804
42	0xbd276870	-0.040871084
43	0xbe65ba7c	-0.2243442
44	0xbde06f71	-0.10958756
45	0xbf6b989a	-0.92029727
46	0xbf2488b9	-0.6427112
47	0x3d6be623	0.057592522

conv_layer.0.bias f4 [16]
0	0xbe9c704a	-0.3055442
1	0x3ee09aac	0.43868005
2	0x3e2199da	0.15781346
3	0x3e63b57c	0.222372
4	0xbb8fb707	-0.004385832
5	0xbd40ee1e	-0.047102086
6	0xbca45953	-0.020062124
7	0x3eb6a766	0.3567459
8	0xbcc78df7	-0.024359686
9	0xbe609358	-0.21931207
10	0xbd561cff	-0.052273747
11	0xbe12c045	-0.14331158
12	0x3d59b197	0.05314788
13	0xbe05255f	-0.13002537
14	0xbd3e32a2	-0.046435006
15	0xbeb796ce	-0.35857242

layer_1.1.weight f4 [16, 32]
0	0x3e07e98d	0.13272686
1	0xbdf1c32c	-0.11804804
2	0xbda342f6	-0.07971756
3	0x3e4cb2a4	0.19990021
4	0x3e3cb2a2	0.18427518
5	0x3ecd0b98	0.40047908
6	0x3d456ba1	0.048198346
7	0x3f162a3f	0.5865821
8	0x3e51183e	0.20419404
9	0xbe6f6652	-0.23378876
10	0xbde1e2d4	-0.11029592
11	0xbe5f2d46	-0.21794614
12	0x3c9caa0b	0.019124052
13	0xbd9f33fc	-0.07773587
14	0xbe4f0fa2	-0.20220807
15	0x3e3cccbe	0.18437478
16	0x3dffd25d	0.124912955
17	0x3e0ce521	0.1375928
18	0x3e5084e6	0.20363197
19	0xbe56b3c8	-0.20967019
20	0x3e7067ed	0.23477145
21	0xbebabe43	-0.36473283
22	0x3c4ece44	0.01262242
23	0x3eeb6d82	0.45981985
24	0xbd50fe0d	-0.05102353
25	0xbe0811fa	-0.13288108
26	0x3e936575	0.28788343
27	0x3ee21156	0.4415385
28	0x3d9104c2	0.070809856
29	0xbc2f0148	-0.010681458
30	0xbeaf5aa3	-0.34248838
31	0x3d24ff25	0.040282387
32	0x3f0e0754	0.5547993
33	0x3be34e00	0.0069367886
34	0xbf363357	-0.7117209
35	0xbefde6a0	-0.49590015
36	0xbe934439	-0.28762987
37	0x3e10f9cf	0.14157794
38	0xbf09bd8e	-0.5380486
39	0xbe03bbac	-0.1286456
40	0xbd5472ca	-0.051867284
41	0xbec06307	-0.37575552
42	0x3e8d8e4d	0.2764763
43	0x3d9788d2	0.07399143
44	0xbe0cb2f9	-0.13740148
45	0x3c02da64	0.007986639
46	0xbf2e9f2c	-0.68211627
47	0xbe639461	-0.22224571
48	0xbdd97d36	-0.10619585
49	0xbdf6c126	-0.12048559
50	0x3dca8674	0.09888926
51	0xbe604a3e	-0.21903321
52	0x3e8b9249	0.27260044
53	0xbee8b854	-0.4545313
54	0xbd1f3b6b	-0.038875025
55	0x3d09f9e3	0.033685576
56	0xbcac3e3d	-0.021025771
57	0x3eb60f18	0.3555839
58	0xbe9c8fe6	-0.30578536
59	0xbe28d9e4	-0.16489369
60	0x3e3a820d	0.18213673
61	0x3d6e3bc4	0.058162466
62	0x3e8871d8	0.26649356
63	0x3f26ffb5	0.6523393
64	0x3dfb4525	0.12269048
65	0x3dda40a9	0.10656864
66	0x3e27a6de	0.16372249
67	0xbe1672cb	-0.14692228
68	0xbe1ecc83	-0.15507703
69	0x3d0cef8b	0.034408133
70	0x3d96a3fc	0.07355496
71	0x3e227677	0.15865503
72	0xbe204f61	-0.1565528
73	0xbc573ea4	-0.013137493
74	0xbd9aafad	-0.07553039
75	0xbce4f798	-0.027950093
76	0xbd7659f6	-0.060144387
77	0xbcd0d257	-0.025490923
78	0x3e064a35	0.13114245
79	0x3cace6ba	0.021106113
80	0xbc53f6c9	-0.012937256
81	0x3e05e1c2	0.13074401
82	0x3de97065	0.11398391
83	0xbde65344	-0.112463504
84	0x3df373b9	0.11887307
85	0xbe16aab9	-0.14713563
86	0x3e1dad6e	0.1539819
87	0x3d630eac	0.055433914
88	0x3daa089e	0.08302425
89	0x3cb4af0c	0.022056125
90	0xbd93e88a	-0.07222088
91	0x3e68759d	0.22701116
92	0x3dc1e32e	0.09467159
93	0xbda7e39a	-0.081977084
94	0xbe081e8c	-0.13292903
95	0xbe76c549	-0.24098696
96	0x3db96a31	0.090534575
97	0x3d12d766	0.03584995
98	0x3cc3e3fe	0.023912426
99	0xbdc06550	-0.09394324
100	0xbeb7b818	-0.3588264
101	0x3e31be0d	0.17357655
102	0xbe1e1abd	-0.15439887
103	0xbbe10bba	-0.006867853
104	0xbd08e806	-0.0334244
105	0xbdd72d28	-0.1050666
106	0xbd9d2773	-0.0767354
107	0x3e3b1700	0.18270493
108	0x3d9a9b05	0.07549099
109	0x3cbb7feb	0.022888144
110	0xbcb0bcc8	-0.021574393
111	0xbe72e3c1	-0.23719694
112	0xbd3d5588	-0.046224147
113	0x3c610f8a	0.013736615
114	0x3dd24861	0.102677114
115	0xbd560e9d	-0.05226003
116	0x3e849f23	0.25902662
117	0xbe5485d5	-0.20754178
118	0xbd5aa082	-0.05337573
119	0x3e80cf2d	0.25158063
120	0x3b8c7778	0.0042867027
121	0xbe9cf85c	-0.30658233
122	0x3e775ac8	0.24155724
123	0x3cdab9be	0.026699897
124	0x3d0b1709	0.033957515
125	0x3d8d17e2	0.06889321
126	0x3e25966f	0.16170667
127	0x3d593b00	0.053034782
128	0x3daf401d	0.085571505
129	0x3cfa8a8d	0.030583644
130	0x3c8d1409	0.017221468
131	0x3e8c1c65	0.27365413
132	0x3e0bdd7b	0.13658707
133	0x3dc03d2a	0.09386666
134	0x3dad16e6	0.08451633
135	0x3e92a78e	0.2864346
136	0x3cbb8710	0.022891551
137	0xbe496f7f	-0.19671439
138	0xbc82b1a9	-0.015953856
139	0xbd337ec6	-0.043822072
140	0xbb74c5b2	-0.003734928
141	0xbc172cf3	-0.009227025
142	0x3e426e5d	0.18987413
143	0xbbc1ddd3	-0.005916336
144	0xbb8e8b93	-0.0043501346
145	0x3e4feac9	0.20304407
146	0x3e350c25	0.17680414
147	0xbac7659d	-0.0015212778
148	0x3de4214c	0.111391634
149	0xbe451114	-0.19244796
150	0x3e2457ed	0.16049166
151	0x3e3b8a57	0.18314491
152	0x3c5b1b86	0.013373261
153	0xbddd10f3	-0.107942484
154	0x3e9413b7	0.2892129
155	0x3e71c3f4	0.23609906
156	0x3d10a2a1	0.035311345
157	0x3dbfa435	0.09357492
158	0xbeb84cda	-0.35996133
159	0xbd88fc73	-0.06688776
160	0x3cab5f18	0.020919368
161	0xbce6654b	-0.028124472
162	0xbe1911ee	-0.14948246
163	0xbe66bd05	-0.22533043
164	0x3db5d0a9	0.088776894
165	0xbe0e5b1a	-0.1390194
166	0x3c1fc630	0.009751841
167	0xbe30f71c	-0.17281765
168	0x3d08b578	0.033376187
169	0xbca8f7be	-0.020625945
170	0x3e1247d4	0.14285213
171	0x3e7920b2	0.24328879
172	0xbdf9e9a6	-0.12202768
173	0xbe2b123f	-0.16706179
174	0xbe2018ec	-0.15634507
175	0xbe5cd648	-0.21566117
176	0xbc99dd93	-0.018782413
177	0xbe121b70	-0.14268279
178	0x3bf8e493	0.0075956075
179	0x3dbb37af	0.0914148
180	0xbd94559d	-0.07242892
181	0x3d02e289	0.031954322
182	0x3cd5834d	0.026063586
183	0x383eaac4	4.5458568e-05
184	0xbda006ef	-0.078138225
185	0x3e82734f	0.25478598
186	0xbe9d523c	-0.30726802
187	0xbe0b37a8	-0.1359545
188	0x3e294ccd	0.16533203
189	0x3e311789	0.17294134
190	0x3e84a24c	0.25905073
191	0x3ea4da94	0.32198012
192	0xbe6b29d9	-0.22965182
193	0xbe666b65	-0.22501905
194	0x3e440cce	0.1914551
195	0x3ed2f79b	0.41204533
196	0x3e6df381	0.2323742
197	0x3d86b3cb	0.065772615
198	0x3dc51bf1	0.0962447
199	0x3e6a5fd7	0.22888122
200	0x3e63d391	0.22248675
201	0xbe3de23f	-0.18543337
202	0x3cec9cc6	0.02888335
203	0xbdd90032	-0.105957404
204	0x3d416306	0.047213577
205	0x3e214bea	0.15751615
206	0xba30c02b	-0.00067425024
207	0x3ea38518	0.3193748
208	0x3dd3af6b	0.10336193
209	0x3af678c1	0.0018804298
210	0xbe2fc1cd	-0.17163773
211	0xbd0f2e77	-0.03495642
212	0xbdbbdd23	-0.09173038
213	0x3d23646b	0.039890688
214	0x3da36f8d	0.07980261
215	0x3e75a2a7	0.23987828
216	0xbd8c647f	-0.068551056
217	0x3e4c5ea3	0.19957976
218	0x3e63f328	0.22260725
219	0xba923163	-0.0011153634
220	0x3df4cc55	0.11953036
221	0xbcb9ccda	-0.022680689
222	0xbec72a4e	-0.38899463
223	0xbda667b8	-0.081252515
224	0xb9d06386	-0.00039747002
225	0xbe4872a7	-0.19574986
226	0xbe4f644c	-0.20253104
227	0x3e1f888e	0.15579435
228	0x3df31fb5	0.11871282
229	0x3e17ab86	0.14811525
230	0x3e017751	0.12643172
231	0x3e99a4c3	0.30008516
232	0x3ea86013	0.328858
233	0xbe53c0d1	-0.20679022
234	0x3e576027	0.21032773
235	0x3da60278	0.081059396
236	0xbd775e74	-0.060392812
237	0x3dce9af1	0.100881465
238	0xbd2ff8ba	-0.042961814
239	0x3c9d9109	0.019234197
240	0xbe8f3485	-0.27969757
241	0x3dff642f	0.124702804
242	0xbd9e9161	-0.077425726
243	0xba0dee83	-0.0005414264
244	0xbd19e278	-0.037569493
245	0xbde6d5af	-0.11271226
246	0xbbbde0ab	-0.005794605
247	0xbd6bfc16	-0.057613455
248	0xbeba8ffb	-0.36437973
249	0x3ec90ab8	0.3926599
250	0x3d215369	0.039386187
251	0x3dec4deb	0.11538299
252	0x3c17db28	0.0092685595
253	0xbdb654ca	-0.08902891
254	0xbe692e76	-0.2277163
255	0x3d626342	0.05527044

layer_1.1.bias f4 [16]
0	0x3ddf93e7	0.10916882
1	0xbe86f92e	-0.26361984
2	0xbb218e0b	-0.0024651315
3	0xbe397aae	-0.18113205
4	0x3e0cfa48	0.1376735
5	0x3c5ade35	0.013358642
6	0x3e14c35a	0.14527646
7	0xbcfa3773	-0.030544018
8	0xbd9f8bfc	-0.07790372
9	0x3d90c3ac	0.070685714
10	0x3e03ff99	0.12890472
11	0xbdda60c5	-0.106629886
12	0x3e795fc0	0.24352932
13	0xbe20137c	-0.15632433
14	0xbe5f55c1	-0.21810056
15	0x3ca3b301	0.019982817

action_head.weight f4 [4, 16]
0	0xbf1cd61b	-0.612642
1	0xbea6ab2a	-0.32552463
2	0xbe72c09a	-0.23706284
3	0xbf062505	-0.5240024
4	0xbeb911b1	-0.3614631
5	0x3e7dbe75	0.24779685
6	0x3e98c287	0.29835913
7	0x3eb50221	0.35353187
8	0x3eb831e8	0.35975575
9	0x3f1242e3	0.5713331
10	0x3ee1b4d4	0.44083273
11	0x3f086725	0.53282386
12	0x3f075955	0.52870685
13	0xbf72cefe	-0.94847095
14	0xbf7e24ab	-0.992747
15	0x3d7ac878	0.06122634
16	0x3ee74b87	0.4517481
17	0x3f7405cb	0.9532134
18	0xbdb91882	-0.090378776
19	0x3f49fa13	0.7889721
20	0xbe801a6d	-0.2502016
21	0x3ef9d2e2	0.48793703
22	0xbf4c24ba	-0.7974354
23	0x3aa5cf30	0.0012650248
24	0xbceec96c	-0.02914878
25	0xbf2a07a2	-0.66417897
26	0xbcedc308	-0.029023662
27	0x3f60d20e	0.8782052
28	0xbfce6450	-1.6124363
29	0x3e92742a	0.2860425
30	0x3f1a4f61	0.6027737
31	0x3e478137	0.19482885
32	0x3e77878c	0.24172801
33	0xbf3f67be	-0.74767673
34	0x3dc8675e	0.09785341
35	0xbe2d051e	-0.16896483
36	0x3ebf7bb0	0.37399054
37	0xbee1e97a	-0.4412344
38	0x3e9c7673	0.3055912
39	0xbe761193	-0.24030142
40	0x3ea07e38	0.31346297
41	0x3ec6bec7	0.38817427
42	0xbeccc7ab	-0.39996085
43	0xbf1b5590	-0.60677433
44	0x3eb08224	0.3447429
45	0x3e9cb7a5	0.3060886
46	0x3e741cfc	0.23839182
47	0x3b814593	0.0039450615
48	0x3e1705ff	0.14748381
49	0xbe3b1555	-0.18269856
50	0x3ea2446d	0.3169283
51	0x3d178a00	0.03699684
52	0xbd2c5875	-0.042076547
53	0xbeaebbbc	-0.34127605
54	0xbc1b430c	-0.009476434
55	0xbde85faa	-0.113463715
56	0xbe2bd2e5	-0.16779669
57	0xbe1d6743	-0.15371422
58	0xbe7bba8a	-0.24582878
59	0xbd980679	-0.074231096
60	0x3e89eb84	0.26937497
61	0x3e450c5c	0.19242996
62	0x3deeb26b	0.11655124
63	0xbe60baa2	-0.21946195

action_head.bias f4 [4]
0	0xbd0a5ea7	-0.033781674
1	0xbf01b304	-0.5066378
2	0xbe3f6134	-0.18689424
3	0x3f4a990a	0.7913977

value_head.weight f4 [1, 16]
0	0x3e35ec7b	0.17765991
1	0x3be46d8d	0.0069710673
2	0x3ae312b5	0.0017324301
3	0xbb6ff14b	-0.0036612328
4	0x3d4685d2	0.048467465
5	0xbc18a479	-0.009316557
6	0x3d955adf	0.07292723
7	0x3d57c2db	0.052676063
8	0x3db15eec	0.08660683
9	0xbc169a14	-0.0091920085
10	0x3cc431aa	0.023949463
11	0xbc77cba7	-0.015124238
12	0x3d82afd6	0.06381194
13	0x3c3dc62a	0.0115828905
14	0x3d670135	0.056397635
15	0x3d826694	0.063672215
