models/LinearModelV0.3.pt (torch, 5599 bytes, 7 tensors)

conv_layer.0.weight f4 [16, 1, 3]
0.38840824 0.56844187 0.9600701 -0.51170707 0.18317728 -0.72640413 0.68148834 0.08584104
0.49348366 -0.5126662 0.055410586 -0.41742238 0.24105002 -0.49316126 -0.2906517 0.11635378
0.39231178 0.4085915 -0.7767875 -0.42418924 -0.32228798 -0.75581187 -0.45881534 -0.14048909
-0.27767158 0.49224558 0.6457098 0.9162895 0.57703996 -0.15958999 0.02307753 -0.035466876
0.75758076 0.6626322 0.5080927 -0.34151378 -0.1419534 0.41409096 0.3561235 -0.0676832
-0.1355536 0.12860964 -0.19423653 -0.05246577 -0.7182204 -0.5915157 -0.20413832 -0.59466195
00000000: 72dd c63e 6885 113f 27c7 753f 3cff 02bf
00000010: d392 3b3e 9ff5 39bf 0576 2e3f 6dcd af3d
00000020: e4a9 fc3e 183e 03bf 36f6 623d 63b8 d5be
00000030: d1d5 763e a27f fcbe 4dd0 94be e44a ee3d
00000040: 17dd c83e e832 d13e 8cdb 46bf 552f d9be
00000050: ee02 a5be e37c 41bf d8e9 eabe 5fdc 0fbe
00000060: f82a 8ebe 9d07 fc3e 3d4d 253f f391 6a3f
00000070: e4b8 133f 8f6b 23be 170d bd3c b745 11bd
00000080: d0f0 413f 44a2 293f 5d12 023f e5da aebe
00000090: 3b5c 11be bb03 d43e d255 b63e 7d9d 8abd
000000a0: 90ce 0abe 3fb2 033e f1e5 46be 59e6 56bd
000000b0: 4bdd 37bf 936d 17bf a309 51be c43b 18bf

conv_layer.0.bias f4 [16]
-0.18660684 0.33162284 0.27445507 -0.39422813 0.27273774 -0.35042533 0.28655684 -0.62547493
0.4915112 -0.08845715 0.252248 -0.13680598 0.15660511 -0.31312388 0.00010473875 0.021034267
00000000: dd15 3fbe 78ca a93e 6085 8c3e 45d8 c9be
00000010: 48a4 8b3e f36a b3be 94b7 923e 201f 20bf
00000020: 5ba7 fb3e 0629 b5bd a626 813e de16 0cbe
00000030: 175d 203e c651 a0be 30a7 db38 0e50 ac3c

layer_1.1.weight f4 [16, 32]
-0.0046460303 0.21462376 -0.098312154 -0.023659721 -0.16348642 0.27246273 0.21195278 -0.115336224
-0.21171395 -0.045377504 -0.009836873 0.063723184 -0.07378784 -0.14306179 0.15185173 -0.09865784
0.15971592 -0.07443933 -0.18005009 -0.07433209 -0.05644582 0.23482841 -0.009091814 -0.036778703
0.14041647 0.07817951 -0.13617212 0.09756873 0.09564846 -0.08428481 0.07094957 -0.27235946
-0.08188782 -0.5111237 0.2457413 0.38648057 0.14595352 -0.09163302 0.13387902 0.15562883
-0.050715733 0.35281327 0.14169562 -0.22776777 0.096997336 -0.12052773 0.020306474 0.044577062
0.054795776 -0.27762064 0.08517357 0.027983312 0.054642487 -0.33827627 0.11984965 0.07004302
0.13993639 -0.24116394 0.05584604 -0.21223113 0.038049974 0.3722895 -0.10837813 0.31562027
0.2532329 0.19794346 -0.11306992 -0.20545207 0.16820067 0.1975968 -0.13471475 -0.14241661
0.05212674 -0.13349548 0.09999274 0.16950527 -0.16379777 -0.28807983 -0.16205946 -0.2180666
0.07165799 0.26323438 0.07606201 0.1360444 0.016520804 0.2851863 0.09761218 0.1282012
0.13817903 -0.07985728 -0.15058868 0.12560515 -0.22870591 -0.24373382 -0.2258924 -0.06002293
-0.0070115766 -0.40469193 0.24869147 -0.006687594 -0.16291526 -0.0241064 0.13280845 -0.039888877
-0.2047004 0.09980119 -0.13835494 -0.23729558 0.029057585 -0.1427971 0.04581639 -0.24682969
-0.080413684 -0.122611426 0.0139460955 0.046312816 -0.21833767 -0.14467758 0.1025755 0.17835732
0.29400027 -0.13378477 -0.22731 -0.08641969 0.380278 0.09501126 0.26919788 0.16991624
-0.15245183 -0.17107177 0.035230182 0.043019395 -0.25744042 -0.1418009 0.33976606 0.04087592
0.010988824 -0.24667466 -0.18694682 0.19263709 0.074154146 -0.16434972 0.2905688 0.20787123
-0.12282267 -0.17481735 -0.27874237 -0.039671328 -0.022017675 -0.116004 -0.098276585 -0.008705821
-0.04796599 0.069314174 -0.092109516 0.11239511 0.22028226 -0.14336045 0.49513173 0.0014649966
-0.36267534 -0.14092581 0.16762276 0.028975932 -0.35363898 -0.24624762 0.26093486 -0.037047833
-0.090639904 0.05619963 -0.21330298 -0.10638563 0.2505962 0.09879477 0.4083092 0.31134954
-0.13623327 0.08715713 -0.047154073 -0.1495744 -0.10792025 -0.054888852 -0.2016745 -0.04143868
0.01647512 -0.12245671 0.06347234 0.11275467 0.2408612 0.15947165 0.3631468 0.30186948
-0.36278892 -0.30864725 0.28133544 0.2631329 -0.21572527 -0.28389657 -0.05148548 0.009071797
0.025292596 0.115794204 -0.22578838 -0.0398589 0.04317237 -0.028469726 0.114990436 0.040375303
-0.17008157 -0.18025866 0.15239185 0.09678241 -0.3493988 -0.4287222 -0.0037249327 -0.05755061
-0.11773293 -0.31872776 -0.052525237 -0.18504576 0.13467231 0.3480046 0.2313266 0.14494735
-0.12092544 0.061746042 0.10905061 -0.04916056 -0.21749742 0.034065098 0.04336439 -0.012869338
-0.10248161 -0.057567388 0.09273982 0.12725772 0.09608439 -0.06995586 0.35354206 -0.00070766255
0.100297086 0.025197547 -0.09035922 0.112560034 0.09214135 0.02328284 -0.26641417 -0.0626123
-0.06449778 0.007557652 0.22307578 0.13500775 0.08894535 0.011789903 0.15626386 0.05457889
00000000: ba3d 98bb 55c6 5b3e e257 c9bd 08d2 c1bc
00000010: fc68 27be 3c80 8b3e 260a 593e 6635 ecbd
00000020: 8bcb 58be c3dd 39bd d62a 21bc 4d81 823d
00000030: 141e 97bd ca7e 12be 057f 1b3e 1f0d cabd
00000040: 928c 233e a673 98bd 0d5f 38be 6c3b 98bd
00000050: bb33 67bd dc76 703e d5f5 14bc 44a5 16bd
00000060: 56c9 0f3e 941c a03d b470 0bbe 1dd2 c73d
00000070: 57e3 c33d 849d acbd 024e 913d b372 8bbe
00000080: cdb4 a7bd 01d9 02bf 9ba3 7b3e c8e0 c53e
00000090: d774 153e 18aa bbbd 9517 093e 2a5d 1f3e
000000a0: 4dbb 4fbd f1a3 b43e a818 113e f43b 69be
000000b0: 8aa6 c63d 3ed7 f6bd c359 a63c 7096 363d
000000c0: 8971 603d 4b24 8ebe 7b6f ae3d 423d e53c
000000d0: cdd0 5f3d 8c32 adbe bc73 f53d b772 8f3d
000000e0: 7c4b 0f3e aef3 76be d1be 643d 1e53 59be
000000f0: 4ada 1b3d bb9c be3e 5af5 ddbd fb98 a13e
00000100: bea7 813e b1b1 4a3e 3491 e7bd 0762 52be
00000110: cc3c 2c3e d156 4a3e aaf2 09be a9d5 11be
00000120: d982 553d 0ab3 08be fec8 cc3d ca92 2d3e
00000130: 9aba 27be 337f 93be eaf2 25be da4c 5fbe
00000140: 6dc1 923d a8c6 863e 66c6 9b3d 394f 0b3e
00000150: a356 873c f003 923e e5e8 c73d 2d47 033e
00000160: ce7e 0d3e 378c a3bd eb33 1abe a39e 003e
00000170: e231 6abe 5c95 79be 5650 67be 9bda 75bd
00000180: 5ec1 e5bb c833 cfbe faa8 7e3e 9b23 dbbb
00000190: 42d3 26be c97a c5bc f0fe 073e 8562 23bd
000001a0: fb9c 51be 9164 cc3d ebac 0dbe 9dfd 72be
000001b0: 2c0a ee3c 6739 12be f8a9 3b3d ecc0 7cbe
000001c0: eeaf a4bd b31b fbbd 2a7e 643c 82b2 3d3d
000001d0: e993 5fbe 5c26 14be 1b13 d23d 4da3 363e
000001e0: 3487 963e e0fe 08be f4c3 68be cefc b0bd
000001f0: ccb3 c23e 4395 c23d 4ed4 893e 86fe 2d3e
00000200: 551c 1cbe 702d 2fbe 864d 103d 1b35 303d
00000210: 3bcf 83be 4134 11be d1f5 ad3e 826d 273d
00000220: 780a 343c 4898 7cbe fd6e 3fbe a842 453e
00000230: 21de 973d 4b4b 28be 6fc5 943e 32dc 543e
00000240: 748a fbbd 5203 33be 52b7 8ebe 677e 22bd
00000250: 695e b4bc 8193 edbd 3c45 c9bd dca2 0ebc
00000260: fc77 44bd 97f4 8d3d eaa3 bcbd 682f e63d
00000270: ac91 613e 15cd 12be e881 fd3e 2105 c03a
00000280: 95b0 b9be db4e 10be 4da5 2b3e ef5e ed3c
00000290: 2b10 b5be 5628 7cbe 4199 853e 78bf 17bd
000002a0: 6aa1 b9bd 9531 663d 196c 5abe b6e0 d9bd
000002b0: 254e 803e ea54 ca3d e70d d13e 3569 9f3e
000002c0: bc80 0bbe 707f b23d a124 41bd 082a 19be
000002d0: 4b05 ddbd 22d3 60bd c383 4ebe 9bbb 29bd
000002e0: d5f6 863c 95ca fabd c9fd 813d eceb e63d
000002f0: 52a4 763e 894c 233e 61ee b93e a38e 9a3e
00000300: 78bf b9be 0307 9ebe 330b 903e 5bb9 863e
00000310: 16e7 5cbe e45a 91be 70e2 52bd e0a1 143c
00000320: 6b32 cf3c 8325 ed3d 1235 67be 1643 23bd
00000330: 83d5 303d 5839 e9bc 1b80 eb3d 9360 253d
00000340: dd29 2ebe ba95 38be 9c0c 1c3e db35 c63d
00000350: 66e4 b2be 7a81 dbbe 001e 74bb 30ba 6bbd
00000360: f61d f1bd 4930 a3be b424 57bd a37c 3dbe
00000370: 8ae7 093e a92d b23e e1e0 6c3e 146d 143e
00000380: c2a7 f7bd 6be9 7c3d ed55 df3d 955c 49bd
00000390: a5b7 5ebe d887 0b3d dc9e 313d ead9 52bc
000003a0: e1e1 d1bd c8cb 6bbd 60ee bd3d d94f 023e
000003b0: e5c7 c43d 0545 8fbd 7703 b53e 6e82 39ba
000003c0: 8f68 cd3d 166b ce3c 410e b9bd e085 e63d
000003d0: 9bb4 bc3d a8bb be3c 7067 88be e13a 80bd
000003e0: 6917 84bd 2ea6 f73b fa6d 643e 793f 0a3e
000003f0: fb28 b63d 702a 413c a203 203e 1d8e 5f3d

layer_1.1.bias f4 [16]
-0.12971628 0.21598041 -0.062414136 -0.06726305 -0.11229085 -0.2564622 0.01682672 -0.12600285
0.2007798 0.2474364 0.058610253 0.21891083 -0.041197173 0.16420346 0.15533039 0.041657604
00000000: 58d4 04be f829 5d3e f7a5 7fbd 36c1 89bd
00000010: bff8 e5bd 034f 83be 31d8 893c e406 01be
00000020: 3899 4d3e f85f 7d3e 4e11 703d 292a 603e
00000030: 5ebe 28bd f424 283e ee0e 1f3e 2aa1 2a3d

action_head.weight f4 [4, 16]
-0.29118764 0.5106002 -0.30248442 0.25333825 -0.13785514 0.049292333 0.14616825 -0.064939946
0.29301056 -0.2181519 0.3900536 -0.1776045 -0.013419723 0.11690756 0.058633883 0.129322
-0.048406973 -0.28230205 0.22435674 -0.22443494 -0.085127555 -0.1449898 -0.41798204 0.08907018
0.06095833 0.42262205 -0.6904387 0.32709405 0.24177413 0.25941828 0.04377853 -0.33144897
0.25227523 0.11491301 0.07500218 0.22968653 0.3240659 0.13445534 -0.26873887 0.5886665
-0.35071248 -0.2236083 0.59012634 -0.0016057428 -0.74441934 -0.39513844 0.049166277 -0.048019398
0.009118795 -0.07734402 -0.016681595 0.39289284 0.15800218 0.19910476 0.09178544 0.10442835
0.031233734 -0.18435065 -0.006832768 -0.03258898 0.06773173 -0.078737 -0.24503215 0.049160197
00000000: 8c16 95be b2b6 023f 3ddf 9abe 8db5 813e
00000010: e629 0dbe c2e6 493d 21ad 153e 3cff 84bd
00000020: 7b05 963e 3663 5fbe 1bb5 c73e f4dd 35be
00000030: 66de 5bbc 3b6d ef3d 152a 703d fd6c 043e
00000040: 6446 46bd e589 90be c6bd 653e 46d2 65be
00000050: 5b57 aebd 3578 14be be01 d6be 6d6a b63d
00000060: 71af 793d eb61 d83e 97c0 30bf df78 a73e
00000070: a393 773e 79d2 843e 1e51 333d aeb3 a9be
00000080: 382a 813e 8357 eb3d be9a 993d f232 6b3e
00000090: f7eb a53e a9ae 093e 2498 89be d9b2 163f
000000a0: 9690 b3be 93f9 64be 8512 173f ca77 d2ba
000000b0: 4492 3ebf 964f cabe 9462 493d fdaf 44bd
000000c0: 0067 153c 8b66 9ebd d7a7 88bc 4029 c93e
000000d0: 53cb 213e 1ee2 4b3e 01fa bb3d 88de d53d
000000e0: e3dd ff3c 6bc6 3cbe 6ae5 dfbb 067c 05bd
000000f0: efb6 8a3d dd40 a1bd b5e9 7abe 345c 493d

action_head.bias f4 [4]
0.23223518 0.20300229 -0.042640127 0.042173006
00000000: 0fcf 6d3e d5df 4f3e 6aa7 2ebd 9abd 2c3d

value_head.weight f4 [1, 16]
-0.04285873 -0.006316975 0.2559972 -1.6496051e-06 -0.32413182 -0.38285223 -0.06691972 -0.17659277
0.28740034 0.26918218 -0.35916603 0.30934715 -0.018802542 0.27840227 0.22258696 -0.3038241
00000000: a38c 2fbd a1fe cebb 1112 833e 0068 ddb5
00000010: 9bf4 a5be 3505 c4be 350d 89bd bcd4 34be
00000020: 2326 933e 3fd2 893e 9ce4 b7be c062 9e3e
00000030: ca07 9abc be8a 8e3e d6ed 633e d58e 9bbe
