models/LinearModelV0.66.pt (torch, 5737 bytes, 7 tensors)

conv_layer.0.weight f4 [16, 1, 3]
-0.23666498 -0.18899526 -0.43033487 0.15030979 0.69822866 0.7281504 0.66348773 -0.08735016
0.7462499 0.3437683 0.20312066 0.9517581 0.509209 -0.13696152 -0.6285379 -0.03486037
-0.0017857946 -0.009816271 -0.00740661 0.012966393 0.0010871249 0.2461132 0.24553771 0.44943926
0.24249488 0.23911291 0.31192508 -0.104761735 0.048573323 -0.26369694 -0.09567231 0.3624218
-0.6461492 0.49030554 0.1724086 0.9402023 -0.5799478 0.121299505 0.018906757 0.6249577
0.5518617 0.7847568 -0.032491036 -0.005513263 -0.040535692 -0.9285418 -0.4491103 -0.0025480129
00000000: 4e58 72be f987 41be da54 dcbe cfea 193e
00000010: 1dbf 323f 1168 3a3f 55da 293f a4e4 b2bd
00000020: 3c0a 3f3f 6602 b03e ddfe 4f3e 6ba6 733f
00000030: 855b 023f a43f 0cbe dce7 20bf bfc9 0ebd
00000040: 5311 eaba 6dd4 20bc 26b3 f2bb fe70 543c
00000050: dc7d 8e3a 1905 7c3e 3d6e 7b3e e71c e63e
00000060: 9450 783e 04da 743e a5b4 9f3e 528d d6bd
00000070: d2f4 463d 4903 87be d8ef c3bd 5a8f b93e
00000080: 096a 25bf 5409 fb3e e18b 303e 19b1 703f
00000090: 7677 14bf e06b f83d 58e2 9a3c 3afd 1f3f
000000a0: cf46 0d3f d2e5 483f 5215 05bd 9aa8 b4bb
000000b0: c108 26bd eab4 6dbf c9f1 e5be 90fc 26bb

conv_layer.0.bias f4 [16]
-0.12846169 0.33607256 0.0729577 0.15682265 -0.07934859 0.004037184 0.0041623446 0.15702683
0.074274674 -0.029723844 -0.012545424 -0.032902334 0.058072273 -0.031684216 -0.005579439 -0.19279815
00000000: 768b 03be b411 ac3e d96a 953d 1e96 203e
00000010: 8381 a2bd 5b4a 843b 4764 883b a4cb 203e
00000020: 521d 983d 6b7f f3bc 528b 4dbc 99c4 06bd
00000030: 31dd 6d3d 4fc7 01bd bad3 b6bb e16c 45be

layer_1.1.weight f4 [16, 32]
0.12359481 -0.22623484 -0.19995412 0.38649982 0.1628972 0.53306097 -0.018909039 0.9003995
0.33052048 -0.5323156 -0.005528583 -0.03522824 0.017395295 -0.0147629585 -0.15745997 0.27033615
0.01759707 0.21037506 0.14434488 -0.19694757 0.19844012 -0.5117668 0.017146965 0.7952208
-0.14091714 0.04322556 0.23185107 0.6634182 0.002150262 -0.0003705036 -0.3023834 0.18196824
0.31095016 0.014188018 -0.72498435 -0.17685671 -0.15331152 -0.17973153 -0.3830503 -0.012054337
0.039695874 -0.58252513 0.017760765 0.014025239 -0.028630964 0.025906792 -0.40458363 -0.08169754
-0.14826114 -0.035609193 0.006890003 -0.075761996 -0.030895045 -0.26975054 -0.025101693 0.055515673
-0.073301435 0.5009861 -0.3514395 -0.09562667 0.019314323 0.019833814 0.41184366 0.8118263
-0.013598397 0.035265204 0.078730404 -0.06006556 0.017984279 -0.03691219 0.06590215 0.0016601125
-0.0976348 0.011894749 0.02363722 0.017639378 -0.0035863225 -0.0018078646 0.08223998 -0.008605745
0.0005943963 0.0165589 -0.004717782 -0.02591217 0.0041083046 -0.03686871 0.08920176 -0.05844423
0.00546737 0.036415126 -0.028891813 0.06252291 -0.024716139 -0.016835913 -0.11161675 -0.106892295
-0.043004997 -0.026284873 0.052808754 -0.008821167 -0.09114857 0.03326234 -0.04345323 -0.012101777
-0.025789069 -0.008101214 -0.008950641 0.032489896 -0.014737991 0.005691734 0.0941096 -0.002049262
-0.037940755 -0.024843482 -0.06253561 -0.032579407 0.09911537 -0.06773518 -0.05074853 0.031191746
-0.027480893 0.008255841 0.10002239 -0.016762063 0.008840091 0.004676631 0.07264508 -0.032889113
0.13494302 0.11913184 -0.035636332 0.08832259 -0.026828855 0.047971707 -0.04184142 0.057785768
-0.038068637 -0.013053523 0.04196379 0.05256392 -0.03651373 -0.019265963 0.06085952 -0.1102306
-0.0949512 0.071246736 0.12234797 0.045125186 0.12092343 -0.09872428 0.05917259 0.08446138
0.10888781 -0.11708525 0.13898295 0.15449338 0.044143565 0.04915615 -0.17697121 -0.08132948
-0.06547369 -0.0756953 -0.037218872 -0.024025947 0.083109856 -0.10812458 0.061680667 -0.013494949
0.06324481 -0.06217838 -0.051706113 0.0080171125 0.0029769102 -0.063778475 -0.0006678211 -0.008551566
0.08045522 -0.007786818 0.044995263 0.05287169 -0.054792594 0.042115208 0.0505887 0.026038285
-0.06345865 0.07225465 -0.16420278 -0.07847981 -0.027036322 0.034061696 0.1875982 0.21930921
-0.11154307 -0.12326768 0.049086582 0.34104908 0.12988064 0.06427658 -0.01931737 0.211793
0.28191334 -0.20298629 0.05134984 0.009957921 0.031573292 0.09250903 -0.053979553 0.17847696
0.026646351 -0.029982906 -0.08712796 -0.00046108913 -0.037281636 -0.028562907 0.0316309 0.2301851
-0.07896065 0.18750043 0.12958461 0.008002601 0.06890699 0.015518988 -0.29970127 0.05642057
-0.014641214 -0.0947836 -0.12955803 0.19915304 -0.0006582631 -0.02952689 0.093821734 0.1353648
0.20292206 -0.12233083 0.064551026 0.04077228 0.0070944824 0.073288664 -0.013026494 0.012262497
-0.19684449 0.1091424 -0.030966925 0.10136036 -0.05860805 0.05146464 -0.035129618 -0.12610348
-0.13746676 0.29948753 -0.062621795 0.068852395 -0.014300498 -0.016104594 -0.009573143 0.05603953
00000000: 471f fd3d 1baa 67be c6c0 4cbe 4ee3 c53e
00000010: 86ce 263e af76 083f 21e7 9abc 9580 663f
00000020: fb39 a93e d645 08bf 1e29 b5bb 7d4b 10bd
00000030: 9480 8e3c 56e0 71bc 303d 21be 8069 8a3e
00000040: bb27 903c 8f6c 573e 25cf 133e a0ac 49be
00000050: e333 4b3e 2603 03bf cb77 8c3c 9793 4b3f
00000060: 954c 10be 490d 313d 5e6a 6d3e c6d5 293f
00000070: 69eb 0c3b 2740 c2b9 ffd1 9abe e255 3a3e
00000080: dc34 9f3e dc74 683c 9398 39bf ed19 35be
00000090: b2fd 1cbe 8b0b 38be 2b1f c4be 8e7f 45bc
000000a0: 2498 223d 5e20 15bf 067f 913c 1eca 653c
000000b0: 7c8b eabc 7b3a d43c 9625 cfbe 0a51 a7bd
000000c0: c5d1 17be f2da 11bd 89c5 e13b 1b29 9bbd
000000d0: 9b17 fdbc be1c 8abe 11a2 cdbc 6764 633d
000000e0: 101f 96bd a040 003f e1ef b3be ead7 c3bd
000000f0: 1239 9e3c 867a a23c 2cdd d23e d9d3 4f3f
00000100: d0cb 5ebc 3f72 103d 683d a13d 4e07 76bd
00000110: c453 933c 3d31 17bd b5f7 863d 2298 d93a
00000120: c1f4 c7bd 31e2 423c d8a2 c13c 7580 903c
00000130: 8208 6bbb dff5 ecba 6f6d a83d 1cff 0cbc
00000140: 43d1 1b3a 88a6 873c a097 9abb c245 d4bc
00000150: f59e 863b a503 17bd 6aaf b63d 3863 6fbd
00000160: a027 b33b 0728 153d 86ae ecbc 030c 803d
00000170: 8079 cabc 78eb 89bc 5397 e4bd 59ea dabd
00000180: 0226 30bd 6053 d7bc fe4d 583d a886 10bc
00000190: 1aac babd 173e 083d 04fc 31bd 8846 46bc
000001a0: 9943 d3bc f4ba 04bc b6a5 12bc 2014 053d
000001b0: 9d77 71bc ba81 ba3b 89bc c03d e94c 06bb
000001c0: c467 1bbd 8f84 cbbc ab12 80bd fc71 05bd
000001d0: 00fd ca3d beb8 8abd b1dd 4fbd d585 ff3c
000001e0: 9c1f e1bc 8243 073c 8ad8 cc3d 9850 89bc
000001f0: 07d6 103c 6d3e 993b f2c6 943d bcb6 06bd
00000200: 812e 0a3e 65fb f33d 67f7 11bd 79e2 b43d
00000210: 30c8 dbbc fb7d 443d e961 2bbd c5b0 6c3d
00000220: dced 1bbd 72de 55bc 39e2 2b3d 444d 573d
00000230: 6c8f 15bd a7d3 9dbc d547 793d 95c0 e1bd
00000240: c675 c2bd cfe9 913d 9391 fa3d 30d5 383d
00000250: b4a6 f73d f52f cabd f55e 723d 17fa ac3d
00000260: 9200 df3d 64ca efbd 8c51 0e3e 8333 1e3e
00000270: e2cf 343d f657 493d f137 35be 1290 a6bd
00000280: 1217 86bd 2306 9bbd d172 18bd 10d2 c4bc
00000290: 8035 aa3d 6b70 ddbd dea4 7c3d eb19 5dbc
000002a0: 7f86 813d c2ae 7ebd cac9 53bd 355a 033c
000002b0: 4418 433b 4a9e 82bd b710 2fba de1b 0cbc
000002c0: b5c5 a43d 9028 ffbb f44c 383d fc8f 583d
000002d0: 336e 60bd ff80 2c3d 1936 4f3d 3e4e d53c
000002e0: 9cf6 81bd 3ffa 933d c624 28be 06ba a0bd
000002f0: 477b ddbc 4784 0b3d be19 403e 9892 603e
00000300: b170 e4bd c473 fcbd 030f 493d fc9d ae3e
00000310: 6eff 043e 71a3 833d 763f 9ebc 44e0 583e
00000320: f256 903e a3db 4fbe 3654 523d 8c26 233c
00000330: ff52 013d 6075 bd3d aa19 5dbd aac2 363e
00000340: 7349 da3c b69e f5bc 2570 b2bd 56be f1b9
00000350: a1b4 18bd c2fc e9bc 678f 013d a5b5 6b3e
00000360: 1fb6 a1bd 1d00 403e d4b1 043e 571d 033c
00000370: 1c1f 8d3d 5a43 7e3c 7272 99be 4119 673d
00000380: b4e1 6fbc e71d c2bd dcaa 04be c6ee 4b3e
00000390: 4a8f 2cba 60e2 f1bc 9c25 c03d 129d 0a3e
000003a0: cdca 4f3e 9688 fabd 5433 843d d600 273d
000003b0: d578 e83b 5e18 963d 136d 55bc a4e8 483c
000003c0: 9a91 49be 0d86 df3d 59ae fdbc 0596 cf3d
000003d0: ff0e 70bd 96cc 523d 13e4 0fbd 4521 01be
000003e0: 16c4 0cbe 6e56 993e db3f 80bd 7c02 8d3d
000003f0: a34c 6abc c8ed 83bc acd8 1cbc b589 653d

layer_1.1.bias f4 [16]
-0.0066920333 -0.41775262 0.0682534 -0.066079356 0.06517397 0.012309488 0.085236795 -0.021965088
-0.03745785 0.16850647 0.11137893 -0.11881758 0.43116415 -0.18656431 -0.28218704 0.02216315
00000000: d848 dbbb ace3 d5be 70c8 8b3d 9d54 87bd
00000010: ee79 853d bcad 493c a190 ae3d 21f0 b3bc
00000020: 676d 19bd f68c 2c3e a31a e43d a256 f3bd
00000030: 8cc1 dc3e b70a 3fbe d27a 90be 7f8f b53c

action_head.weight f4 [4, 16]
-0.5905582 0.08037073 0.103369385 -0.1718445 -0.19645455 0.074695185 0.23646438 0.25164634
0.33384177 0.27940476 0.49904305 0.9788838 0.4268746 -1.1714875 -1.1475308 0.060753975
0.2741675 1.6558707 -0.044089507 0.409455 -0.28050032 0.35728434 -0.88230425 0.052829545
-0.04712614 -0.7384117 0.088850565 1.4546056 -2.7488897 -0.101096675 0.3568363 0.17292
0.29820767 -1.3616413 0.039007775 -0.25795123 0.35761136 -0.45870107 0.54726565 -0.2306258
0.21352784 0.6226718 -0.48244816 -1.248315 0.8105632 0.5513315 0.28605953 -0.0392228
0.18271738 -0.30203238 0.033152483 -0.080472425 -0.037269294 -0.0809912 -0.05690008 -0.07918921
-0.1672837 -0.07789879 -0.2587606 -0.3839789 0.40484673 0.45979774 0.37785205 -0.18749472
00000000: d22e 17bf 6999 a43d 54b3 d33d 01f8 2fbe
00000010: 622b 49be caf9 983d b823 723e cad7 803e
00000020: 4fed aa3e 240e 8f3e 9282 ff3e 2198 7a3f
00000030: 4f8f da3e 4df3 95bf 4ae2 92bf 29d9 783d
00000040: af5f 8c3e 92f3 d33f 3397 34bd 16a4 d13e
00000050: bd9d 8fbe f9ed b63e b1de 61bf cb63 583d
00000060: 5707 41bd 8d08 3dbf 49f7 b53d 8430 ba3f
00000070: cfed 2fc0 c60b cfbd 3fb3 b63e f111 313e
00000080: adae 983e 434a aebf 9ec6 1f3d 2f12 84be
00000090: d618 b73e deda eabe 9a19 0c3f 2b29 6cbe
000000a0: 0ba7 5a3e 6b67 1f3f 7203 f7be c9c8 9fbf
000000b0: 1281 4f3f 1024 0d3f 6576 923e 16a8 20bd
000000c0: 441a 3b3e fda3 9abe e6ca 073d bace a4bd
000000d0: b0a7 18bd b7de a5bd 0f10 69bd f42d a2bd
000000e0: 6b4c 2bbe 6789 9fbd 457c 84be e298 c4be
000000f0: 1248 cf3e 9c6a eb3e d375 c13e 9efe 3fbe

action_head.bias f4 [4]
0.104288645 -0.9661123 0.2662343 0.57044554
00000000: 4995 d53d 2353 77bf dd4f 883e b808 123f

value_head.weight f4 [1, 16]
0.1931169 -0.0017000759 -0.028672164 -0.0016137041 0.0033965285 -0.002619177 0.015779223 0.0001075678
0.023308674 0.009816104 0.0021046265 0.005208851 0.025174575 -0.011974957 0.00089725864 0.0018990552
00000000: 70c0 453e 15d5 deba e3e1 eabc ed82 d3ba
00000010: 4b98 5e3b 80a6 2bbb 6e43 813c 0696 e138
00000020: d5f1 be3c b9d3 203c c6ed 093b 02af aa3b
00000030: e93a ce3c 9c32 44bc 0236 6b3a b8e9 f83a
