models/LinearModelV0.12.pt (torch, 5737 bytes, 7 tensors)

conv_layer.0.weight f4 [16, 1, 3]
-0.36449808 -0.41317514 0.38821873 0.959174 0.124778196 0.799016 -0.121612 -0.5863652
-0.9886082 0.72223365 0.45571825 -0.2823292 0.09328744 -0.64976746 -0.6839286 -0.7246847
0.075840265 -0.84611785 0.37697068 -0.25513834 -0.2364703 0.8562135 0.061540835 0.7310732
-0.12612933 0.37550265 0.012190347 -0.5207067 -0.22000012 -0.74729264 -0.77915883 -0.3285627
0.39505953 0.75184685 0.69399506 0.88794327 0.01688091 -0.305633 -0.4717194 -0.5173467
0.0031175702 -0.62325287 -0.2740458 0.23969486 -0.6398057 0.29428214 -0.49592927 -0.76868397
00000000: 7e9f babe b18b d3be 9bc4 c63e 6d8c 753f
00000010: b68b ff3d 508c 4c3f b60f f9bd 081c 16bf
00000020: 6d15 7dbf 4ee4 383f e753 e93e 748d 90be
00000030: 7c0d bf3d 2957 26bf f215 2fbf f084 39bf
00000040: 2452 9b3d 2e9b 58bf 4d02 c13e 7ea1 82be
00000050: 4525 72be cf30 5b3f 3e12 7c3d 9d27 3b3f
00000060: 0c28 01be e241 c03e 05ba 473c 094d 05bf
00000070: b647 61be 924e 3fbf f476 47bf 5f39 a8be
00000080: 3e45 ca3e 0979 403f a9a9 313f 4050 633f
00000090: d649 8a3c ee7b 9cbe 3585 f1be d570 04bf
000000a0: 2650 4c3b 808d 1fbf bb4f 8cbe 9272 753e
000000b0: 4eca 23bf 26ac 963e 71ea fdbe 79c8 44bf

conv_layer.0.bias f4 [16]
0.2610902 0.30091816 -0.42820385 -0.1773343 0.13445391 0.050317056 -0.5944077 -0.15850186
-0.36771917 0.4560361 -0.019102337 0.34330148 -0.03780912 -0.023392983 -0.41083005 0.14976604
00000000: 9dad 853e f211 9a3e 893d dbbe 1f97 35be
00000010: 49ae 093e 4219 4e3d 1a2b 18bf 504e 22be
00000020: b045 bcbe 907d e93e 817c 9cbc 36c5 af3e
00000030: bcdd 1abd a4a2 bfbc 5158 d2be 455c 193e

layer_1.1.weight f4 [16, 32]
-0.048008244 0.082580045 -0.06693115 -0.0025277599 0.101449355 0.73535264 0.14363803 0.061040528
-0.013063896 0.5163423 0.29187632 0.16632862 -0.2255355 0.21670346 -0.13118683 -0.14960766
-0.067929424 -0.11877789 0.046388157 0.069219716 -0.24684903 -0.28171882 0.013606579 -0.45978492
0.11891672 0.42302763 0.1780221 -0.04651695 0.08160398 -0.07593862 0.17157505 0.6830852
0.03381873 0.046533518 0.49130982 0.1853568 -0.2807733 -0.04191426 0.0537806 0.12192687
-0.019349704 0.058653083 -0.23228304 -0.22629744 0.121884964 -0.10124708 0.09719256 0.065100305
0.11723234 -0.18769167 -0.12871899 0.0873765 -0.14952925 -0.016050594 0.4620572 0.3415649
-0.16637975 0.09541392 -0.16070825 -0.069037065 0.011875843 -0.15454452 0.04335573 -0.014744674
0.22911218 -0.19316992 -0.43929142 -0.1553724 0.2075134 0.39312327 -0.019490138 0.12655836
0.107837856 0.2569835 -0.012764839 0.07647025 -0.1508484 0.17898451 -0.24422775 -0.029390153
0.017777195 -0.1144505 0.039586827 0.16443297 0.051725753 0.066132784 -0.50198674 -0.5591503
-0.1337448 0.21707739 0.1373561 0.24482125 0.18895964 0.27496353 -0.14614369 0.30663452
0.187719 0.15274915 -0.58016986 -0.3196919 0.2580918 0.24538068 -0.22776504 0.09251592
0.025400434 -0.07517083 0.31026667 -0.04016942 0.124706276 0.18955179 -0.30440852 0.019831862
-0.041811608 0.21163553 -0.03512993 0.08669071 0.44826338 0.21952455 -0.70079005 -0.5744127
-0.1385292 0.06976911 0.20447826 0.037994195 -0.09181914 0.10407184 -0.17429653 -0.2426172
0.13900435 0.12363227 -0.46727294 -0.33375326 0.2928177 0.4129034 -0.010068812 -0.038363222
0.06063465 0.47975114 0.25392786 0.4074969 -0.041845866 0.110879235 -0.3504315 -0.21850753
0.12948443 -0.11673567 0.43742773 0.37520808 -0.10199838 -0.10501613 -0.62955904 -0.910382
0.187896 0.21258932 0.36891854 0.070369974 0.06231729 -0.025518753 0.35615513 0.43893725
0.037880067 -0.08598534 -0.3569298 0.072337195 0.12028142 -0.16339676 -0.17927615 0.14576596
-0.27474466 -0.50499296 0.025053414 -0.09586124 0.10868698 0.36379033 -0.113502525 0.22799085
0.3504781 0.27644572 -0.19988765 -0.516176 0.29203 -0.036402583 -0.6286992 0.28763512
0.05174069 -0.26560032 0.15290844 -0.22833996 0.32520363 -0.06562742 -0.49569395 -0.5645421
-0.004311401 -0.15148884 -0.3139604 -0.43798125 0.21281071 0.2955182 -0.029125933 0.007010605
0.0978891 0.19835255 0.2668565 0.2098349 -0.029826548 -0.035917956 -0.0850933 -0.24319544
-0.054160696 0.0010885316 0.13043283 0.086614996 0.34224555 0.13905942 -0.62211114 -0.4404062
0.09666551 0.022423401 0.16422962 0.2634248 0.18039635 -0.07381488 0.15889922 -0.018645853
-0.005719698 -0.33203852 -0.4345915 -0.4662347 -0.13560258 0.52219075 -0.18342979 0.39885703
-0.493382 0.33971688 0.3001191 0.26094818 -0.41833812 0.17626657 -0.44316348 -0.4218584
0.39240503 -0.026258161 0.20279118 0.20229217 0.44400087 -0.42043215 -0.3306081 -0.7234197
-0.31916547 0.41351438 0.31548393 0.25616276 0.2891935 0.34331667 -0.6128798 0.62051344
00000000: 4ba4 44bd ba1f a93d 3313 89bd c6a8 25bb
00000010: aec4 cf3d 1240 3c3f d915 133e a205 7a3d
00000020: f409 56bc 022f 043f d070 953e 0d52 2a3e
00000030: c7f2 66be 83e7 5d3e d755 06be c032 19be
00000040: 951e 8bbd d341 f3bd 8201 3e3d 11c3 8d3d
00000050: fec5 7cbe 733d 90be 21ee 5e3c ee68 ebbe
00000060: 9c8a f33d 1497 d83e 6d4b 363e 8f88 3ebd
00000070: fd1f a73d b585 9bbd 5fb1 2f3e acde 2e3f
00000080: 8285 0a3d ee99 3e3d f68c fb3e 2cce 3d3e
00000090: 85c1 8fbe 49ae 2bbd 0c49 5c3d cbb4 f93d
000000a0: 4583 9ebc 373e 703d 9bdb 6dbe 84ba 67be
000000b0: d39e f93d a15a cfbd e50c c73d 4f53 853d
000000c0: 8217 f03d 3f32 40be e9ce 03be 73f2 b23d
000000d0: 321e 19be 897c 83bc c392 ec3e 98e1 ae3e
000000e0: 745f 2abe 6068 c33d b490 24be 4e63 8dbd
000000f0: e592 423c eb40 1ebe c795 313d a593 71bc
00000100: 629c 6a3e 56ce 45be ceea e0be f119 1fbe
00000110: 657e 543e 7447 c93e c8a9 9fbc 8498 013e
00000120: 18da dc3d 5793 833e 9e23 51bc 6f9c 9c3d
00000130: 0178 1abe b747 373e d716 7abe 9ec3 f0bc
00000140: 7ba1 913c 0665 eabd cc25 223d 1e61 283e
00000150: 62de 533d a070 873d 3482 00bf 7924 0fbf
00000160: 66f4 08be 8949 5e3e 14a7 0c3e 6cb2 7a3e
00000170: a37e 413e 05c8 8c3e b1a6 15be 33ff 9c3e
00000180: 6939 403e 466a 1c3e 0386 14bf a8ae a3be
00000190: 9c24 843e 1345 7b3e 3d3b 69be fd78 bd3d
000001a0: 9214 d03c 2af3 99bd 46db 9e3e b188 24bd
000001b0: 0166 ff3d dd19 423e 6fdb 9bbe 6e76 a23c
000001c0: a642 2bbd fcb6 583e 67e4 0fbd e68a b13d
000001d0: c782 e53e 0bcb 603e fa66 33bf b60c 13bf
000001e0: 99da 0dbe 1be3 8e3d c062 513e cd9f 1b3d
000001f0: ac0b bcbd 9e23 d53d ca7a 32be a570 78be
00000200: 2857 0e3e ea32 fd3d 663e efbe b5e1 aabe
00000210: 34ec 953e 1368 d33e a9f7 24bc c122 1dbd
00000220: 0a5c 783d f1a1 f53e d502 823e 6fa3 d03e
00000230: 9266 2bbd a714 e33d c26b b3be 70c0 5fbe
00000240: 9197 043e 1c13 efbd 87f6 df3e 461b c03e
00000250: 87e4 d0bd b212 d7bd c82a 21bf cb0e 69bf
00000260: cf67 403e 04b1 593e e4e2 bc3e 221e 903d
00000270: 6a40 7f3d b40c d1bc f759 b63e 62bc e03e
00000280: 2128 1b3d 1519 b0bd 81bf b6be 8625 943d
00000290: 1b56 f63d 7b51 27be 2b94 37be ac43 153e
000002a0: 55ab 8cbe 3847 01bf d13c cd3c e652 c4bd
000002b0: 4897 de3d ba42 ba3e 0374 e8bd 6f76 693e
000002c0: de71 b33e 4b8a 8d3e 59af 4cbe 1c24 04bf
000002d0: f584 953e e01a 15bd 6ef2 20bf e944 933e
000002e0: 0cee 533d c4fc 87be 0894 1c3e f3d1 69be
000002f0: 1781 a63e ab67 86bd 99cb fdbe d585 10bf
00000300: a746 8dbb e41f 1bbe 6bbf a0be 143f e0be
00000310: 0deb 593e 294e 973e 8299 eebc 38b9 e53b
00000320: 157a c83d ee1c 4b3e 6aa1 883e f6de 563e
00000330: ce56 f4bc b51e 13bd 6545 aebd 3a08 79be
00000340: 9bd7 5dbd 0fad 8e3a 2f90 053e 3463 b13d
00000350: cf3a af3e 9865 0e3e ad42 1fbf ec7c e1be
00000360: 91f8 c53d 48b1 b73c cf2b 283e 9edf 863e
00000370: d2b9 383e 412c 97bd 7ab6 223e 30bf 98bc
00000380: 4e6c bbbb f400 aabe c782 debe 51b6 eebe
00000390: 67db 0abe 4bae 053f 05d5 3bbe fd36 cc3e
000003a0: 919c fcbe 5fef ad3e 36a9 993e 009b 853e
000003b0: 6a30 d6be 397f 343e 53e6 e2be d3fd d7be
000003c0: 50e9 c83e 5b1b d7bc 7ea8 4f3e ae25 4f3e
000003d0: 1554 e33e e242 d7be 7745 a9be 0932 39bf
000003e0: a869 a3be 28b8 d33e 1c87 a13e c427 833e
000003f0: 2c11 943e 34c7 af3e b1e5 1cbf f8d9 1e3f

layer_1.1.bias f4 [16]
0.109356984 0.27631497 0.087292306 -0.24125695 0.07242724 -0.34006947 0.060335074 -0.16576858
0.04928824 0.28224573 0.12873624 0.21297306 0.2969175 0.009413024 0.15415351 0.037885424
00000000: 8ef6 df3d 2879 8d3e 4fc6 b23d 100c 77be
00000010: bc54 943d 961d aebe e921 773d 3dbf 29be
00000020: 77e2 493d 8382 903e 6fd3 033e 9c15 5a3e
00000030: 9205 983e 1639 1a3c 6bda 1d3e bf2d 1b3d

action_head.weight f4 [4, 16]
0.34488934 0.0028257053 0.28333452 -0.033050098 0.37517342 -0.48123333 0.10825197 0.24681848
-0.3906703 0.027093798 -0.26497558 -0.020027598 0.29528 0.103179604 0.1640464 -0.03735829
-0.81849825 0.18760616 -0.6339832 -0.1851685 -1.1383197 0.39070413 -0.6325896 -0.7386793
0.81835407 0.60737574 0.2650303 0.4828686 0.07884521 -0.9812757 -0.04532494 0.18122792
0.0011917335 -0.306048 0.41844285 0.4743135 -0.1549057 0.6513514 -0.057180256 0.7622493
-0.12366913 -0.19784547 -0.19204094 -0.55351496 0.18820676 0.12777048 0.09609052 -0.47266778
0.42534557 -0.21088928 0.34311065 0.2961673 0.3657289 0.1786568 0.118629925 0.035848323
-0.5531532 -0.18280031 -0.21077225 -0.15504444 -0.35111034 0.112648346 -0.13180205 -0.11340677
00000000: 5695 b03e 782f 393b 3911 913e 8a5f 07bd
00000010: bb16 c03e 3764 f6be 35b3 dd3d fcbd 7c3e
00000020: f005 c8be d0f3 dd3c e1aa 87be eb10 a4bc
00000030: f12e 973e d44f d33d c8fb 273e 0205 19bd
00000040: 1a89 51bf d41b 403e b94c 22bf d09c 3dbe
00000050: 76b4 91bf 5f0a c83e 64f1 21bf 161a 3dbf
00000060: a77f 513f fa7c 1b3f 0db2 873e 8e3a f73e
00000070: 9979 a13d e234 7bbf a5a6 39bd d093 393e
00000080: f133 9c3a 53b2 9cbe 243e d63e 38d9 f23e
00000090: 9a9f 1ebe f7be 263f d835 6abd c522 433f
000000a0: 3e46 fdbd 0198 4abe 61a6 44be 28b3 0dbf
000000b0: 46b9 403e 44d6 023e 1bcb c43d 8301 f2be
000000c0: e5c6 d93e 5cf3 57be 33ac af3e 3ea3 973e
000000d0: d240 bb3e cff1 363e 3ff4 f23d b1d5 123d
000000e0: 739b 0dbf 0130 3bbe aed4 57be f8c3 1ebe
000000f0: bcc4 b3be 2db4 e63d 1ef7 06be cf41 e8bd

action_head.bias f4 [4]
0.37352172 -0.0031204987 -0.2985549 -0.53383654
00000000: 3d3e bf3e 4881 4cbb 30dc 98be 83a9 08bf

value_head.weight f4 [1, 16]
0.1735269 0.44479162 -0.2680791 -0.7334908 -0.2921273 -0.25020915 -0.5217438 -0.1407467
0.3896223 0.32450923 0.18157394 0.22883584 0.17358392 -0.38107154 0.34150562 0.06163877
00000000: 09b1 313e babb e33e aa41 89be 0ec6 3bbf
00000010: b691 95be 6a1b 80be 0091 05bf e71f 10be
00000020: 937c c73e 1326 a63e 85ee 393e f153 6a3e
00000030: fcbf 313e cf1b c3be d3d9 ae3e ef78 7c3d
