models/LinearModelV0.69.pt (torch, 5609 bytes, 7 tensors)

conv_layer.0.weight f4 [16, 1, 3]
0.41890895 0.38632706 0.4402034 -0.092754796 -0.011418343 -0.8196729 0.011560535 0.124733806
0.09405888 0.57004684 0.1110066 0.7275494 -0.010437945 -0.027681522 -0.04177052 -0.034748796
-0.21206212 -0.23695265 -0.03489629 -0.37940574 -0.110137194 0.06269825 -0.2522814 -0.18384357
-0.60199964 -0.24514608 -0.45895547 -0.1832047 -0.7683367 -0.93205714 -0.74191344 0.35587645
0.4607873 0.1768579 -0.32630515 -0.15541396 0.025955731 0.06737424 0.029071407 -0.003429477
0.040676758 0.040719524 -0.0138211055 0.008590975 -0.03274479 0.0403094 0.11343217 0.027907535
00000000: 3c7b d63e a9cc c53e 5762 e13e 3af6 bdbd
00000010: 0014 3bbc 15d6 51bf 6668 3d3c 7074 ff3d
00000020: f1a1 c03d 97ee 113f 6e57 e33d ad40 3a3f
00000030: ea03 2bbc 5cc4 e2bc 9117 2bbd c154 0ebd
00000040: d026 59be b7a3 72be 6aef 0ebd 7841 c2be
00000050: 9c8f e1bd f167 803d 072b 81be 7d41 3cbe
00000060: a61c 1abf 9307 7bbe 36fc eabe 039a 3bbe
00000070: b7b1 44bf 4c9b 6ebf 0aee 3dbf 7035 b63e
00000080: 50ec eb3e 3d1a 353e 7811 a7be d624 1fbe
00000090: 1da1 d43c 81fb 893d 2927 ee3c 14c1 60bb
000000a0: ac9c 263d 84c9 263d eb71 62bc 29c1 0c3c
000000b0: 671f 06bd 781b 253d 204f e83d 589e e43c

conv_layer.0.bias f4 [16]
0.10497303 -0.22433358 0.04881301 0.09263586 -0.015724506 -0.08486081 -0.09344603 -0.07463289
-0.1293452 -0.25809962 0.04702999 -0.06231546 0.027734602 0.020604752 -0.0062084845 0.04425703
00000000: 1afc d63d b4b7 65be 27f0 473d dfb7 bd3d
00000010: aed0 80bc 81cb adbd a260 bfbd 21d9 98bd
00000020: 1173 04be a225 84be 85a2 403d 7f3e 7fbd
00000030: ad33 e33c 4ccb a83c 8b70 cbbb dc46 353d

layer_1.1.weight f4 [16, 32]
0.0049506077 0.11695839 -0.057699297 0.26282743 0.049728684 -0.021772202 -0.16947742 -0.28798687
0.079703525 0.016313756 -0.0064881854 0.118662715 -0.13587981 -0.022351984 -0.094485834 -0.05169124
0.09198288 -0.020935498 -0.3572006 0.016747681 0.379764 -0.38872564 -0.16052927 -0.06708785
-0.122821234 0.065029785 0.1828185 0.10462123 0.040364355 0.07062628 0.08307015 -0.044781785
-0.22323872 -0.12203588 0.1766794 0.051142756 -0.0604933 -0.07114462 -0.2306385 -0.22812529
0.1264443 0.07182586 0.24425578 0.07923646 0.05582145 0.17046742 0.0377168 -0.00088850566
0.31129003 0.33408535 0.72361165 0.541173 -0.084493674 0.09197447 0.30391324 0.08621412
0.050176695 -0.00011421609 0.0314063 0.09050411 -0.09719247 0.03474051 -0.2092496 -0.13631697
-0.11489689 -0.026005523 0.13248245 -0.258735 -0.11152487 0.07456613 0.16567251 -0.026086822
-0.025726652 -0.13816796 0.011081677 -0.12594582 0.09979104 0.027561747 0.0044620205 0.17191586
-0.045010954 -0.040657375 -0.014048912 -0.07478714 -0.24592142 0.05226854 0.0032716908 -0.002196905
0.007309706 0.093003914 -0.07172456 -0.12238322 0.041116033 -0.1518536 -0.050901446 0.023032106
-0.021334654 0.17124783 -0.32787505 0.05929465 0.027767625 0.052472666 0.36445156 -0.21974514
-0.212174 0.10020223 -0.15157433 -0.04423207 0.1802673 -0.22111528 -0.23886782 -0.15933156
-0.07649466 0.08038259 -0.32536218 -0.27618125 0.48498222 0.18484977 -0.09043837 -0.34753597
-0.01724712 0.12669519 -0.10464448 -0.029235568 -0.21090202 0.093633525 -0.23883818 0.05965917
0.08244595 0.041910376 -0.062244106 0.07133738 -0.04308268 -0.09956952 -0.020348022 -0.06993661
-0.022548394 -0.004769434 -0.11498607 -0.025967624 0.041822676 -0.14240512 -0.026355067 -0.08861805
0.023468383 0.024770511 -0.10944304 0.013489463 0.11764183 -0.037825786 0.008087268 0.040434085
-0.05363286 -0.038488716 -0.013518569 -0.012362459 -0.09147869 0.018467193 -0.19519359 0.014212712
-0.111247376 0.029659085 0.24763624 0.017649787 0.072182044 0.08647438 -0.3476572 -0.11546583
-0.10289758 -0.0014648993 -0.14571197 0.083186485 0.08383499 0.0021253214 0.19308457 -0.0639455
0.13822189 0.05023195 0.08287724 0.28845417 0.1347093 -0.23822926 0.013585329 0.11741013
0.17742382 0.00857807 -0.09022844 0.108077526 -0.12767874 0.17321384 -0.12032234 0.25191504
-0.33479708 -0.38563737 0.07370481 0.6856612 -0.17123272 -0.006739284 -0.46973938 -0.5505848
0.017185466 -0.077515356 -0.009807935 -0.022761125 0.041483436 0.07055628 -0.07420928 0.11015288
0.640249 0.4380736 0.42444763 0.87454516 0.33737096 -0.3664905 -0.09307841 0.081797734
-0.14539057 0.04707123 -0.054044794 -0.021595046 0.04448789 -0.03356503 -0.1579968 0.019390374
0.09731796 0.10675002 -0.15449317 -0.50945234 -0.036578204 0.115196906 0.44851223 0.37771788
-0.27431044 -0.026132409 0.12457796 0.065605275 -0.057925906 0.034363307 0.17720346 -0.003959909
-0.36821708 -0.20221576 -0.07105515 -0.44920433 -0.3559757 0.42857012 0.13714159 -0.2128608
0.012638175 0.1220043 -0.10530443 -0.09632126 -0.005094759 -0.09372272 -0.052375875 -0.0076944046
00000000: b538 a23b e187 ef3d 1956 6cbd 5191 863e
00000010: 4eb0 4b3d 9e5b b2bc 7d8b 2dbe 0473 93be
00000020: 9a3b a33d 6da4 853c d89a d4bb 7005 f33d
00000030: 1424 0bbe 821b b7bc ca81 c1bd 32ba 53bd
00000040: 8561 bc3d ec80 abbc ffe2 b6be 6f32 893c
00000050: 6d70 c23e 0c07 c7be c961 24be 5b65 89bd
00000060: b389 fbbd 562e 853d c634 3b3e a843 d63d
00000070: 1855 253d 83a4 903d af20 aa3d 1b6d 37bd
00000080: b198 64be f3ed f9bd 72eb 343e 117b 513d
00000090: d3c7 77bd 45b4 91bd 802c 6cbe ad99 69be
000000a0: 9d7a 013e 7019 933d 301e 7a3e ba46 a23d
000000b0: 08a5 643d 038f 2e3e ee7c 1a3d 9bea 68ba
000000c0: 6861 9f3e 3c0d ab3e 9d3e 393f 508a 0a3f
000000d0: 050b adbd 1c5d bc3d 849a 9b3e 0791 b03d
000000e0: 1486 4d3d 4c87 efb8 e4a3 003d 385a b93d
000000f0: d90c c7bd 114c 0e3d 8745 56be ad96 0bbe
00000100: 104f ebbd 8909 d5bc 7ba9 073e ea78 84be
00000110: 2767 e4bd 21b6 983d 0ea6 293e 08b4 d5bc
00000120: b3c0 d2bc e77b 0dbe ec8f 353c f1f7 00be
00000130: 3f5f cc3d 2cc9 e13c 2436 923b b60a 303e
00000140: 685d 38bd 5988 26bd 682d 66bc 002a 99bd
00000150: d3d2 7bbe 8917 563d dd69 563b f3f9 0fbb
00000160: 4286 ef3b d678 be3d 53e4 92bd 0ea4 fabd
00000170: 4969 283d 837f 1bbe 097e 50bd d4ad bc3c
00000180: 03c6 aebc 975b 2f3e 3ddf a7be f2de 723d
00000190: ee78 e33c 94ed 563d 6599 ba3e df04 61be
000001a0: 2444 59be d436 cd3d 4d36 1bbe b02c 35bd
000001b0: fe97 383e 0b6c 62be c499 74be d027 23be
000001c0: 3ba9 9cbd a19f a43d df95 a6be a167 8dbe
000001d0: 974f f83e 4249 3d3e c137 b9bd 3cf0 b1be
000001e0: d549 8dbc 62bc 013e d84f d6bd 6e7f efbc
000001f0: b3f6 57be efc2 bf3d ff91 74be 2d5d 743d
00000200: 6cd9 a83d 37aa 2b3d adf3 7ebd 5519 923d
00000210: 7777 30bd 1beb cbbd e5b0 a6bc ed3a 8fbd
00000220: 69b7 b8bc ea48 9cbb d17d ebbd 0eba d4bc
00000230: 414e 2b3d a6d2 11be 95e6 d7bc 617d b5bd
00000240: c440 c03c 87eb ca3c ac23 e0bd e902 5d3c
00000250: 33ee f03d 36ef 1abd 7680 043c 369e 253d
00000260: 21ae 5bbd 58a6 1dbd fd7c 5dbc e98b 4abc
00000270: 2e59 bbbd 8348 973c d4e0 47be 6fdc 683c
00000280: aad5 e3bd 9cf7 f23c 5b94 7d3e 4996 903c
00000290: 2ed4 933d 7b19 b13d 2000 b2be 5979 ecbd
000002a0: f7bb d2bd dd01 c0ba 8535 15be ad5d aa3d
000002b0: aeb1 ab3d fa48 0b3b f6b7 453e dcf5 82bd
000002c0: 0a8a 0d3e 04c0 4d3d 8bbb a93d 44b0 933e
000002d0: 3cf1 093e 5ff2 73be 0095 5e3c b974 f03d
000002e0: 97ae 353e 098b 0c3c b0c9 b8bd c057 dd3d
000002f0: 37be 02be f85e 313e 8f6b f6bd 02fb 803e
00000300: 866a abbe 4372 c5be 8cf2 963d 7e87 2f3f
00000310: a157 2fbe 36d5 dcbb ae81 f0be 20f3 0cbf
00000320: 89c8 8c3c 5fc0 9ebd 76b1 20bc 8a75 babc
00000330: 89ea 293d d07f 903d 09fb 97bd d597 e13d
00000340: 5ce7 233f 2f4b e03e 3351 d93e 31e2 5f3f
00000350: e3bb ac3e a5a4 bbbe e59f bebd 9285 a73d
00000360: 44e1 14be c3cd 403d 135e 5dbd 18e8 b0bc
00000370: ef38 363d 7c7b 09bd eac9 21be 90d8 9e3c
00000380: a34e c73d c19f da3d 7533 1ebe 786b 02bf
00000390: 07d3 15bd 5bec eb3d 65a3 e53e 3d64 c13e
000003a0: 6b72 8cbe a213 d6bc bb22 ff3d 0f5c 863d
000003b0: b743 6dbd 8ac0 0c3d d374 353e 20c2 81bb
000003c0: f386 bcbe a611 4fbe 5d85 91bd 1cfe e5be
000003d0: 7242 b6be 8b6d db3e d86e 0c3e 2ef8 59be
000003e0: 5910 4f3c 64dd f93d d9a9 d7bd 1544 c5bd
000003f0: f0f1 a6bb b3f1 bfbd 1688 56bd 5821 fcbb

layer_1.1.bias f4 [16]
0.043065693 0.14100206 0.0652162 -0.014660741 -0.051426303 0.12052453 0.08650582 0.008972549
-0.34378436 -0.4590837 -0.38253397 0.20328452 0.055238403 -0.10195206 0.015310474 0.2615
00000000: a765 303d d862 103e 1290 853d 9b33 70bc
00000010: 63a4 52bd 91d5 f63d f729 b13d 9901 133c
00000020: 8104 b0be 050d ebbe 7edb c3be d129 503e
00000030: aa41 623d 3ecc d0bd c8d8 7a3c 54e3 853e

action_head.weight f4 [4, 16]
-0.043706063 0.60821843 -0.017225698 -0.1265278 -0.08282791 0.25806433 1.0567948 -0.30936095
-0.15365018 -0.22655457 -0.9843256 -0.29302335 -0.52631533 0.076793835 0.09265492 0.8637158
-0.436617 -0.071194686 -0.034548767 -0.16938367 0.07283889 -0.4074332 -0.24002384 0.3219518
0.22275072 1.1820568 0.8335086 -0.26657337 0.06233903 0.18242437 -0.40839314 -0.6935005
-0.07854176 0.03183437 0.15933812 -0.52672035 -0.15490508 0.11352731 -0.54217446 0.46569416
-0.38438702 -0.18172121 0.50228536 0.47843117 0.33591795 -0.051910337 -0.22006974 -0.6089543
0.610727 -0.6558854 -0.20834541 0.55968094 0.10568366 0.06209364 -0.31936392 0.030975206
0.04548801 -0.22008352 0.29212302 0.21874814 -0.06270563 0.028650658 0.09650804 -0.3063613
00000000: 2105 33bd 34b4 1b3f e81c 8dbc 8190 01be
00000010: aea1 a9bd 0221 843e 0d45 873f 8f64 9ebe
00000020: 7956 1dbe ecfd 67be c3fc 7bbf 2807 96be
00000030: 9abc 06bf 1646 9d3d ddc1 bd3d 7b1c 5d3f
00000040: 438c dfbe 85ce 91bd 0283 0dbd ea72 2dbe
00000050: 8e2c 953d 169b d0be cfc8 75be ded6 a43e
00000060: c418 643e a34d 973f d260 553f 4e7c 88be
00000070: 3657 7f3d 74cd 3a3e e818 d1be 4089 31bf
00000080: 81da a0bd c264 023d 8829 233e 25d7 06bf
00000090: 709f 1ebe 0281 e83d f2cb 0abf 776f ee3e
000000a0: 60ce c4be 2015 3abe c695 003f eef4 f43e
000000b0: 70fd ab3e ef9f 54bd f659 61be 6ee4 1bbf
000000c0: 9b58 1c3f 1be8 27bf 8058 55be 4047 0f3f
000000d0: ad70 d83d e755 7e3d ab83 a3be b7bf fd3c
000000e0: a351 3a3d 935d 61be 2691 953e 83ff 5f3e
000000f0: cf6b 80bd c9b4 ea3c 02a6 c53d 63db 9cbe

action_head.bias f4 [4]
0.138796 -1.5703107 -0.05139387 0.07894663
00000000: 8a20 0e3e f1ff c8bf 6182 52bd c5ae a13d

value_head.weight f4 [1, 16]
-0.0747805 -0.039745137 0.031533893 0.027647007 -0.014629856 -0.044249125 -0.36074066 0.25002313
-0.65959805 0.049674146 0.0532746 0.3600521 0.059686676 0.021034582 -0.019309523 -0.031524375
00000000: 8526 99bd cccb 22bd af29 013d fa7b e23c
00000010: 10b2 6fbc 923e 35bd 00b3 b8be 0803 803e
00000020: 6bdb 28bf 1e77 4b3d 7836 5a3d c058 b83e
00000030: 047a 743d b750 ac3c 012f 9ebc b41f 01bd
