models/LinearModelV0.48.pt (torch, 2399 bytes, 5 tensors)

layer_1.0.weight f4 [2, 4]
0.044823647 0.21031183 0.36594808 0.13714749 -9.34092 -17.57503 0.91514033 -5.6117187
00000000: 0099 373d fc5b 573e 8c5d bb3e 6470 0c3e
00000010: 6974 15c1 a999 8cc1 a346 6a3f 3393 b3c0

layer_1.0.bias f4 [2]
-0.35780585 -10.947368
00000000: 5432 b7be 6b28 2fc1

action_head.weight f4 [4, 2]
0.23458615 3.922709 0.4141634 -82.11006 0.50397944 0.24306393 -0.49942446 -53.912926
00000000: 5a37 703e aa0d 7b40 3a0d d43e 5a38 a4c2
00000010: cc04 013f c0e5 783e 90b4 ffbe d6a6 57c2

action_head.bias f4 [4]
-22.121326 3.6187286 2.9107063 2.8113215
00000000: 7af8 b0c1 4099 6740 0349 3a40 b1ec 3340

value_head.weight f4 [1, 2]
-0.43991548 -0.068034165
00000000: 9a3c e1be 7f55 8bbd
