models/LinearModelV0.29.pt (torch, 5737 bytes, 7 tensors)

conv_layer.0.weight f4 [16, 1, 3]
-0.30320093 -0.1570164 -0.5557815 0.11362699 0.6865713 0.734856 0.6747308 -0.18437356
0.6306341 0.31015423 0.16633664 0.83929 0.5040666 -0.11750035 -0.68017596 -0.15734904
-0.17721675 -0.22148591 0.065136366 0.28876013 0.123999566 0.33009726 0.30211487 0.48841068
0.39967856 0.43790638 0.4603429 -0.09439246 0.29766455 -0.428231 -0.08398934 0.5291794
-0.6940854 0.52779704 0.20769107 0.854918 -0.6268475 0.15051192 0.13194518 0.68625605
0.6138618 0.68231606 -0.01671499 -0.18753941 -0.08192518 -0.9099938 -0.5742844 0.06738265
00000000: 273d 9bbe e8c8 20be b247 0ebf 44b5 e83d
00000010: 23c3 2f3f 861f 3c3f 28bb 2c3f 6ccc 3cbe
00000020: 3d71 213f 89cc 9e3e 2754 2a3e b6db 563f
00000030: 820a 013f 06a4 f0bd 0320 2ebf 1b20 21be
00000040: 4f78 35be 34cd 62be 3766 853d 5ed8 933e
00000050: 7cf3 fd3d 8202 a93e cdae 9a3e f710 fa3e
00000060: aba2 cc3e 4435 e03e 11b2 eb3e d650 c1bd
00000070: 7d67 983e 1841 dbbe 9a02 acbd 4d78 073f
00000080: 95af 31bf b51d 073f f8ac 543e e8db 5a3f
00000090: 1479 20bf cc1f 1a3e a31c 073e 7aae 2f3f
000000a0: 0c26 1d3f 44ac 2e3f e0ed 88bc 550a 40be
000000b0: 64c8 a7bd 5bf5 68bf 4d04 13bf eaff 893d

conv_layer.0.bias f4 [16]
-0.23737419 0.39696115 0.13405943 0.19834608 -0.0066212653 -0.05627513 0.03571526 0.277914
0.027405174 -0.09889291 -0.019254986 -0.10397147 0.028255826 -0.09594765 -0.053756468 -0.3193646
00000000: 3812 73be 7e3e cb3e e046 093e 3c1b 4b3e
00000010: 33f7 d8bb c080 66bd 2a4a 123d be4a 8e3e
00000020: d180 e03c 5e88 cabd a2bc 9dbc feee d4bd
00000030: c378 e73c 3480 c4bd be2f 5cbd c283 a3be

layer_1.1.weight f4 [16, 32]
0.16126676 -0.17595895 -0.12621887 0.27644962 0.14833924 0.45985183 0.00439874 0.7161627
0.22872272 -0.34385827 -0.045865856 -0.23365703 -0.01343281 -0.05512555 -0.22060527 0.23123273
0.0727857 0.20089507 0.20196931 -0.2384287 0.23393221 -0.4365031 -0.0063947896 0.5830602
-0.04004498 -0.068891704 0.24976599 0.53477156 0.09256994 -0.0073798844 -0.29170808 0.09014225
0.49279723 0.021185294 -0.72300774 -0.35833678 -0.22174463 0.04203225 -0.44188812 -0.07439082
-0.07336321 -0.47234562 0.21190003 -0.002357727 -0.13649659 0.06758901 -0.6382729 -0.18766537
-0.11543355 -0.04464027 0.019105196 -0.15747951 0.08624487 -0.38986796 0.017643876 0.10459499
-0.004862527 0.5096107 -0.2926385 -0.07583763 0.14519572 -0.037266314 0.36544365 0.7004363
0.12072403 0.10680036 0.12069805 -0.16467144 -0.14410292 0.0343544 0.037018206 0.1050925
-0.14305985 0.011728754 0.012938125 0.020973613 -0.08589982 -0.040334053 0.0966667 -0.01049053
-0.03567219 0.09357825 0.09324408 -0.1008222 0.11138315 -0.13611461 0.12617308 0.03846956
0.06334855 -0.008668362 -0.07186112 0.19639982 0.10886035 -0.027704265 -0.12757456 -0.21576247
0.047388617 -0.009785119 0.08015673 -0.048075352 -0.32813117 0.19235101 -0.10086346 0.028465556
-0.06895296 -0.050887343 -0.02406091 0.121946596 0.039412163 0.024767432 0.025654247 -0.14049278
-0.041699957 0.037163254 0.05972855 -0.045701712 0.22632742 -0.16602069 -0.044760123 0.2475637
0.04516129 -0.29936075 0.22465101 0.073618814 0.024155224 0.042652827 0.14958896 -0.03604946
0.11844197 0.030077951 -0.005950717 0.24456741 0.079363786 0.12760599 0.026531152 0.28724208
0.03075624 -0.17552096 0.025660485 -0.015455421 -0.012494056 -0.02458096 0.15625995 -0.014478949
-0.029516665 0.19352181 0.19353274 -0.011156909 0.14913854 -0.21303014 0.1252324 0.20671976
0.03507934 -0.13449307 0.25914168 0.24801633 0.043159768 0.11654472 -0.33335006 -0.061415467
-0.010483973 -0.035176083 -0.13737497 -0.1583495 0.13051881 -0.17435107 0.042783327 -0.14216563
0.045577656 -0.0678758 0.062429775 0.17437018 -0.096030265 -0.1358915 -0.12468573 -0.17286198
-0.01010419 -0.1304009 -0.015992347 0.088588074 -0.11564533 0.040451847 0.033593945 -0.02837479
-0.08713457 0.31835312 -0.3012625 -0.15677978 0.11862181 0.10688216 0.25014657 0.33725944
-0.17511685 -0.22706676 0.12106093 0.415554 0.19697109 0.0910359 0.029442148 0.27697584
0.26201978 -0.23690169 0.061967846 -0.08354095 0.032918833 0.14393756 -0.043037415 0.30376688
0.06380881 0.0046708966 -0.14485373 -0.05451722 -0.0697189 -0.019426523 0.049802903 0.2785278
-0.079218835 0.22818337 0.18068135 0.0135714775 0.12783128 -0.0005497332 -0.35723478 -0.00924316
0.030007243 -0.18414123 -0.2357229 0.19748463 0.085179195 0.1156308 0.09451686 0.32221046
0.30285484 -0.2599692 0.20703019 0.052064992 -0.057955794 0.12048429 -0.079902776 0.024244355
-0.3058254 0.14587758 -0.075700894 0.02047223 -0.06906681 -0.10762581 -0.018136919 -0.019216929
-0.3089278 0.44577134 -0.011764422 0.14468591 0.006230865 -0.099691965 -0.119099416 0.10860505
00000000: 1d23 253e 952e 34be 853f 01be ce8a 8d3e
00000010: 3ee6 173e b371 eb3e 4e23 903b 7056 373f
00000020: 4a36 6a3e 310e b0be d6dd 3bbd ca43 6fbe
00000030: 4a15 5cbc 54cb 61bd 59e6 61be 46c8 6c3e
00000040: ab10 953d 70b7 4d3e 0bd1 4e3e a726 74be
00000050: ed8b 6f3e 567d dfbe 628b d1bb 6f43 153f
00000060: 3406 24bd 1817 8dbd a8c2 7f3e cae6 083f
00000070: 4f95 bd3d f5d2 f1bb c35a 95be 809c b83d
00000080: eb4f fc3e c88c ad3c 0917 39bf eb77 b7be
00000090: 0611 63be 022a 2c3d 293f e2be 375a 98bd
000000a0: 733f 96bd 49d7 f1be 52fc 583e 1884 1abb
000000b0: c3c5 0bbe 1b6c 8a3d da65 23bf 5a2b 40be
000000c0: 6d68 ecbd b7d8 36bd 8082 9c3c 4f42 21be
000000d0: 27a1 b03d c69c c7be e489 903c e635 d63d
000000e0: d555 9fbb d975 023f b7d4 95be c250 9bbd
000000f0: 30ae 143e 90a4 18bd 6e1b bb3e cb4f 333f
00000100: 293e f73d 26ba da3d 8a30 f73d a19f 28be
00000110: b78f 13be 33b7 0c3d 67a0 173d bd3a d73d
00000120: 487e 12be f629 403c 6efa 533c dbd0 ab3c
00000130: 3fec afbd 5235 25bd 31f9 c53d 79e0 2bbc
00000140: 011d 12bd f4a5 bf3d c1f6 be3d df7b cebd
00000150: d91c e43d a161 0bbe 8433 013e 4292 1d3d
00000160: e2bc 813d bf05 0ebc ec2b 93bd 091d 493e
00000170: 2df2 de3d 0ef4 e2bc e8a2 02be d6f0 5cbe
00000180: 911a 423d c451 20bc 3629 a43d a9ea 44bd
00000190: cf00 a8be aaf7 443e 8091 cebd 9930 e93c
000001a0: 3637 8dbd 3f6f 50bd 631b c5bc 23bf f93d
000001b0: a66e 213d 12e5 ca3c db28 d23c 57dd 0fbe
000001c0: 93cd 2abd 7f38 183d eda5 743d b831 3bbd
000001d0: 60c2 673e 5401 2abe 6456 37bd 5781 7d3e
000001e0: 0bfb 383d d045 99be ea0a 663e 76c5 963d
000001f0: 2de1 c53c bbb4 2e3d d92d 193e 99a8 13bd
00000200: b491 f23d 0966 f63c 3bfe c2bb e16f 7a3e
00000210: 7b89 a23d 25ab 023e dc57 d93c 6511 933e
00000220: 83f4 fb3c c4bb 33be f035 d23c bc38 7dbc
00000230: deb3 4cbc 025e c9bc 9c02 203e 1d39 6dbc
00000240: efcc f1bc 952a 463e 722d 463e 78cb 36bc
00000250: c6b7 183e 9324 5abe ec3c 003e 58ae 533e
00000260: 5baf 0f3d 8db8 09be 38ae 843e fef7 7d3e
00000270: 4cc8 303d 00af ee3d dcac aabe c98e 7bbd
00000280: f8c4 2bbc cc14 10bd 06ac 0cbe 5f26 22be
00000290: b9a6 053e 1689 32be 923d 2f3d de93 11be
000002a0: a3af 3a3d 7802 8bbd 5db6 7f3d 198e 323e
000002b0: 84ab c4bd 2427 0bbe 3b5b ffbd bb02 31be
000002c0: 0b8c 25bc d087 05be 6202 83bc aa6d b53d
000002d0: 75d7 ecbd d6b0 253d ce99 093d 3f72 e8bc
000002e0: 9c73 b2bd 2eff a23e 143f 9abe e18a 20be
000002f0: feef f23d 09e5 da3d 3613 803e 45ad ac3e
00000300: d551 33be 3084 68be cbee f73d 7ec3 d43e
00000310: cab2 493e 0871 ba3d a930 f13c c7cf 8d3e
00000320: 7527 863e 5b96 72be ffd1 7d3d 8517 abbd
00000330: e6d5 063d 5e64 133e 0048 30bd 5587 9b3e
00000340: 32ae 823d 520e 993b 8954 14be 734d 5fbd
00000350: c8c8 8ebd 5f24 9fbc 21fe 4b3d 329b 8e3e
00000360: 7c3d a2bd e7a8 693e 8804 393e e75a 5e3c
00000370: 34e6 023e f81b 10ba 7ae7 b6be 9f70 17bc
00000380: c0d1 f53c 858f 3cbe 5861 71be 6939 4a3e
00000390: 6e72 ae3d d7cf ec3d 0e92 c13d c5f8 a43e
000003a0: ca0f 9b3e af1a 85be b9ff 533e 1a42 553d
000003b0: 0e63 6dbd 78c0 f63d 11a4 a3bd 199c c63c
000003c0: 2695 9cbe ef60 153e 1209 9bbd 61b5 a73c
000003d0: e672 8dbd ec6a dcbd e093 94bc d26c 9dbc
000003e0: c92b 9ebe 243c e43e 90bf 40bc 8b28 143e
000003f0: 492c cc3b 4d2b ccbd 65ea f3bd 536c de3d

layer_1.1.bias f4 [16]
0.078363694 -0.34466553 -0.007970489 -0.16388948 0.11610999 0.03752371 0.12290968 -0.059629608
-0.06203444 0.15137605 0.09524686 -0.12747486 0.24890804 -0.14544024 -0.21809025 0.020407462
00000000: 257d a03d 0078 b0be a796 02bc a5d2 27be
00000010: 13cb ed3d 76b2 193d 12b8 fb3d 2d3e 74bd
00000020: d317 7ebd 5302 1b3e c910 c33d c588 02be
00000030: c0e1 7e3e 49ee 14be 0d53 5fbe 8d2d a73c

action_head.weight f4 [4, 16]
-0.6917152 -0.1700515 -0.22786397 -0.49628082 -0.45563886 0.3852008 0.24296872 0.43285114
0.36056745 0.51708436 0.5824846 0.7767791 0.45485592 -1.172569 -1.1504036 0.08328312
0.4253271 1.1289614 -0.10738811 0.8146168 -0.29966205 0.5900842 -0.9057109 0.016752072
-0.04250682 -0.7097786 0.0074888337 1.0681869 -2.003913 0.19485383 0.5802131 0.20284835
0.36780328 -0.9404623 0.12344612 -0.22118905 0.51669747 -0.58787274 0.42723998 -0.2826702
0.3464076 0.48707193 -0.52902895 -0.8493338 0.4652981 0.49279326 0.3701086 0.022431847
0.14894825 -0.26638225 0.2929711 0.042136837 -0.025271334 -0.3855129 -0.0023452507 -0.14559846
-0.18820389 -0.16009477 -0.294052 -0.21503139 0.39239997 0.30727878 0.17784548 -0.24840772
00000000: 3f14 31bf fb21 2ebe 2c55 69be 8518 febe
00000010: 7f49 e9be 0a39 c53e cbcc 783e aa9e dd3e
00000020: 4c9c b83e a45f 043f b61d 153f ffda 463f
00000030: e0e2 e83e be16 96bf 6d40 93bf 5790 aa3d
00000040: 79c4 d93e cf81 903f 4cee dbbd ba8a 503f
00000050: 4e6d 99be c20f 173f abdc 67bf a43b 893c
00000060: a21b 2ebd 0db4 35bf e464 f53b 59ba 883f
00000070: 1c40 00c0 c387 473e d988 143f 7ab7 4f3e
00000080: b650 bc3e 23c2 70bf 52d1 fc3d 627f 62be
00000090: 4946 043f d47e 16bf 33bf da3e 26ba 90be
000000a0: 565c b13e 7e61 f93e 716e 07bf f16d 59bf
000000b0: 8d3b ee3e 664f fc3e e07e bd3e fec2 b73c
000000c0: e485 183e 4163 88be 4f00 963e ad97 2c3d
000000d0: d405 cfbc f261 c5be c7b2 19bb c317 15be
000000e0: 85b8 40be e2ef 23be fc8d 96be 3031 5cbe
000000f0: a6e8 c83e a553 9d3e 201d 363e 985e 7ebe

action_head.bias f4 [4]
-0.047355134 -0.58997124 -0.023913136 0.7340653
00000000: 75f7 41bd 5b08 17bf 7be5 c3bc b4eb 3b3f

value_head.weight f4 [1, 16]
0.1863206 0.03496795 -0.018466037 -0.004936685 0.01979629 0.022229983 0.04752905 0.066076055
0.09265994 -0.0059989775 0.046121195 0.02730545 0.03937093 -0.01776993 0.041434214 0.076143004
00000000: d4ca 3e3e 8e3a 0f3d 1646 97bc eac3 a1bb
00000010: d42b a23c a71b b63c d2ad 423d e252 873d
00000020: 7fc4 bd3d 1293 c4bb 94e9 3c3d aeaf df3c
00000030: 6a43 213d 3f92 91bc ecb6 293d ddf0 9b3d
