models/LinearModelV0.3.pt (torch, 5727 bytes, 7 tensors)

conv_layer.0.weight f4 [16, 1, 3]
-0.30005684 0.3510081 -0.5688017 -0.08284914 -0.59973824 -0.15533455 0.72749394 0.1370857
-0.010755814 0.088755906 -0.46105832 -0.77601296 0.554245 0.740024 0.90970343 0.26703683
0.030965269 -0.11022746 0.27672896 -0.07593326 -0.13190071 0.6941058 0.43961558 -0.3991258
0.08615699 -0.3449291 -0.12196996 0.61956453 0.23043884 0.48260048 -0.036823947 -0.17682837
0.30188403 -0.7607591 0.094825074 -0.111895785 -0.8049549 -0.41753215 -0.6766868 -0.6604402
0.19172643 -0.4081077 0.3475578 0.4459137 0.21549608 0.33805686 0.12514266 0.6905363
00000000: 0da1 99be 55b7 b33e fd9c 11bf cfac a9bd
00000010: 7288 19bf 0510 1fbe 0b3d 3a3f 3260 0c3e
00000020: 2739 30bc a8c5 b53d d60f ecbe c9a8 46bf
00000030: 00e3 0d3f 3672 3d3f 53e2 683f 0db9 883e
00000040: e0aa fd3c efbe e1bd 6baf 8d3e e682 9bbd
00000050: fb10 07be ebb0 313f 4b15 e13e 385a ccbe
00000060: 1373 b03d 8c9a b0be 63cb f9bd c89b 1e3f
00000070: 29f8 6b3e 6917 f73e b5d4 16bd 7f12 35be
00000080: 8b90 9a3e 1cc1 42bf a633 c23d 9e29 e5bd
00000090: 8611 4ebf c6c6 d5be 593b 2dbf 9c12 29bf
000000a0: ef53 443e 7ef3 d0be 19f3 b13e cd4e e43e
000000b0: 01ab 5c3e ca15 ad3e 6625 003e fdc6 303f

conv_layer.0.bias f4 [16]
-0.28863126 -0.24511173 0.551105 -0.24402176 0.24267188 0.10333245 -0.09237816 -0.15025504
0.017574336 -0.52352905 -0.43984193 -0.20888129 -0.23753504 -0.16136698 -0.117265835 0.13181749
00000000: 7ac7 93be 92fe 7abe 3815 0d3f d7e0 79be
00000010: fa7e 783e f79f d33d c330 bdbd 75dc 19be
00000020: 0ef8 8f3c 0006 06bf f632 e1be fae4 55be
00000030: 633c 73be 633d 25be 1229 f0bd 2afb 063e

layer_1.1.weight f4 [16, 32]
-0.21393396 -0.2721454 0.109311454 -0.17013447 0.36275783 0.12896009 0.054845616 -0.088826396
0.37037143 0.49584663 0.07332993 -0.0060130185 0.05726459 -0.10984682 0.235776 0.07314596
0.22148071 0.0068211597 0.31950587 0.2667646 -0.13125141 -0.010586929 -0.3728346 -0.035317842
-0.33397147 -0.44745195 -0.14202076 -0.017284209 0.014594769 0.15392534 0.16523258 0.11984346
-0.19061087 -0.0596832 -0.24519789 -0.16678768 0.1492461 -0.020257404 -0.1965779 -0.2620222
0.29023278 0.3855581 -0.0883772 0.03778302 -0.03132781 -0.049499553 -0.01949701 0.20267256
0.003740298 0.03363418 0.026262272 -0.011131723 0.19890255 0.07054926 -0.04207518 -0.17305395
-0.52300566 -0.111558504 -0.36181015 -0.18723464 0.24757628 0.04830328 0.24396025 0.29059237
0.06948659 0.12236491 -0.16839387 -0.17687166 0.04888577 0.2622573 0.00608203 0.18781659
0.094855905 0.08795677 -0.10045465 -0.009233244 -0.17798461 0.050847597 0.11485428 0.3889153
-0.08341395 -0.09531971 -0.009722295 0.092521235 -0.16191575 -0.29028422 -0.18769798 -0.045467645
-0.16410826 -0.06644835 -0.045323618 -0.14129844 0.01845385 0.21595849 0.1357775 -0.11510823
-0.1332602 0.0024944947 -0.2325995 -0.2168384 0.3858962 0.049610876 0.06325654 0.0452701
0.21380363 0.113177955 0.15244949 -0.020523438 0.09055399 -0.14313377 0.092502266 -0.0044853473
-0.032983854 0.009667391 0.2134423 -0.025917398 0.09051021 -0.12661938 -0.4549191 -0.17393875
-0.44785735 -0.016993998 -0.10025517 -0.06564999 0.19844982 -0.12752138 0.23637715 0.35374168
-0.12734991 0.21245907 -0.04596848 -0.22963445 -0.38245174 -0.10206018 0.032004595 -0.06497338
-0.017683346 0.30138078 -0.24277608 0.09134542 -0.2910988 -0.007878518 -0.24667197 0.026095305
-0.18144304 -0.06438055 0.090448275 0.18824068 0.14520231 -0.10022616 0.50008744 0.017929466
0.09441431 -0.115034856 0.28849086 0.086076535 -0.1663756 0.28548318 0.09891235 0.03907041
0.21167985 0.00929332 0.0007589955 0.056307156 -0.098754995 0.018030724 -0.025034811 0.3577151
0.13334838 -0.5251366 -0.09493813 0.13082315 -0.15654354 0.33832785 -0.22621134 0.33915144
-0.26902634 -0.01639941 -0.07745955 -0.10145058 -0.13959114 -0.07372801 0.4013669 -0.0971758
0.15422219 0.09372384 0.3027991 0.03380798 0.035763733 0.022148144 0.0063825333 -0.41904986
-0.06255302 -0.011932596 -0.16517258 0.20769025 -0.04826388 -0.08565296 0.03399439 -0.14273722
0.0021037406 -0.03279598 0.082437694 -0.08990081 -0.11793379 -0.11382942 0.08652085 -0.15896319
0.11127035 0.13246998 -0.096403696 -0.03926605 0.027106032 0.050893553 0.051631648 -0.08916429
-0.04379679 0.27126616 -0.02773055 -0.16903335 -0.0670399 -0.19785687 -0.2221105 -0.092651404
-0.15252717 0.10034327 -0.011590024 -0.070592485 0.24962537 0.076374404 -0.2813661 -0.16055603
0.34349295 0.13848594 0.16395263 0.16950756 0.19973265 0.07552965 0.2231514 -0.061392803
-0.12583894 0.07535196 0.025426531 -0.026787864 -0.13293803 0.044981033 -0.09374042 -0.16239586
-0.27475518 -0.30553022 -0.029981216 -0.07644889 0.007457987 0.10058031 0.39698634 0.0484522
00000000: 8111 5bbe a456 8bbe afde df3d bb37 2ebe
00000010: 65bb b93e 1d0e 043e cca5 603d 9dea b5bd
00000020: 53a1 bd3e 9cdf fd3e 012e 963d db08 c5bb
00000030: 468e 6a3d 5ff7 e0bd 446f 713e 8dcd 953d
00000040: d7cb 623e 0984 df3b 4696 a33e 5f95 883e
00000050: c566 06be cc74 2dbc 2de4 bebe 71a9 10bd
00000060: 4ffe aabe 6c18 e5be e46d 11be 9d97 8dbc
00000070: e61e 6f3c 9b9e 1d3e bb32 293e 7d70 f53d
00000080: 7f2f 43be 5f76 74bd 2815 7bbe 64ca 2abe
00000090: f8d3 183e dbf2 a5bc b84b 49be c627 86be
000000a0: 6499 943e df67 c53e 1bff b4bd 5ec2 1a3d
000000b0: 9751 00bd 0bc0 4abd 32b8 9fbc 6589 4f3e
000000c0: ca1f 753b fec3 093d fa23 d73c d561 36bc
000000d0: 1cad 4b3e 217c 903d 0657 2cbd 0e35 31be
000000e0: b3e3 05bf c978 e4bd 2e3f b9be 70ba 3fbe
000000f0: a384 7d3e a9d9 453d b7d0 793e 86c8 943e
00000100: fc4e 8e3d 749a fa3d 716f 2cbe d81d 35be
00000110: 723c 483d 9746 863e c44b c73b fe52 403e
00000120: d043 c23d ae22 b43d 2bbb cdbd 0847 17bc
00000130: 9941 36be 9245 503d b938 eb3d e81f c73e
00000140: efd4 aabd fb36 c3bd 434a 1fbc c67b bd3d
00000150: 3ecd 25be 22a0 94be e633 40be 483c 3abd
00000160: ff0b 28be 1316 88bd 42a5 39bd 8ab0 10be
00000170: 872c 973c 3924 5d3e 4209 0b3e ddbd ebbd
00000180: 5d75 08be ad7a 233b 902e 6ebe e30a 5ebe
00000190: 3094 c53e c634 4b3d a58c 813d 246d 393d
000001a0: 57ef 5a3e d8c9 e73d b81b 1c3e c520 a8bc
000001b0: 5f74 b93d a991 12be d471 bd3d d2f9 92bb
000001c0: 141a 07bd fa63 1e3c 9e90 5a3e b950 d4bc
000001d0: 6b5d b93d 83a8 01be 28eb e8be 001d 32be
000001e0: 8f4d e5be ff36 8bbc 9552 cdbd 8173 86bd
000001f0: 6e36 4b3e f794 02be da0c 723e a11d b53e
00000200: 0468 02be df8e 593e 7249 3cbd 4b25 6bbe
00000210: b7d0 c3be ed04 d1bd 4017 033d c310 85bd
00000220: aadc 90bc 954e 9a3e 4b9a 78be 4f13 bb3d
00000230: e70a 95be e614 01bc 9497 7cbe d2c5 d53c
00000240: 34cc 39be f3d9 83bd f23c b93d 2ac2 403e
00000250: eaaf 143e 5f43 cdbd bb05 003f d1e0 923c
00000260: 4a5c c13d 6597 ebbd 13b5 933e e548 b03d
00000270: 5e5e 2abe da2a 923e 8f92 ca3d 4b08 203d
00000280: 9ac2 583e 0243 183c 53f7 463a 55a2 663d
00000290: 0f40 cabd 2bb5 933c ce15 cdbc 6f26 b73e
000002a0: 7a8c 083e 5a6f 06bf ec6e c2bd 81f6 053e
000002b0: f34c 20be 4f39 ad3e f2a3 67be 42a5 ad3e
000002c0: d2bd 89be 0e58 86bc 1da3 9ebd 52c5 cfbd
000002d0: fbf0 0ebe b6fe 96bd f67f cd3e 1b04 c7bd
000002e0: 6cec 1d3e 49f2 bf3d 7c08 9b3e 3d7a 0a3d
000002f0: fe7c 123d 0670 b53c 9224 d13b b48d d6be
00000300: cc1b 80bd ef80 43bc 0023 29be c1ac 543e
00000310: 59b0 45bd d26a afbd b43d 0b3d b529 12be
00000320: e9de 093b 1455 06bd 18d5 a83d ea1d b8bd
00000330: 4587 f1bd 661f e9bd d831 b13d 3fc7 22be
00000340: b6e1 e33d 36a6 073e 4d6f c5bd 70d5 20bd
00000350: 780d de3c c275 503d b57b 533d c49b b6bd
00000360: 4364 33bd 66e3 8a3e 2e2b e3bc 1417 2dbe
00000370: 374c 89bd fe9a 4abe ef70 63be 05c0 bdbd
00000380: 1530 1cbe c680 cd3d 16e4 3dbc cb92 90bd
00000390: cb9d 7f3e 2f6a 9c3d 380f 90be cd68 24be
000003a0: 4fde af3e 42cf 0d3e 33e3 273e 6493 2d3e
000003b0: b786 4c3e 4aaf 9a3d cd81 643e 0577 7bbd
000003c0: ecdb 00be 2152 9a3d 4d4b d03c 3972 dbbc
000003d0: e820 08be 083e 383d fafa bfbd 1a4b 26be
000003e0: b6ac 8cbe 756e 9cbe 2b9b f5bc 3c91 9cbd
000003f0: 2162 f43b 0dfd cd3d cb41 cb3e d075 463d

layer_1.1.bias f4 [16]
0.1769012 0.007039429 0.20164926 -0.049534366 -0.25605017 0.010121383 0.17629549 0.0050547444
0.010363884 0.0068314294 -0.044713598 0.16463256 0.005887165 0.08361125 -0.019760165 0.0414286
00000000: 9725 353e 03ab e63b 257d 4e3e 8ce4 4abd
00000010: 0219 83be 28d4 253c ce86 343e 45a2 a53b
00000020: 48cd 293c 2fda df3b 9b25 37bd 7095 283e
00000030: 1fe9 c03b 603c ab3d 12e0 a1bc 09b1 293d

action_head.weight f4 [4, 16]
-0.084377915 -0.1346935 0.19607858 0.2781025 -0.3381588 0.257297 -0.011037647 0.20834601
-0.5040904 -0.2838311 0.068459794 -0.09683497 0.38718477 0.28456312 0.012326297 0.41948596
0.3859665 0.29316902 -0.32672027 0.1865816 -0.117162615 -0.47079712 -0.1321959 0.26262516
0.6736408 0.53162664 0.20590284 0.55222535 -0.4525595 -0.48810303 0.13439983 -0.1517921
-0.21223707 -0.029689267 0.18859382 -0.265943 0.37823668 0.35791254 -0.25324616 0.068738125
-0.43049422 0.03178191 -0.4117187 -0.09657789 0.2467459 0.24918163 -0.07076573 -0.409895
0.1165258 -0.42459396 -0.26903138 0.10539373 0.069430865 0.019422093 -0.15282758 -0.30451587
0.13949643 -0.05584821 0.056052536 -0.11307567 0.031717643 -0.19755945 -0.19529024 -0.1392871
00000000: 54ce acbd 18ed 09be d3c8 483e 7363 8e3e
00000010: 2623 adbe 6fbc 833e 3fd7 34bc a858 553e
00000020: 120c 01bf 4f52 91be a634 8c3d 6a51 c6bd
00000030: 153d c63e 42b2 913e 3df4 493c ddc6 d63e
00000040: 679d c53e 401a 963e e147 a7be 3f0f 3f3e
00000050: f4f2 efbd 520c f1be 5d5e 07be ce76 863e
00000060: b973 2c3f af18 083f 32d8 523e a45e 0d3f
00000070: e1b5 e7be a4e8 f9be 1ca0 093e 636f 1bbe
00000080: ad54 59be e836 f3bc bd1e 413e ae29 88be
00000090: 3da8 c13e 5040 b73e 7ba9 81be 93c6 8c3d
000000a0: bd69 dcbe c02d 023d cbcc d2be a1ca c5bd
000000b0: f5aa 7c3e 7829 7f3e a0ed 90bd c2dd d1be
000000c0: 14a5 ee3d 6164 d9be 7bbe 89be abd8 d73d
000000d0: c531 8e3d 151b 9f3c d57e 1cbe 81e9 9bbe
000000e0: 27d8 0e3e 18c1 64bd 5897 653d 3894 e7bd
000000f0: 5cea 013d 064d 4abe 2afa 47be 47a1 0ebe

action_head.bias f4 [4]
0.4090375 -0.045598485 -0.25744802 0.07595806
00000000: 5d6d d13e 7ac5 3abd 3ad0 83be e68f 9b3d

value_head.weight f4 [1, 16]
0.5465389 0.39665595 0.16890036 0.42447865 -0.077834435 -0.08642359 9.927874e-05 0.3174568
0.14972593 0.285881 0.30143216 0.46436128 -0.10108455 0.035835195 0.17417723 -0.15526354
00000000: f9e9 0b3f 7d16 cb3e 37f4 2c3e 4455 d93e
00000010: a967 9fbd dafe b0bd de33 d038 b389 a23e
00000020: c151 193e ff5e 923e 5155 9a3e c3c0 ed3e
00000030: 6b05 cfbd edc7 123d 845b 323e 68fd 1ebe
