models/LinearModelV0.28.pt (torch, 2399 bytes, 5 tensors)

layer_1.0.weight f4 [2, 4]
0.044823647 0.21031183 0.36594808 0.13714749 -4.3062143 -13.159344 0.8906875 -2.375219
00000000: 0099 373d fc5b 573e 8c5d bb3e 6470 0c3e
00000010: 82cc 89c0 ac8c 52c1 1904 643f 9703 18c0

layer_1.0.bias f4 [2]
-0.35780585 -8.641344
00000000: 5432 b7be f242 0ac1

action_head.weight f4 [4, 2]
0.23458615 3.8640702 0.4141634 -43.65452 0.50397944 0.26652855 -0.49942446 -22.6455
00000000: 5a37 703e ed4c 7740 3a0d d43e 3a9e 2ec2
00000010: cc04 013f 6e76 883e 90b4 ffbe fc29 b5c1

action_head.bias f4 [4]
-16.314827 3.3538942 2.1256125 2.3509548
00000000: c484 82c1 34a6 5640 090a 0840 0b76 1640

value_head.weight f4 [1, 2]
-0.43991548 -0.06698832
00000000: 9a3c e1be 2c31 89bd
