models/LinearModelV0.96.pt (torch, 5609 bytes, 7 tensors)

conv_layer.0.weight f4 [16, 1, 3]
0	0x3ed4cdd7	0.41563293
1	0x3ec206c1	0.37895778
2	0x3eeeae3b	0.46617302
3	0xbddaee29	-0.10689957
4	0xbcee814f	-0.029114394
5	0xbf626cfb	-0.8844754
6	0x3c10d03c	0.008838709
7	0x3d0104c4	0.031498685
8	0x3c265a86	0.010153418
9	0x3f1828c4	0.59437203
10	0x3de37257	0.11105793
11	0x3f4a5ae6	0.7904495
12	0xb865078d	-5.4604887e-05
13	0xbac9ef7e	-0.0015406457
14	0xbb627b3e	-0.0034558321
15	0xbd0bc222	-0.034120686
16	0xbdfede9d	-0.12444804
17	0xbe06b9e1	-0.13156845
18	0xbd28d6a9	-0.04122034
19	0xbe8460e1	-0.25855163
20	0xbd9cead6	-0.07661979
21	0x3cf596bf	0.029979108
22	0xbe4aeed6	-0.19817671
23	0xbe13ec5e	-0.14445636
24	0xbf21137f	-0.62920374
25	0xbe727396	-0.23676905
26	0xbf016ac3	-0.5055353
27	0xbe3f7598	-0.18697202
28	0xbf4b088b	-0.7930991
29	0xbf7f35f1	-0.99691683
30	0xbf47785f	-0.77918047
31	0x3ecbdcad	0.398168
32	0x3f0009ed	0.50015146
33	0x3e19d111	0.15021159
34	0xbe9ed317	-0.31020424
35	0xbe18779f	-0.14889382
36	0x3b642320	0.0034810975
37	0x3bc96e56	0.0061471863
38	0xba6e4637	-0.00090894423
39	0x3a8984e8	0.001049188
40	0x3b42481b	0.002964503
41	0x3b8fbf99	0.004386854
42	0x3a45a6ab	0.0007539789
43	0x3b18f920	0.002334185
44	0xbab032b3	-0.0013442844
45	0x3c2011d6	0.009769877
46	0x3ca2c796	0.01987056
47	0x3bb12d9b	0.005407048

conv_layer.0.bias f4 [16]
0	0x3dfb1349	0.12259538
1	0xbe70485b	-0.23465101
2	0x3b4cfa47	0.0031277107
3	0x3de868e0	0.11348128
4	0xba716073	-0.00092077925
5	0xbd575637	-0.052572455
6	0xbd488f46	-0.04896476
7	0xbd861738	-0.065473974
8	0xbe137810	-0.14401269
9	0xbe8d70ee	-0.2762522
10	0x3dec05b5	0.11524526
11	0xbda608e7	-0.08107167
12	0x39940819	0.00028234793
13	0x3a02e8ab	0.00049937767
14	0xbaaefdb2	-0.0013350754
15	0x3b60e86a	0.0034318217

layer_1.1.weight f4 [16, 32]
0	0xbd161f75	-0.036651094
1	0x3d86e130	0.0658592
2	0xbd87ff85	-0.06640533
3	0x3e7b89f9	0.24564351
4	0xbc9bf001	-0.019035341
5	0xbbd35c37	-0.006450202
6	0xbe36ea44	-0.17862803
7	0xbe90b6a8	-0.28264356
8	0x3d9d3515	0.0767614
9	0xbbbf8d6a	-0.0058457153
10	0x3d6c68a2	0.057716973
11	0x3d85bb0a	0.065298155
12	0xbd184c19	-0.037181947
13	0xbbdffc92	-0.0068355286
14	0xbca0c679	-0.01962589
15	0xbd4fd904	-0.05074407
16	0x3dfcee08	0.12350088
17	0x3cbd7adf	0.023129879
18	0xbe969f15	-0.29418245
19	0x3d0a06ce	0.033697896
20	0x3ec8b304	0.39199078
21	0xbe9a5768	-0.3014481
22	0xbdc55647	-0.09635597
23	0xbd6ed8d9	-0.05831227
24	0xbd8f1213	-0.06985869
25	0x3cb3c7b2	0.021945808
26	0x3db326ed	0.08747659
27	0x3d929408	0.07157141
28	0x3cec35c2	0.028834227
29	0x3cea8e9b	0.028632453
30	0x3c471222	0.012150319
31	0xbd5a210a	-0.053254165
32	0xbe40fcbe	-0.18846413
33	0xbdefa3dd	-0.11701176
34	0x3e4e7683	0.20162396
35	0x3d52b684	0.05144359
36	0x3c96f13e	0.01842558
37	0xbd53996e	-0.051659994
38	0xbe67c874	-0.2263506
39	0xbe64116a	-0.22272268
40	0x3d0ac430	0.033878505
41	0x3d774490	0.06036812
42	0x3e0fd0b6	0.1404446
43	0x3d42a8de	0.047524326
44	0x3bf23f57	0.0073928046
45	0x3dfb8d18	0.12282771
46	0x3d0dd82d	0.03462999
47	0xbc8f8551	-0.017519625
48	0x3e8e584b	0.27801737
49	0x3e9907b9	0.29888704
50	0x3f37c7b7	0.71789116
51	0x3f09f964	0.53896165
52	0xbddaef02	-0.10690118
53	0x3d927a33	0.07152214
54	0x3e882c6e	0.26596397
55	0x3d857b66	0.06517677
56	0x3d394610	0.045232832
57	0x3c47ee6c	0.01220284
58	0x3ce46572	0.027880404
59	0x3d0c4fb1	0.034255687
60	0xbd4734ad	-0.04863422
61	0x3d00f734	0.03148575
62	0xbd8ed75a	-0.06974669
63	0xbd218a1b	-0.03943835
64	0xbdada57c	-0.08478829
65	0x3c4010fd	0.0117228
66	0x3dcb7d88	0.099360526
67	0xbe65babc	-0.22434515
68	0xbd2b86bf	-0.04187655
69	0x3d33be18	0.04388246
70	0x3dfec4dd	0.124398924
71	0x3c3a9bb6	0.011389663
72	0xbccf560d	-0.025309587
73	0xbd9413b6	-0.07230322
74	0xbcef3e24	-0.029204436
75	0xbd893536	-0.06699602
76	0x3ce327e2	0.027728979
77	0x3b1ffecd	0.0024413348
78	0xbd38b97b	-0.045098763
79	0x3dce17f9	0.10063166
80	0xbcca291d	-0.024677807
81	0xbd8f28aa	-0.06990178
82	0xbd31017b	-0.043214303
83	0xbdb4079c	-0.08790514
84	0xbe3bc60d	-0.18337269
85	0x3caf79d4	0.021420397
86	0xbd3b8cef	-0.0457887
87	0xbbcf02da	-0.0063174786
88	0xbaa462d2	-0.0012541658
89	0x3d3243f7	0.043521848
90	0xbcbf0757	-0.02331893
91	0xbd904ddc	-0.070461005
92	0x3c6dabbf	0.0145062795
93	0xbd7a81d5	-0.061158974
94	0xbcafb83b	-0.021450153
95	0x3cb9be72	0.02267382
96	0xbcf5e367	-0.03001566
97	0x3e0efe36	0.13964161
98	0xbeb6113b	-0.3556002
99	0x3dad9743	0.084761165
100	0xbceb3a84	-0.028714426
101	0x3d0debbc	0.034648642
102	0x3eae25ca	0.34013206
103	0xbe6bdcbc	-0.23033422
104	0xbdcfed22	-0.10152651
105	0x3d1e8b7b	0.038707238
106	0xbd896912	-0.06709494
107	0xbd0e5c59	-0.03475604
108	0x3e2853ae	0.16438171
109	0xbe38025d	-0.17969652
110	0xbe1ea0b1	-0.15490986
111	0xbdf6810d	-0.12036333
112	0xbd4e251a	-0.05032835
113	0x3dd15df7	0.102230005
114	0xbeaad135	-0.33362737
115	0xbe8fb0e6	-0.2806465
116	0x3efd26b9	0.49443606
117	0x3e4e8f0e	0.20171759
118	0xbd6ea629	-0.05826393
119	0xbe95eba3	-0.2928134
120	0x3c22d441	0.009938301
121	0x3d5b18a9	0.053490315
122	0xbd8f4ad4	-0.06996694
123	0xbcde481b	-0.027133992
124	0xbdc7d8e5	-0.09758166
125	0x3c9780a6	0.018493962
126	0xbe21cab0	-0.15799975
127	0x3cc71a92	0.024304662
128	0x3d333678	0.043753117
129	0x3b9c98b1	0.0047789444
130	0xbc66cc17	-0.014086745
131	0x3d4224af	0.047398265
132	0xbd280680	-0.041021824
133	0xbd300e03	-0.042982113
134	0xbcc2ca77	-0.023778183
135	0xbd5ba414	-0.053623274
136	0xbb227649	-0.0024789742
137	0xbc05d953	-0.00816949
138	0xbc50a77b	-0.012735243
139	0xbb513a35	-0.0031925563
140	0x3d3b0278	0.04565665
141	0xbd829870	-0.063767314
142	0x3ca15ba0	0.01969701
143	0xbcdb7d27	-0.026793076
144	0x3c866e1a	0.016409922
145	0x3d199403	0.03749467
146	0xbce6350a	-0.028101463
147	0x3cf7bae0	0.030240476
148	0x3d891a6f	0.06694495
149	0xbcad741d	-0.021173531
150	0x3d24bef3	0.040221166
151	0x3d22a3c8	0.039706975
152	0xbc77f155	-0.015133222
153	0xbc8c81e7	-0.017151786
154	0xbc2b73f9	-0.010464662
155	0xbbde8715	-0.0067910054
156	0xbc9d99de	-0.019238409
157	0xbbaf1c9b	-0.005343986
158	0xbd91d180	-0.07120037
159	0xbbea6da0	-0.0071541816
160	0xbd94e0e4	-0.07269457
161	0x3c880700	0.0166049
162	0x3e038ca3	0.12846617
163	0x3d31cf30	0.04341048
164	0x3d246589	0.040135894
165	0x3d45134e	0.048114114
166	0xbe81e785	-0.25371948
167	0xbe0b19e8	-0.13584101
168	0xbd3e5f2a	-0.046477474
169	0x39b5ba45	0.00034661792
170	0xbdbaacfb	-0.09115025
171	0x3c98ffae	0.018676605
172	0x3da3a4d2	0.07990421
173	0xbd3aeeb1	-0.04563779
174	0x3e052931	0.13003995
175	0xbdab81fd	-0.08374403
176	0x3dc7382e	0.09727512
177	0x3d95d208	0.07315451
178	0x3d71964c	0.058981225
179	0x3e75e738	0.24013984
180	0x3e052cd0	0.13005376
181	0xbdf9ba9a	-0.121937945
182	0x3ceb12f2	0.028695557
183	0xbb837120	-0.0040112883
184	0x3d8658de	0.06559919
185	0x3bd42e73	0.0064752637
186	0xbcecaac3	-0.02889002
187	0x3d76002b	0.060058754
188	0xbd4a711b	-0.049424272
189	0x3d9a1d10	0.075250745
190	0xbd7153bd	-0.05891775
191	0x3de32fd9	0.110931106
192	0xbead20ce	-0.3381409
193	0xbec5caa6	-0.3863117
194	0x3dae10ee	0.08499323
195	0x3f358616	0.70907724
196	0xbe1cb5a1	-0.15303661
197	0x3c75e1e6	0.015007472
198	0xbf007380	-0.5017624
199	0xbf11dd45	-0.56978256
200	0x3cca037b	0.024659863
201	0xbd773ef8	-0.060362786
202	0xbb1f75a5	-0.0024331596
203	0xbd70f1a3	-0.058824193
204	0x3d8467bc	0.06465098
205	0x3cb5246f	0.0221121
206	0xbd390795	-0.045173246
207	0x3d238202	0.039918907
208	0x3f282b18	0.65690756
209	0x3ee4b78b	0.44671282
210	0x3edf7c71	0.4364963
211	0x3f6af70e	0.91783226
212	0x3ebea44a	0.37234718
213	0xbec8cb3f	-0.39217564
214	0xbda28291	-0.0793506
215	0x3d722ddc	0.059125766
216	0xbdc1f7b7	-0.09471076
217	0x3d156de7	0.036481764
218	0xbd0be876	-0.03415724
219	0x3bee2648	0.007267747
220	0x3d178663	0.036993396
221	0xbccce3c4	-0.02501095
222	0xbdf6a3a3	-0.1204293
223	0x3cfbc2db	0.030732563
224	0x3dd60396	0.10449903
225	0x3deb1893	0.114792965
226	0xbe147249	-0.14496721
227	0xbf053261	-0.5203
228	0xbb83a19c	-0.004017068
229	0x3d8eb4a6	0.0696805
230	0x3eeaa562	0.45829302
231	0x3ec73e3e	0.38914675
232	0xbe5f55cc	-0.21810073
233	0xbc3a4a5f	-0.0113702705
234	0x3dacf678	0.08445448
235	0x3dbd794d	0.09251652
236	0xbdb94d08	-0.09047896
237	0x3d8200c5	0.06347803
238	0x3dff2ff6	0.1246032
239	0x3d5fc03e	0.054626696
240	0xbec1c302	-0.37844092
241	0xbe5aae3a	-0.21355525
242	0xbdb0df02	-0.08636285
243	0xbef5fdec	-0.4804529
244	0xbec54218	-0.38526988
245	0x3ed8be66	0.42332762
246	0x3ddbfc28	0.10741454
247	0xbe219fa1	-0.1578355
248	0x3c01e185	0.007927303
249	0x3dae9904	0.08525279
250	0xbd96f686	-0.07371239
251	0xbdb753b5	-0.08951513
252	0xbb8404d3	-0.0040288954
253	0xbd836ec0	-0.06417608
254	0xbcf4eaed	-0.029897178
255	0xbb55a15e	-0.0032597403

layer_1.1.bias f4 [16]
0	0x3d478616	0.04871186
1	0x3e005f43	0.1253634
2	0x3d59632c	0.053073093
3	0xbcbf09a9	-0.023320036
4	0xbd25d256	-0.040483795
5	0x3daf56a1	0.08561445
6	0x3d868a1e	0.065693125
7	0x3d0633ab	0.03276412
8	0xbeb3531d	-0.35024348
9	0xbeec1809	-0.46112087
10	0xbeb9297e	-0.3616447
11	0x3e601639	0.21883477
12	0x3d832cd8	0.06405038
13	0xbd1627e3	-0.036659133
14	0x3ba7c923	0.005120413
15	0x3e74302b	0.238465

action_head.weight f4 [4, 16]
0	0xbd057dbb	-0.03259061
1	0x3f1d97f8	0.6156001
2	0xbd23ad78	-0.039960355
3	0xbdfc39f2	-0.1231574
4	0xbd151586	-0.03639748
5	0x3e462cc6	0.19353017
6	0x3f88f313	1.069918
7	0xbe8c6807	-0.27423117
8	0xbe579560	-0.21053076
9	0xbe6804ae	-0.22658035
10	0xbf80925a	-1.0044663
11	0xbe813fcd	-0.2524399
12	0xbee5d477	-0.4488866
13	0x3d2a8a85	0.04163601
14	0x3d9196c5	0.07108835
15	0x3f5f5410	0.87237644
16	0xbecae66e	-0.3962893
17	0xbda3c73a	-0.07996984
18	0xbd405b52	-0.04696209
19	0xbe13d513	-0.1443675
20	0x3d9b4500	0.0758152
21	0xbeb9b2d4	-0.36269248
22	0xbe7f5597	-0.24934994
23	0x3e850b78	0.25985312
24	0x3e3567a5	0.17715319
25	0x3f9516c0	1.1647568
26	0x3f4be0d9	0.79639965
27	0xbe6b125a	-0.2295622
28	0x3d53ec22	0.051738866
29	0x3e2f277a	0.17104903
30	0xbea3c0df	-0.31983086
31	0xbf1c8254	-0.61136365
32	0xbdbdef4a	-0.092741564
33	0x3da1514c	0.07876834
34	0x3dfb2bf4	0.12264243
35	0xbf137cde	-0.5761241
36	0xbdcd7ec1	-0.10033942
37	0x3e07e54a	0.1327106
38	0xbf06c3d0	-0.52642536
39	0x3ed68a23	0.41902265
40	0xbeac364e	-0.3363518
41	0xbe428418	-0.18995702
42	0x3f08c856	0.5343069
43	0x3ede3e45	0.43406883
44	0x3eabf92a	0.33588535
45	0xbd10bdd2	-0.035337277
46	0xbe2429b0	-0.16031528
47	0xbf1d7810	-0.61511326
48	0x3f1968eb	0.5992572
49	0xbf2fc7ae	-0.6866406
50	0xbe1aec48	-0.15129197
51	0x3f188c48	0.5958905
52	0x3d26c32a	0.040713467
53	0x3d911b40	0.07085276
54	0xbeaf4bdf	-0.34237573
55	0x3b1c5c8f	0.002385888
56	0x3d89b6a8	0.06724292
57	0xbe8083c8	-0.2510054
58	0x3e6d5a18	0.231789
59	0x3e5e3177	0.21698557
60	0xbdcf37bd	-0.10118053
61	0x3c719c50	0.01474674
62	0x3d981589	0.074259825
63	0xbe71e1f4	-0.2362135

action_head.bias f4 [4]
0	0x3e0cdecd	0.13756867
1	0xbfcd9bf7	-1.6063222
2	0x3c262993	0.010141748
3	0x3dc0bba8	0.094107926

value_head.weight f4 [1, 16]
0	0xbd835a26	-0.06413679
1	0xbcadb30c	-0.02120354
2	0x3cc60b30	0.024175256
3	0xbc4d8f02	-0.012546303
4	0xbc2c62dc	-0.010521617
5	0xbc834355	-0.016023317
6	0xbebd754d	-0.37003556
7	0x3e6b9dd8	0.23009431
8	0xbf33c86d	-0.702277
9	0x3cbc099b	0.022953799
10	0x3d577226	0.052599095
11	0x3eb5987e	0.35467905
12	0x3d701e35	0.058622558
13	0x3b68af0f	0.0035504734
14	0xbca0b3ec	-0.019617043
15	0xbd0f0b6d	-0.034923006
