models/LinearModelV0.76.pt (torch, 5609 bytes, 7 tensors)

conv_layer.0.weight f4 [16, 1, 3]
000000 3b ad d7 3e 87 a1 bc 3e aa 18 e6 3e c7 0a c9 bd
       0.42124352 0.36841986 0.44940692 -0.09816509
000010 ec fd 3a bc bd 49 57 bf 8c ba bc 3c ea ea c5 3d
       -0.011413079 -0.8409689 0.023038171 0.09663947
000020 7b 91 91 3d f5 94 14 3f c0 dc cf 3d 84 da 3e 3f
       0.07107826 0.5803979 0.101495266 0.7455218
000030 33 7a ec bb f8 66 ba bc 99 52 ea bc 11 1c 1d bd
       -0.0072167157 -0.022754177 -0.028603839 -0.038356844
000040 90 e8 41 be e9 22 5d be c3 ab 4d bd 10 03 a5 be
       -0.18936372 -0.21595348 -0.050212633 -0.322289
000050 85 43 e5 bd 6c cc 48 3d 1e 69 6f be a3 e7 3a be
       -0.11194519 0.049023077 -0.23379943 -0.18252425
000060 57 38 1d bf a9 a5 6d be 47 33 f0 be e6 a6 3e be
       -0.6141409 -0.23207726 -0.46914122 -0.18618354
000070 d8 c5 42 bf 46 cc 74 bf 2f bd 41 bf 66 d0 b9 3e
       -0.76083136 -0.95624197 -0.75679296 0.36291808
000080 e5 8c f7 3e 1d de 29 3e 6d ef a0 be 13 53 27 be
       0.48349681 0.16588636 -0.31432667 -0.16340284
000090 7f 0d df 3c ce cc 1d 3d 78 a6 92 3c bc 2c 7e 3b
       0.027228115 0.038525395 0.017901644 0.0038783988
0000a0 7d 2a e3 3c e2 4c e5 3c a0 fa 39 3b 01 01 2a 39
       0.02773022 0.027990762 0.0028378144 0.00016212837
0000b0 35 82 bb bc d6 e8 25 3d b4 ee 98 3d 0e 1e da 3c
       -0.022889236 0.040505253 0.07467404 0.02662566

conv_layer.0.bias f4 [16]
000000 41 8a f3 3d 02 ff 78 be 79 8a 17 3d b0 fb e1 3d
       0.11891604 -0.24316028 0.036997292 0.11034334
000010 a5 8a 3e bc 0f c2 b3 bd 38 3c a6 bd 24 78 a6 bd
       -0.011629735 -0.08777248 -0.081169546 -0.08128384
000020 87 49 12 be 96 f7 8c be b1 8c b4 3d 8c 09 8a bd
       -0.14285861 -0.27532643 0.08815897 -0.06740102
000030 17 90 5d 3c a8 82 93 3c b5 06 0a bc b6 c1 df 3c
       0.013523123 0.018006638 -0.008424451 0.027314048

layer_1.1.weight f4 [16, 32]
000000 d5 bf 1e bb 60 d6 d0 3d 2f 97 63 bd 2d 68 8a 3e
       -0.0024223228 0.10197139 -0.0555641 0.27032605
000010 a0 98 eb 3c 08 f6 83 bc f5 44 31 be 8a 2a 94 be
       0.0287593 -0.016108528 -0.17311461 -0.28938705
000020 a6 eb ac 3d 87 54 fc 3b a5 04 5d 3c 9a cb df 3d
       0.08443384 0.007700506 0.013489877 0.10927506
000030 24 b5 e6 bd 69 2a 8a bc a8 c8 97 bd cc 2c 36 bd
       -0.112650186 -0.016865926 -0.07411319 -0.044476315
000040 03 00 d0 3d d2 32 06 bc ac ad af be 61 0f 06 3d
       0.10156252 -0.008190827 -0.3431219 0.03272951
000050 0e c4 c5 3e 48 7d c5 be 85 f0 13 be 1e df 6b bd
       0.3862614 -0.38572145 -0.1444722 -0.057585828
000060 f1 57 da bd 1a 35 4e 3d 49 ee 1f 3e c5 a7 cc 3d
       -0.10661305 0.05034361 0.15618242 0.09992937
000070 86 7a 23 3d d3 a1 69 3d 03 a7 7d 3d ff 75 67 bd
       0.03991177 0.057039093 0.061926853 -0.056509014
000080 ca 52 62 be a5 7e ea bd 3e f6 38 3e 3a d0 52 3d
       -0.22101894 -0.11449937 0.18062684 0.05146811
000090 b4 4e 1f bd 34 a8 87 bd a1 9a 72 be 26 54 65 be
       -0.038893417 -0.06623879 -0.23691799 -0.22395381
0000a0 39 5b c7 3d ce 1b 98 3d 2b 0e 5d 3e 71 12 8c 3d
       0.09734196 0.07427178 0.21587436 0.06839455
0000b0 dc d8 33 3d 71 34 1a 3e d8 43 0d 3d 7e e0 2a bc
       0.043907985 0.15059067 0.03448853 -0.0104295
0000c0 a3 c5 9e 3e 8b 9b a3 3e 24 c5 37 3f e1 f9 08 3f
       0.3101016 0.31954607 0.7178519 0.53506285
0000d0 fc 1b ab bd 9f 59 b0 3d 08 6a 93 3e 5a a5 9a 3d
       -0.08354947 0.08610844 0.28791833 0.075510696
0000e0 cb 1d 3e 3d bd 29 2d 3c 61 3b 08 3d d7 b0 9d 3d
       0.04641513 0.010569033 0.033259753 0.07699745
0000f0 d2 c0 b1 bd fa fd 29 3d 38 9e 30 be c6 66 ca bd
       -0.08679356 0.041501977 -0.17247856 -0.09882884
000100 87 60 e4 bd 7c bf 52 bc 59 ac 03 3e 48 93 85 be
       -0.11151224 -0.012863036 0.12858714 -0.2608893
000110 af d6 ba bd 61 ed 83 3d 9b 87 1d 3e 1e 43 1a bc
       -0.09122979 0.06441761 0.1538376 -0.009415416
000120 85 a8 eb bc 3c 96 f6 bd ff 52 3d ba d8 5a e6 bd
       -0.02876688 -0.12040374 -0.0007222145 -0.11247796
000130 13 35 a5 3d 45 2e bd 3c e9 14 2a bc 02 e1 1c 3e
       0.08066764 0.023093352 -0.010380962 0.15320209
000140 46 3d 1b bd 85 bd 58 bd 0d f0 76 bc 13 0c b0 bd
       -0.03790023 -0.052915115 -0.015071881 -0.08596053
000150 2c 8f 6f be 9f 9d 66 3d 27 84 27 bc ba cb a7 bb
       -0.2339446 0.056302663 -0.010224379 -0.0051207216
000160 01 6c b6 3a 06 cc a6 3d 4c 4e 6a bd 48 d4 e5 bd
       0.0013917686 0.08144383 -0.057203576 -0.1122213
000170 4b 1b 09 3d c3 9d 01 be 60 f9 2f bd bf 1e dd 3c
       0.033473294 -0.12657838 -0.042962432 0.0269922
000180 f7 2b 8e bb 87 4f 2d 3e 1d fa ab be 45 05 85 3d
       -0.004338737 0.16924869 -0.3358926 0.06495146
000190 e2 11 69 3c 48 a0 59 3d d5 41 bd 3e 4b ed 59 be
       0.014225455 0.05313137 0.36964288 -0.21281926
0001a0 9d ef 3a be 7f 41 a2 3d af 9e 0d be ed 94 38 bd
       -0.18255468 0.07922649 -0.13830064 -0.0450639
0001b0 af f7 25 3e 4d f0 55 be f9 82 66 be f0 c6 13 be
       0.16207765 -0.20892449 -0.225109 -0.14431357
0001c0 74 c8 ad bd be a2 90 3d 36 8f af be 11 02 8d be
       -0.08485499 0.070622906 -0.3428895 -0.2754064
0001d0 c4 be f7 3e be ec 27 3e 52 36 ad bd dd 20 a5 be
       0.4838773 0.16398904 -0.084576264 -0.32251635
0001e0 5b b5 26 3b 9f fa d9 3d d4 e6 c9 bd 92 98 d7 bc
       0.0025437686 0.10643505 -0.0985848 -0.026317868
0001f0 81 cc 3a be c9 7a 86 3d ca df 5a be c6 6e 40 3d
       -0.18242075 0.06566388 -0.21374431 0.04698064
000200 84 46 9b 3d cc 63 04 3d de 02 41 bd 0d a0 8d 3d
       0.07581809 0.032321736 -0.047121875 0.06915293
000210 64 fe 3c bd 0c 44 a8 bd f7 f4 a8 bc bd 50 86 bd
       -0.046141043 -0.08216104 -0.02062462 -0.06558368
000220 f1 e3 67 bc 22 1c 03 bc 72 0f a7 bd e4 19 a0 bc
       -0.014153467 -0.008002313 -0.08157243 -0.019543596
000230 82 86 34 3d 19 20 f9 bd 72 f7 36 bc 7d 79 8d bd
       0.04407359 -0.12164325 -0.011167394 -0.06907938
000240 bf f2 a5 3c b7 e6 e2 3c a9 9d b8 bd 48 24 b2 3c
       0.020257352 0.027697904 -0.09014446 0.021745816
000250 32 f3 d7 3d 9f 4d 3a bd 41 ac 98 3c 0b b1 3c 3d
       0.10544433 -0.04548418 0.018636825 0.04606728
000260 c8 1b 21 bd 6e 85 10 bd ba fe 7d bc 4f d9 19 bc
       -0.039333135 -0.0352835 -0.015502626 -0.009390189
000270 8b c2 87 bd 21 5f e6 3b 3a 23 25 be 59 e7 44 3b
       -0.06628903 0.007030383 -0.16126719 0.003004512
000280 7f 1e ca bd ba 0e 8a 3c 89 61 57 3e 13 89 24 3d
       -0.09869098 0.016852725 0.210333 0.040169787
000290 0c a7 83 3d 73 9b 9f 3d a8 5e a5 be 07 b3 0b be
       0.06428346 0.077933215 -0.3229878 -0.13642512
0002a0 d5 0a b5 bd 93 93 2f 39 9a 67 0a be ab 73 95 3d
       -0.08839957 0.00016744276 -0.13516083 0.072974525
0002b0 34 7b af 3d 72 39 7b bc 44 1a 37 3e ba 76 8b bd
       0.08568421 -0.01533352 0.17881113 -0.06809755
0002c0 6b 90 00 3e ef c9 89 3d c4 8c 92 3d 3d 9c 95 3e
       0.12555091 0.06727969 0.07155755 0.29220763
0002d0 0f 4d 0b 3e f8 d2 61 be e2 73 99 3c 28 27 ac 3d
       0.13603614 -0.22053134 0.018732015 0.08405906
0002e0 b5 87 17 3e ee 3b 23 3c 95 01 93 bd 30 68 c8 3d
       0.14797862 0.009963019 -0.07178036 0.09785497
0002f0 46 0d dc bd 30 9b 1a 3e 7c ff d7 bd 1d ae 5e 3e
       -0.10744719 0.15098262 -0.10546777 0.21746106
000300 90 49 ae be 9b 7a c5 be 4c 21 9e 3d 2c d0 34 3f
       -0.340405 -0.38570103 0.077211946 0.70630145
000310 d0 9c 2e be a2 b2 0e 3a 9e c1 f6 be 2a 9c 0f bf
       -0.17052007 0.00054434885 -0.48194593 -0.5609766
000320 62 11 a8 3c 6c 87 96 bd 9b a0 a6 bb 54 83 d1 bc
       0.020516101 -0.073500484 -0.0050850636 -0.025575317
000330 3b 57 53 3d 5e 7b 53 3d eb fa 86 bd 7e 56 c5 3d
       0.05159686 0.051631324 -0.065908276 0.09635638
000340 21 d3 26 3f 2c d3 e2 3e 6a 57 d9 3e 22 4e 64 3f
       0.6516591 0.44301736 0.42449504 0.8918172
000350 ab 60 b6 3e c2 fa c3 be e7 87 bc bd b5 53 9d 3d
       0.35620627 -0.3827725 -0.09205609 0.076819815
000360 7a 9c 09 be 58 05 42 3d 77 62 54 bd 0b aa 27 bc
       -0.13438597 0.047368377 -0.051851716 -0.0102334125
000370 b3 0c 30 3d fa 2a ec bc d9 10 1d be 2c 1f c9 3c
       0.04298086 -0.028829087 -0.15338458 0.024550997
000380 48 d6 d3 3d c0 6f e3 3d 81 55 1d be 34 f3 06 bf
       0.10343605 0.11105299 -0.15364648 -0.5271485
000390 ec 2f d4 bc bd 33 d2 3d 52 3d e9 3e 10 3b c6 3e
       -0.025901757 0.102637745 0.45554596 0.38716936
0003a0 d0 97 87 be c9 13 b4 bc 6a e7 e4 3d c3 fe 86 3d
       -0.2648301 -0.02198209 0.11176951 0.06591561
0003b0 15 ae 8e bd 4c 45 38 3d b3 cb 26 3e 48 79 91 3b
       -0.06966797 0.04498796 0.16288643 0.0044395067
0003c0 a3 74 c1 be d0 32 56 be b8 4e 95 bd 13 f7 ee be
       -0.377843 -0.20917821 -0.07290405 -0.46672878
0003d0 72 19 bf be d9 79 e0 3e 1f c2 06 3e 17 de 4f be
       -0.373241 0.43842962 0.13159989 -0.20299564
0003e0 fb d2 3e 3c 7d 50 e8 3d 13 f6 c4 bd 63 2b cb bd
       0.011646981 0.11343477 -0.096172474 -0.09920385
0003f0 53 43 ac bb 83 ed b4 bd 22 34 30 bd 7c 74 b0 bb
       -0.005257049 -0.08834364 -0.043018468 -0.00538498

layer_1.1.bias f4 [16]
000000 25 64 11 3d 35 79 0a 3e a3 2f 82 3d 96 d2 2d bc
       0.035495896 0.135228 0.06356742 -0.01060929
000010 d8 d4 59 bd 92 0e ee 3d 99 a0 8d 3d 23 22 cd 3c
       -0.0531815 0.11623873 0.06915397 0.025040692
000020 82 86 bb be dc 41 e7 be cb e7 c2 be 28 15 62 3e
       -0.3662606 -0.45167434 -0.3806747 0.22078383
000030 2e eb 65 3d 1f 64 ae bd 54 b8 91 3c 85 67 86 3e
       0.056132488 -0.0851519 0.01778809 0.26250854

action_head.weight f4 [4, 16]
000000 0b 30 ce bc 88 47 17 3f ab 45 d9 bc 97 c9 dd bd
       -0.025169393 0.59093523 -0.026522478 -0.10829466
000010 c5 00 89 bd 15 92 76 3e 94 fd 85 3f ef 7d 98 be
       -0.066896 0.24079163 1.0468011 -0.2978358
000020 f4 be 30 be 7e 24 6e be f6 22 7c bf 7e e6 8a be
       -0.17260343 -0.23256108 -0.98490846 -0.27128977
000030 1d 4a 02 bf 74 ee 97 3d 80 cc c3 3d 40 83 5c 3f
       -0.5089434 0.07418528 0.0956049 0.8613777
000040 38 6d d5 be b5 c9 97 bd 84 8c 18 bd c3 cf 18 be
       -0.4168489 -0.074115194 -0.03724338 -0.14923005
000050 2f 3d 98 3d 60 ae cc be 75 50 6e be 93 40 9a 3e
       0.07433545 -0.39976788 -0.2327288 0.3012739
000060 a5 20 54 3e ad 6c 95 3f 9e 3a 4e 3f 0d f1 83 be
       0.20715578 1.167379 0.8055819 -0.25769845
000070 aa 52 4c 3d 46 b8 39 3e 38 b5 c5 be 5a bd 27 bf
       0.049883522 0.18136701 -0.3861482 -0.655233
000080 ce b8 c4 bd c1 a7 59 3d 93 b5 1c 3e 0a 8f 0d bf
       -0.09605561 0.0531385 0.1530364 -0.55296385
000090 d7 50 13 be 47 2f fb 3d d6 01 0a bf 88 42 eb 3e
       -0.14386307 0.12264877 -0.5390905 0.45949197
0000a0 63 99 bc be d8 7b 37 be 7a 84 05 3f 9e fb ed 3e
       -0.36835775 -0.17918336 0.5215527 0.4648103
0000b0 54 01 b2 3e f5 03 4a bd bf 9c 58 be 0a 12 1f bf
       0.34766638 -0.04932018 -0.21153544 -0.621369
0000c0 44 5e 1a 3f 67 0e 28 bf dc e6 46 be 3a c3 10 3f
       0.6030009 -0.65646976 -0.19424003 0.5654789
0000d0 20 6e b4 3d 73 51 78 3d b3 68 a1 be f7 85 93 3c
       0.08810067 0.06062455 -0.31525192 0.018008215
0000e0 c2 0b 55 3d 34 e8 64 be 85 5e 87 3e 2c e3 59 3e
       0.052013166 -0.22354203 0.264393 0.21278065
0000f0 8e d8 a3 bd db a4 c1 3c f8 42 b7 3d 8a 9f 8d be
       -0.08000289 0.02363818 0.0894832 -0.2766078

action_head.bias f4 [4]
000000 e2 dc 17 3e 9b f5 c7 bf 71 da 4f bd 15 a0 aa 3d
       0.14830354 -1.5621828 -0.05074543 0.083313145

value_head.weight f4 [1, 16]
000000 bb 1b 95 bd b3 1e 23 bd 7b af 16 3d 32 66 8e 3c
       -0.0728068 -0.0398242 0.036788445 0.017382715
000010 9a 13 8f bc 51 d8 15 bd 88 66 c3 be 62 6c 8b 3e
       -0.017465401 -0.03658325 -0.38164163 0.27231127
000020 b4 ca 32 bf 0b 7d 06 3d 41 63 64 3d 1c dc cc 3e
       -0.6984055 0.032834094 0.05575872 0.4001168
000030 f2 2f 97 3d 86 a2 86 3c 85 1e a9 bc fa f4 11 bd
       0.07382192 0.01643492 -0.020644436 -0.03563402
