models/LinearModelV0.4.pt (torch, 5599 bytes, 7 tensors)

conv_layer.0.weight f4 [16, 1, 3]
0	0x3ed17ecd	0.40917054
1	0x3efb2977	0.49055073
2	0x3e71bd7e	0.23607442
3	0xbed2070f	-0.4102101
4	0x3dec76e8	0.11546117
5	0xbf371048	-0.7150922
6	0xbeee3523	-0.46524915
7	0xbe1f8e4a	-0.15581623
8	0x3e6532cc	0.22382659
9	0x3f1749c3	0.59096926
10	0x3d80f9b6	0.062976286
11	0x3f160a33	0.5860931
12	0x3e589221	0.21149494
13	0x3eb68ccb	0.35654292
14	0x3e231974	0.15927678
15	0xbe002c0c	-0.12516803
16	0x3e832b1e	0.25618833
17	0x3e8f3e13	0.27977046
18	0x3f0b1ddb	0.5434243
19	0xbee8ad6e	-0.45444816
20	0xbde85925	-0.11345128
21	0xbcebf49a	-0.028803159
22	0xbe7a97b8	-0.24471939
23	0xbef15b88	-0.47140145
24	0xbeee6c04	-0.46566784
25	0xbeeb9076	-0.46008652
26	0xbe61fae3	-0.22068362
27	0xbdff36ba	-0.1246161
28	0xbf24a9f6	-0.6432184
29	0xbf373245	-0.7156108
30	0xbf0d4d2e	-0.5519589
31	0xbd9b5c4f	-0.07585966
32	0x3efc50e6	0.4928047
33	0x3f26be7b	0.651344
34	0xbe9ea429	-0.3098462
35	0x3da69e4b	0.08135661
36	0xbe9c8012	-0.3056646
37	0xbe26faf5	-0.1630667
38	0xbdc33500	-0.09531593
39	0x3d2af5b6	0.041738234
40	0x3f18403b	0.5947301
41	0x3e84b0a1	0.25916007
42	0xbe420a88	-0.1894933
43	0x3f208ba6	0.62713087
44	0x3e52d772	0.20589998
45	0xbe15d4c1	-0.1463194
46	0x3e83afea	0.2572015
47	0xbdb7e781	-0.08979703

conv_layer.0.bias f4 [16]
0	0xbea196a3	-0.3156024
1	0xbe8f86b7	-0.28032467
2	0xbec54c02	-0.38534552
3	0xbda0db87	-0.078543715
4	0xbe9925b6	-0.29911584
5	0x3e884488	0.26614785
6	0x3ece9ed2	0.40355545
7	0x3ddf9f27	0.10919028
8	0xbcc39cb2	-0.02387843
9	0xbe5e11f1	-0.21686532
10	0xbe52f1b4	-0.20600015
11	0xbe65c345	-0.2243777
12	0xbe5d6c9b	-0.21623461
13	0x3d8031c7	0.06259494
14	0x3e1978e2	0.1498752
15	0xbda7afe8	-0.08187848

layer_1.1.weight f4 [16, 32]
0	0xbe15854c	-0.1460163
1	0x3e0da8c1	0.13833906
2	0x3e51974d	0.20467873
3	0x3e11fb3f	0.14255999
4	0x3e3ebca8	0.18626654
5	0xbcfe6431	-0.031053634
6	0xbe90c7c8	-0.2827742
7	0xbe796d97	-0.24358211
8	0xbcabe91a	-0.020985175
9	0x3c9ba37e	0.018998858
10	0xbd698962	-0.057015784
11	0x3da162a6	0.07880144
12	0xbe7238f6	-0.23654541
13	0xbc801b19	-0.015637921
14	0x3d487b46	0.048945688
15	0x3d0e555f	0.034749385
16	0x3e75a59a	0.23988953
17	0x3d2ad336	0.041705333
18	0xbc38a511	-0.011269824
19	0x3cdbc696	0.026828092
20	0x3e4afd36	0.19823155
21	0xbe5dbdb3	-0.21654396
22	0xbe6bacea	-0.2301518
23	0xbdb48f50	-0.08816397
24	0x3a876108	0.00103286
25	0x3dc3d15e	0.09561418
26	0x3e015722	0.12630895
27	0x3d99500a	0.07485969
28	0xbbb22ef2	-0.005437725
29	0x3dd963cd	0.106147386
30	0x3b97e4dd	0.004635437
31	0x3d7540b3	0.059876155
32	0xbcda77e7	-0.026668502
33	0xbda8a1bb	-0.08233973
34	0xbdbaa4af	-0.09113442
35	0x3e2652a8	0.16242468
36	0xbd900bf5	-0.070335306
37	0xbbcd56c1	-0.0062664454
38	0x3e130697	0.14357983
39	0xbe4ca32c	-0.1998412
40	0xbaa412b2	-0.0012517779
41	0xbe147db4	-0.14501077
42	0x3b05db74	0.0020424994
43	0x3dbc1f61	0.091856726
44	0x3e16aa1c	0.14713329
45	0x3d30f7a4	0.04320492
46	0xbcf2e89d	-0.029651934
47	0x3dfb7eb5	0.12280027
48	0x3d93d52c	0.07218394
49	0x3ecd3aea	0.4008401
50	0x3ed96ab8	0.42464232
51	0x3ea1833c	0.31545436
52	0xbd95c1bb	-0.07312342
53	0x3e374a64	0.17899472
54	0x3ea740ac	0.32666528
55	0xbe2b4dfd	-0.16728969
56	0x3dda14cb	0.10648497
57	0x3ea2fcdb	0.31833538
58	0xbeac5770	-0.3366046
59	0xbddc5f3b	-0.10760351
60	0xbee2e43f	-0.44314763
61	0x3e0371b7	0.12836348
62	0xbeb8d3c6	-0.3609907
63	0xbd733e8a	-0.059385814
64	0xbe24deb0	-0.16100574
65	0x3e20795b	0.15671293
66	0x3c2cb5b9	0.010541373
67	0xbe858924	-0.26081192
68	0xbe561390	-0.209059
69	0xbcd65e4b	-0.02616801
70	0x3e5af29d	0.21381612
71	0x3c827779	0.01592611
72	0x3ca987b3	0.02069459
73	0x3d613423	0.054981362
74	0xbe15b602	-0.14620212
75	0x3df04ab9	0.11733002
76	0x3e37d1e6	0.17951164
77	0xbe13d666	-0.14437255
78	0xbdef10df	-0.1167314
79	0xbe0c9a59	-0.13730754
80	0xbabf38ec	-0.0014589108
81	0xbe7d44ef	-0.24733327
82	0xbe5dceee	-0.21660969
83	0xbe71a385	-0.23597534
84	0x3d821b90	0.063529134
85	0x3e12965e	0.14315173
86	0xbcb2499d	-0.021763617
87	0x3d568c30	0.052379787
88	0xbd9c7b0e	-0.07640658
89	0x3da42ad6	0.08015983
90	0xbdaa08f2	-0.083024874
91	0x3e3e788b	0.18600671
92	0xbdb78f8c	-0.08962926
93	0xbd281513	-0.041035723
94	0xbdc6e4c6	-0.09711604
95	0x3df9a220	0.12189126
96	0x3c3a4ad1	0.011370377
97	0x3e2311cd	0.15924759
98	0x3d48c71a	0.049018003
99	0xbe93e504	-0.28885663
100	0xbe14f9de	-0.14548442
101	0x3d9996aa	0.0749944
102	0x3e765328	0.24055159
103	0x3d856c02	0.065147415
104	0xbe49f44f	-0.19722103
105	0x3df81647	0.12113624
106	0x3de43f48	0.111448824
107	0xbcdb79f2	-0.026791546
108	0x3e798ed1	0.24370886
109	0x3d506977	0.05088183
110	0xbe05ffa6	-0.13085803
111	0xbe3c0b84	-0.18363768
112	0xbe3e4213	-0.18579893
113	0xbd5b968c	-0.05361037
114	0x3d12f53f	0.035878416
115	0xbe591de9	-0.21202816
116	0xbc1aca20	-0.009447604
117	0x3becc6d6	0.0072258515
118	0x3dc368a4	0.09541443
119	0xbe0dd63a	-0.13851252
120	0xbdf1a3c7	-0.11798816
121	0x3e20c478	0.15699947
122	0xbca48541	-0.020083072
123	0xbd0eacc4	-0.03483273
124	0xbe1cfb2c	-0.1533019
125	0xbd08df54	-0.033416107
126	0xbda55320	-0.080724955
127	0xbd014921	-0.03156388
128	0x3e08ca6f	0.13358472
129	0xbc0c9d60	-0.008582443
130	0xbda98be3	-0.082786344
131	0x3c23dfd8	0.010002099
132	0xbd430fd5	-0.04762252
133	0xbd4d299d	-0.050088514
134	0x3d19326a	0.037401594
135	0xbd47aec5	-0.048750658
136	0x3c9bed6f	0.019034116
137	0xbdc1189c	-0.09428522
138	0x3d5cfdca	0.05395297
139	0xbe0ddfd4	-0.13854915
140	0x3d04b727	0.03240123
141	0xbe1f9ea4	-0.1558786
142	0xbe48ef41	-0.19622518
143	0xbe4d43b1	-0.20045353
144	0xbccdcad4	-0.02512113
145	0x3b3749f2	0.0027967659
146	0xbd696bcc	-0.05698757
147	0xbda18eee	-0.0788859
148	0xbd452ee3	-0.048140418
149	0xbcb2a012	-0.021804843
150	0x3e360f61	0.17779304
151	0x3d6f8d1a	0.058484174
152	0xbdb895a8	-0.0901292
153	0x3d9b5b04	0.07585719
154	0x3db6e3a9	0.089301415
155	0x3aad0cc0	0.0013202652
156	0xbdf3ecb7	-0.11910384
157	0xbc30de37	-0.010795168
158	0xbddf97c5	-0.109176196
159	0x3d6ba6b7	0.05753204
160	0xbd9b05f7	-0.07569497
161	0x3cc8fc06	0.024534237
162	0x3e35c30b	0.17750184
163	0xbbbd96ea	-0.0057858126
164	0x3e37ea5e	0.17960498
165	0x3e3ae873	0.18252735
166	0xbe8ae9a4	-0.2713138
167	0xbe3eae5d	-0.18621202
168	0xbe294cb1	-0.16533162
169	0xbe2dbb17	-0.169659
170	0x3dbb4e7a	0.091458276
171	0x3cb6f404	0.022333153
172	0x3d79ea32	0.06101436
173	0x3d859730	0.06522977
174	0x3dca3216	0.098728344
175	0x3db03b32	0.086050406
176	0x3e00d49d	0.12581106
177	0x3e205b70	0.1565988
178	0x3b878b69	0.004136492
179	0x3e5eaf98	0.21746671
180	0x3d0d0334	0.034426883
181	0xbe3d8b01	-0.18510057
182	0x3cc394aa	0.0238746
183	0x3d3b4746	0.04572227
184	0x3b3f14e2	0.0029156734
185	0xbd9d2b59	-0.076742835
186	0xbe47a682	-0.19497111
187	0xbcd4c220	-0.025971472
188	0x3cc44115	0.023956815
189	0xbe3b9711	-0.18319346
190	0x3d8e1d5d	0.06939194
191	0xbdedfe73	-0.11620798
192	0xbe1c9119	-0.15289725
193	0xbe0696ed	-0.13143511
194	0xbd5c60e7	-0.05380335
195	0x3ec681f4	0.3877102
196	0xbdd5b386	-0.10434632
197	0x3ba94465	0.005165624
198	0xbdc1c1d6	-0.094607994
199	0xbe3af111	-0.18256022
200	0xbe085fda	-0.13317814
201	0xbe22303b	-0.15838711
202	0xbe2c4d70	-0.16826415
203	0xbe539cc8	-0.20665276
204	0x3b1d6780	0.002401799
205	0xbd69133e	-0.056903116
206	0xbd9e547f	-0.0773096
207	0x3e2fc566	0.17165145
208	0x3ea98418	0.33108592
209	0x3e0a4ed2	0.1350663
210	0x3e8886bc	0.26665294
211	0x3e709660	0.23494864
212	0x3de3a3fc	0.11115262
213	0xbd70de1f	-0.05880558
214	0xbdd63540	-0.104593754
215	0xbd94ed23	-0.07271793
216	0xbce403ca	-0.027833838
217	0x3e6f3052	0.23358276
218	0xbe9380f7	-0.2880933
219	0xbdc1308a	-0.09433086
220	0xbcfaca4e	-0.030614045
221	0xbd8764d7	-0.066110305
222	0xbe7ef1b5	-0.24896891
223	0x3e41f0e3	0.18939547
224	0x3e371904	0.17880636
225	0x3e00e909	0.12588896
226	0xbe37d00e	-0.1795046
227	0xbe9c4876	-0.30524033
228	0xbe12c7d6	-0.14334044
229	0x3e103749	0.1408359
230	0x3eafc7ac	0.34332025
231	0x3e945dec	0.28977907
232	0xbe11b37c	-0.14228624
233	0x3daaaf2a	0.08334191
234	0x3dd75f43	0.105162166
235	0x3e59f99e	0.21286628
236	0xbd3aaa98	-0.045572847
237	0x3d5c378f	0.053763922
238	0x3db68cff	0.089136116
239	0xbe23cd55	-0.15996297
240	0xbe9b0de8	-0.30284047
241	0xbe86e880	-0.26349258
242	0xbe30b2da	-0.17255726
243	0xbe0a6cd6	-0.1351808
244	0xbe0dbfca	-0.13842693
245	0x3d584016	0.052795492
246	0x3e6c9ced	0.23106737
247	0xbd8144bf	-0.063119404
248	0xbdba6ac5	-0.09102396
249	0x3e037137	0.12836157
250	0x3d6be848	0.057594568
251	0x3ce536d0	0.027980238
252	0xb7bc7c40	-2.2469205e-05
253	0xbd89459f	-0.06702732
254	0xbdde3102	-0.10849191
255	0xbd98e694	-0.07465854

layer_1.1.bias f4 [16]
0	0xbd5b8fd0	-0.053603947
1	0x3e0be6a2	0.13662198
2	0x3c364789	0.011125454
3	0x3d161755	0.036643345
4	0x3e06eeb2	0.13176993
5	0x3d8aa750	0.067701936
6	0x3daabe30	0.08337057
7	0xbdbee44d	-0.09320889
8	0xbe0f5db8	-0.14000595
9	0xbd8699c0	-0.06572294
10	0xbe1daaf0	-0.15397239
11	0x3dd2f0b0	0.10299814
12	0x3dbdbf76	0.09265034
13	0xbe3d6531	-0.18495633
14	0xbcde0235	-0.027100662
15	0x3dadbbe7	0.08483105

action_head.weight f4 [4, 16]
0	0x3d5aacc4	0.05338742
1	0x3ea3a5d8	0.31962466
2	0x3bd7d8f1	0.0065871407
3	0x3d9cb79b	0.076522075
4	0xbd957662	-0.0729797
5	0x3e1767d6	0.14785704
6	0x3eb23877	0.34808704
7	0xbd3ececd	-0.04658394
8	0xbe2127a9	-0.15737785
9	0xbe3c9de5	-0.18419607
10	0xbf022122	-0.50831807
11	0xbb6c5ffc	-0.0036067953
12	0xbef9e7b1	-0.4880958
13	0x3d84e71f	0.06489395
14	0xbe1909d3	-0.14945154
15	0x3efd7db1	0.49509957
16	0xbea2063f	-0.3164539
17	0x3de49bd5	0.11162535
18	0xbe872ac9	-0.2639983
19	0x3e2c8bb2	0.16850165
20	0xbd7d522e	-0.06184595
21	0x3e585c7b	0.21129028
22	0xbe1cbdf4	-0.15306836
23	0x3e8fc13f	0.28077123
24	0x3cf32f96	0.029685777
25	0xbe091c37	-0.1338967
26	0x3e8f232f	0.2795653
27	0x3c87155a	0.016489673
28	0xbdf29616	-0.11845033
29	0x3e69fe0e	0.2285082
30	0xbf28738d	-0.65801316
31	0xbead83bc	-0.33889568
32	0x3ee5e872	0.44903904
33	0xbec1596a	-0.3776353
34	0xbd541cca	-0.051785268
35	0xbe12ea31	-0.1434715
36	0xbe6242fb	-0.22095864
37	0x3e0dab84	0.1383496
38	0xbe4e997b	-0.20175736
39	0xbded58ac	-0.115891784
40	0x3e63ccfd	0.22246166
41	0x3da684f8	0.081308305
42	0x3f0639b9	0.5243183
43	0x3cea97e2	0.028636876
44	0x3e134b26	0.14384136
45	0xbe330802	-0.17483523
46	0x3dc3b433	0.09555855
47	0xbf0e8439	-0.55670506
48	0x3e0e2ccb	0.13884275
49	0xbe1a66b8	-0.15078247
50	0x3da39ff0	0.0798949
51	0xbc4175c1	-0.01180786
52	0x3e687fe1	0.22705032
53	0xbe1816c6	-0.14852437
54	0xbdc95d59	-0.09832258
55	0x3ea460b3	0.32105026
56	0xbec79365	-0.3897964
57	0x3e008e26	0.12554225
58	0x3cea6397	0.028611941
59	0x3e985c03	0.297577
60	0x3e6dcd2d	0.232228
61	0x3e124bc0	0.14286709
62	0x3d05c292	0.03265626
63	0xbe5968b9	-0.21231355

action_head.bias f4 [4]
0	0xbd98fbc0	-0.074698925
1	0xbeaf0649	-0.34184483
2	0x3d3e21f1	0.046419088
3	0xbe436a01	-0.19083406

value_head.weight f4 [1, 16]
0	0xbe0167a9	-0.126372
1	0xbb3d7d0f	-0.0028913652
2	0x3da37f6e	0.0798329
3	0x3dc986ee	0.09840189
4	0x3ceca9c3	0.028889542
5	0xbd0032e1	-0.031298522
6	0xbe17b9b1	-0.1481693
7	0x3e4860e6	0.19568214
8	0xbe9ecd71	-0.31016114
9	0x3c3a74f3	0.011380422
10	0xbd244224	-0.04010214
11	0x3e7db984	0.247778
12	0x3c241054	0.010013659
13	0x3d131457	0.03590807
14	0x393c44a0	0.00017954642
15	0x3d2ca571	0.042149965
