models/LinearModelV0.33.pt (torch, 5737 bytes, 7 tensors)

conv_layer.0.weight f4 [16, 1, 3]
00000000: 5ed5 8bbe 582f 31be 65bf 10bf 0f8e ba3d
00000010: cdd7 2e3f 0f0c 433f a4bb 2e3f 9466 1abe
00000020: 2ec2 233f 1c70 9f3e 61d0 363e ae3e 5b3f
00000030: 26a6 003f db85 d4bd 8ee6 2dbf 13c5 f1bd
00000040: c046 22be 3311 5abe 23f1 1a3d fa5d 6a3e
00000050: 439d f43d 0350 943e 13dd 9f3e f942 023f
00000060: ae4e b63e 9630 de3e ac3f ee3e 2889 cebd
00000070: f129 883e 98aa d1be fc3b c3bd 8a60 023f
00000080: bfc2 2dbf 6cd2 053f 604d 5c3e 3806 5d3f
00000090: ddd5 20bf a600 ec3d 1d43 0b3e abf6 2a3f
000000a0: dd6f 1f3f b879 343f 8cac 093c 0b15 08be
000000b0: 1a34 afbd 5790 65bf 5a2c 17bf 4220 5c3d
-0.27311224 -0.17303216 -0.56542045 0.09109127 0.68298036 0.76190275 0.68255067 -0.15078193
0.6396817 0.3114022 0.17852928 0.85642517 0.5025352 -0.103770934 -0.67929924 -0.11805167
-0.15847301 -0.21295623 0.037827622 0.22887412 0.11944058 0.28967294 0.31223354 0.5088344
0.35606903 0.43396443 0.46532953 -0.10084754 0.265945 -0.40950465 -0.095329255 0.50928557
-0.67875284 0.52274203 0.21513891 0.86337614 -0.6282633 0.11523561 0.1359982 0.66782635
0.62280065 0.7049823 0.008402955 -0.13289277 -0.085548595 -0.8967337 -0.5905205 0.0537417

conv_layer.0.bias f4 [16]
00000000: 1b85 54be 347b bc3e c2b9 fc3d b41e 3f3e
00000010: e1c3 e0bc 8575 38bd c2e7 e03c 0405 743e
00000020: f9f7 c63c b851 b5bd 1976 dcbc 0b23 c7bd
00000030: 47fb 1a3d cd99 c2bd a6fc 0abd 5a0a 93be
-0.207539 0.36812747 0.12340118 0.18664056 -0.027437152 -0.04503395 0.02745426 0.23830038
0.024288164 -0.08853477 -0.026911782 -0.09723481 0.037837293 -0.095019914 -0.03393235 -0.28718835

layer_1.1.weight f4 [16, 32]
00000000: d456 163e 6c40 3cbe bcfe f8bd e3a8 953e
00000010: 1292 233e bd1e f03e f150 623c ab34 3c3f
00000020: eb99 7b3e 9f9b b0be 454b 7ebd 3074 6abe
00000030: edd9 f7b9 3660 48bd cec3 4bbe 511f 753e
00000040: 4d1f b23d c178 5c3e b9c4 4b3e 57ce 6dbe
00000050: 511b 6e3e 5a7b dfbe f014 ed3b 4d2c 1b3f
00000060: 9af7 6bbd 9643 87bd ebcc 873e 7488 0e3f
00000070: 9eec 983d 9108 0dbb 7a48 9ebe 8b47 b03d
00000080: a389 e83e 7c72 803c 28c7 36bf d85c adbe
00000090: 2091 30be 8f00 343d bc6c d9be 50a5 66bd
000000a0: 19d9 a9bc 2499 ecbe b6a7 273e bc71 0cbb
000000b0: c59f eebd 97c0 7e3d de54 15bf 8c86 31be
000000c0: 00ed bdbd 0f6a 3dbd c500 e13c f67e 21be
000000d0: ee04 bf3d 5351 c8be b906 d13c e5d0 d13d
000000e0: 3314 81bd e5f5 f63e a1ea 86be ee2e aabd
000000f0: 9718 ed3d 0798 fcbc bf62 9e3e 27aa 333f
00000100: 6ca7 043e 406b f93d 811c b43d b871 2ebe
00000110: ac35 11be 589b 483b b053 dc3c 4577 8c3d
00000120: ce29 1bbe 11a4 783b 4799 393d 06e6 073d
00000130: c249 cdbd 5227 29bd b89b 823d 41a5 0fbd
00000140: 0ae8 62bd 5862 a23d 7714 993d cd43 b2bd
00000150: 8f25 a53d 0d0f f8bd 93ae f23d 80c4 cb3c
00000160: 6397 8d3d 4cf9 a43c 03e9 b2bd 17dd 3a3e
00000170: c6b1 f33d fd9b 47bc e9d3 c7bd 0a52 3cbe
00000180: f6b2 2c3d 33eb 963b cf75 873d f8c6 6dbd
00000190: b51b 99be 34a3 293e a96e c0bd 56f3 b23b
000001a0: 98f9 84bd e0da 2dbd ede0 d9bb c812 f63d
000001b0: 5bfb ac3c 143a 983c c4f7 d83c bdef 0fbe
000001c0: 07cb 38bd 8fe8 e03c 1241 3c3d 0f54 1ebd
000001d0: 10e6 523e cda7 1bbe 8090 20bd 34fa 673e
000001e0: 70ac 113d eb7d 85be 5841 5c3e 10f3 853d
000001f0: 9fc1 ee3c 153e 303d 8cc4 163e 535f eebc
00000200: 91f1 f33d e3f4 343d d0b7 07bc 70f9 693e
00000210: 5576 923d c6d1 ef3d 0fc3 c63c 171a 863e
00000220: 6f06 b93c 00dc 21be d5e4 e13c 1353 9aba
00000230: 14f6 67bc 8f95 dbbc e5be 1a3e 294d dfbc
00000240: c70b f6bc 750a 3f3e 66d4 413e 24cf 9db9
00000250: 0fdb 153e 2324 49be a6a9 023e 36c2 4d3e
00000260: a72c 303d f2fb 0dbe ec60 843e 14f2 7d3e
00000270: 88a5 283d f61a f03d 2529 a2be 9445 82bd
00000280: c991 cdbc e612 5abd efdc 01be 26db 10be
00000290: 5c9e 193e 4077 18be 9030 1e3d 6899 e4bd
000002a0: ae10 a83d 42ce 92bd 897d f83c b692 1e3e
000002b0: 3b42 9fbd ced3 08be bafc c4bd 6d8f 16be
000002c0: fbe7 8f3b e807 07be ea50 82bb 73ff 8f3d
000002d0: 0f65 b2bd a8bc a03c ed09 cc3c d4d2 11bd
000002e0: 428a f5bd 362d 993e 3ef0 91be 521e 31be
000002f0: 5488 c43d d79a c23d 5930 4c3e 412c aa3e
00000300: 7600 2dbe d24e 61be 1357 e83d 1ffa d03e
00000310: 6e7c 443e 975d bf3d 0ad4 a93c b72e 8c3e
00000320: 0811 8d3e df61 6abe 07d6 6a3d d90b 92bd
00000330: b279 143d ede5 0c3e 2985 28bd e691 963e
00000340: 050a 813d 8932 b43a 4490 0bbe 5e1b 56bd
00000350: cad3 73bd 2f0a b8bc daa1 3f3d 0df8 8d3e
00000360: dd14 b3bd ed8a 613e c10d 373e 8a58 523c
00000370: f53c f43d f721 fe3b f2ee b9be 6ddc 87bb
00000380: 2e40 bd3c 31ef 32be 4da4 68be cfd9 443e
00000390: 3b01 b43d d76e e53d 0490 bc3d 0630 9d3e
000003a0: 2595 a53e 7346 71be 73cf 363e e026 6b3d
000003b0: 8eee 26bd 0a46 ec3d 052a 85bd ec42 b23c
000003c0: 2794 93be a9c5 0c3e 2943 85bd fd0d e33c
000003d0: 328b 5ebd ac80 c8bd 005d 91bc ec69 ecbc
000003e0: be49 a3be 5c50 d83e c940 8fbb f357 083e
000003f0: b338 24bc 471a b9bd a377 13be fd9e d13d
0.1468156 -0.1838395 -0.12157962 0.29230413 0.1597369 0.4689845 0.013813243 0.73517865
0.24570434 -0.3449373 -0.0620835 -0.22895885 -0.0004727388 -0.04891988 -0.19898912 0.23937728
0.086973764 0.21530439 0.19899262 -0.23223244 0.23252608 -0.43648797 0.007235162 0.6061447
-0.057609178 -0.06604688 0.26523528 0.5567696 0.07467006 -0.0021519999 -0.3091467 0.08607396
0.45417508 0.01567959 -0.7139764 -0.33859897 -0.17242861 0.043945845 -0.4246577 -0.056309998
-0.020733403 -0.46210587 0.1637257 -0.0021430096 -0.11651567 0.062195387 -0.5833262 -0.17336482
-0.0927372 -0.046243723 0.027466187 -0.15771088 0.09327112 -0.39124545 0.0255159 0.102449216
-0.06302681 0.48234478 -0.26350883 -0.083097324 0.11576956 -0.030834211 0.30934712 0.70181507
0.12954491 0.121786594 0.08794499 -0.17035568 -0.1418063 0.003061017 0.026895374 0.06858686
-0.15152666 0.0037939588 0.045312192 0.03317835 -0.10023834 -0.041297264 0.06377357 -0.035069708
-0.05539707 0.07928914 0.074746065 -0.08704338 0.08063804 -0.12112246 0.11849704 0.024873972
0.0691364 0.020138405 -0.0873585 0.18248402 0.11899142 -0.012183187 -0.097572155 -0.1839067
0.042162858 0.0046056747 0.06614267 -0.05805108 -0.2990395 0.16566163 -0.09396107 0.005461137
-0.06492919 -0.042445064 -0.0066491277 0.12015301 0.02111595 0.018582381 0.026485331 -0.14056297
-0.045115497 0.027454643 0.045960493 -0.038654383 0.20595574 -0.1520073 -0.039200306 0.22654039
0.03556484 -0.2607263 0.21509302 0.06540501 0.02914506 0.043027956 0.14723414 -0.029098189
0.119113095 0.044178855 -0.00828357 0.22849059 0.07151476 0.11709933 0.024262933 0.2619178
0.022586076 -0.1580658 0.027574936 -0.0011774026 -0.014157791 -0.026804714 0.15111883 -0.027258473
-0.030034913 0.18656333 0.1892868 -0.00030099705 0.14634345 -0.19642691 0.12760028 0.20093617
0.043011334 -0.13865641 0.25855196 0.24799377 0.041173488 0.117238924 -0.31672016 -0.06360927
-0.02509393 -0.05324068 -0.12681936 -0.14146098 0.15001816 -0.1488924 0.03862053 -0.111620724
0.082063064 -0.07168247 0.030333297 0.15485653 -0.07776304 -0.13362047 -0.09618516 -0.1470315
0.004391668 -0.1318661 -0.003976931 0.07031145 -0.08710682 0.019621208 0.024907077 -0.035601452
-0.11989261 0.29917306 -0.28503603 -0.17296723 0.09596315 0.095021896 0.19940318 0.33236888
-0.16894707 -0.22002724 0.11344733 0.40815827 0.19188091 0.09344023 0.02073099 0.2737939
0.27552056 -0.22888897 0.05733302 -0.07131166 0.03624887 0.13759585 -0.041142616 0.29408187
0.06300739 0.0013747971 -0.13629252 -0.052272193 -0.05952815 -0.022465793 0.046785213 0.2772831
-0.08744214 0.22025652 0.1787634 0.012838492 0.11925689 0.007755514 -0.36315113 -0.00414615
0.023101892 -0.17474057 -0.22718926 0.19223712 0.08789297 0.11202782 0.09207156 0.307007
0.3234035 -0.2356203 0.17852573 0.05741012 -0.040754847 0.115367964 -0.06502155 0.021760426
-0.2882397 0.13747276 -0.065069504 0.027716631 -0.054331966 -0.09790167 -0.017744541 -0.028859101
-0.31892198 0.4224881 -0.0043717367 0.133148 -0.010023284 -0.09038215 -0.14401107 0.10235403

layer_1.1.bias f4 [16]
00000000: 4e53 933d 0119 adbe 1b58 b6bc 2d1c 2bbe
00000010: 1efc d03d cc15 873d 4556 f63d ff79 5bbd
00000020: 1fbc 44bd 1cd4 3d3e e5f6 de3d d1b0 d0bd
00000030: 487a 743e 6c56 32be 506d 70be ccb4 ce3c
0.071936235 -0.3380814 -0.022258809 -0.16709967 0.102043375 0.06595954 0.12028173 -0.05358314
-0.04803097 0.18537945 0.10886935 -0.10189975 0.23874772 -0.1741578 -0.234792 0.025232695

action_head.weight f4 [4, 16]
00000000: 4fca 30bf bdce 04be 1b4c 58be 4c26 fcbe
00000010: 33c9 ebbe 959d d23e 728d 763e 1348 ea3e
00000020: c478 bf3e 0353 043f 376c 1e3f 9160 573f
00000030: b5e7 d93e 1ebf 9dbf 64d8 97bf 0c66 cd3d
00000040: 2f24 d53e e518 963f 3ab2 d9bd bd67 483f
00000050: 6a9a 9cbe 157c 1b3f 191f 6abf b3be d73c
00000060: 17d9 11bd ef4f 33bf c650 bc3c 9dee 8f3f
00000070: 0274 06c0 0cf2 123e 6880 0e3f f20a 553e
00000080: d99b ba3e 8cbd 7bbf 8da2 f13d b2d2 70be
00000090: 6b37 033f 51fa 17bf da68 e33e 42f2 99be
000000a0: 866b a53e 4dbc 013f 4b90 0bbf 36e0 62bf
000000b0: be68 013f 71e7 fd3e 81d9 b73e b136 373c
000000c0: 5ffe 1d3e b9cc 94be 4c0d 913e 4f37 933d
000000d0: 56bf 2dbc 6f05 d5be 849c 0bbc e1ad 21be
000000e0: 7fe7 48be cd61 41be 0161 a2be 4f7e 94be
000000f0: ed90 d83e 02fd c93e 192c 6d3e c370 83be
-0.690587 -0.1296949 -0.21122782 -0.49247968 -0.4605194 0.4113585 0.24077395 0.45758113
0.37396824 0.51689166 0.6188387 0.84131724 0.4255959 -1.2323949 -1.1862912 0.100292295
0.41629168 1.1726347 -0.10629697 0.7828329 -0.3058656 0.6073621 -0.914537 0.02633605
-0.035607424 -0.70043844 0.022987735 1.1244694 -2.1008306 0.14350146 0.5566468 0.20804957
0.36447027 -0.983361 0.11798582 -0.23517874 0.51256436 -0.5936633 0.44415933 -0.3006764
0.32308596 0.5067795 -0.5451705 -0.8862337 0.5055045 0.49590638 0.3590813 0.011182473
0.15429066 -0.2906244 0.28330457 0.07188284 -0.0106047 -0.41605708 -0.008521203 -0.15788986
-0.19619559 -0.18884964 -0.31714633 -0.29002616 0.4229807 0.39450842 0.23161353 -0.25671968

action_head.bias f4 [4]
00000000: e1e8 90bc c5a8 19bf af73 033d 0753 2c3f
-0.01768917 -0.60023147 0.032092746 0.6731419

value_head.weight f4 [1, 16]
00000000: 59c2 423e a339 a03b fd1d 90bb b443 12bc
00000010: 44e6 393d 828d 52bb 5c06 7b3d 5420 383d
00000020: 6164 c93d ccdf 6c3c ac88 a43c abb5 98bb
00000030: ef2e 333d 80c1 a1b9 686d 323d 859d 9b3d
0.1901945 0.0048896833 -0.004398106 -0.0089272745 0.045385614 -0.0032127802 0.06128536 0.044952706
0.09833599 0.014457654 0.020084701 -0.0046603284 0.04374593 -0.00030852482 0.04356137 0.07598404
