models/LinearModelV0.46.pt (torch, 2399 bytes, 5 tensors)

layer_1.0.weight f4 [2, 4]
000000 00 99 37 3d fc 5b 57 3e 8c 5d bb 3e 64 70 0c 3e
       0.044823647 0.21031183 0.36594808 0.13714749
000010 64 65 b7 c0 ed a3 8e c1 26 09 15 3f 98 7e 7b c0
       -5.731127 -17.830042 0.58217084 -3.9296017

layer_1.0.bias f4 [2]
000000 54 32 b7 be a6 3b 38 c1
       -0.35780585 -11.514563

action_head.weight f4 [4, 2]
000000 5a 37 70 3e 25 ca 80 40 3a 0d d4 3e 31 20 9d c2
       0.23458615 4.024676 0.4141634 -78.562874
000010 cc 04 01 3f 23 61 0d 3e 90 b4 ff be 92 20 3a c2
       0.50397944 0.13806586 -0.49942446 -46.531807

action_head.bias f4 [4]
000000 0f 9b af c1 70 9f 82 40 71 17 1a 40 dd 4d 23 40
       -21.950712 4.0819626 2.4076807 2.5516274

value_head.weight f4 [1, 2]
000000 9a 3c e1 be 0b 2e 92 bd
       -0.43991548 -0.07137688
