models/LinearModelV0.64.pt (torch, 5609 bytes, 7 tensors)

conv_layer.0.weight f4 [16, 1, 3]
000000 90 13 ca 3e eb fc c4 3e 52 82 e8 3e ec e3 97 bd
       0.3946805 0.3847421 0.45411927 -0.074165195
000010 a4 bc 90 bb 79 3b 51 bf ce 58 26 bc eb 2f 06 3e
       -0.004417019 -0.81731373 -0.010153009 0.13104217
000020 f3 99 f0 3d b9 fd 0b 3f 33 24 d5 3d cc 47 3b 3f
       0.117481135 0.54684025 0.10407295 0.7315643
000030 9d da f1 39 0a a6 60 bc bc 3b 8b bd 18 c8 48 bc
       0.00046129982 -0.013711462 -0.06798503 -0.012254737
000040 73 23 5f be d3 f6 88 be b5 e5 32 bc 8a 53 d1 be
       -0.21790867 -0.26750812 -0.010919024 -0.40884048
000050 38 31 e4 bd f4 d7 a6 3d 10 fc 89 be a5 3f 44 be
       -0.111422 0.081466585 -0.2695012 -0.19164903
000060 28 2d 14 bf 6f 43 76 be 18 c5 ef be 64 84 1c be
       -0.578814 -0.24049161 -0.46830058 -0.15284878
000070 46 bf 44 bf cb d0 6e bf eb 9e 3c bf b9 bc b8 3e
       -0.7685436 -0.9328734 -0.7367999 0.36081484
000080 bd 6f e8 3e 97 c4 45 3e f9 21 b0 be 03 a0 1e be
       0.4539775 0.19313274 -0.3440092 -0.15490727
000090 43 64 87 3c ed 19 aa 3d 09 97 0e 3d 59 55 83 bc
       0.0165273 0.08305726 0.034812007 -0.016031908
0000a0 9f 65 2c 3d 6c 48 48 3d 47 2f ad bc 75 20 1a 3d
       0.0420891 0.048897192 -0.021140708 0.03762861
0000b0 d5 5e 89 bd 45 88 04 3d d6 4a 0e 3e 27 ac 0b 3d
       -0.06707541 0.03235652 0.13895735 0.034099724

conv_layer.0.bias f4 [16]
000000 27 84 cf 3d d7 f6 70 be 8e 57 34 3d 9f c9 c5 3d
       0.10132628 -0.23531662 0.04402881 0.09657597
000010 69 89 76 bc 2e 07 a9 bd ff 48 a2 bd e1 9f 8f bd
       -0.01504741 -0.082533225 -0.07924079 -0.07012916
000020 b6 9c 04 be a7 99 84 be 5f 44 6e 3d 11 9f 53 bd
       -0.12950405 -0.25898477 0.058170673 -0.05166537
000030 86 cb c9 3c 03 6f bb 3c dd 5b 44 bc a2 d4 0e 3d
       0.02463318 0.022880083 -0.011984793 0.03487075

layer_1.1.weight f4 [16, 32]
000000 74 b8 17 3c 82 85 02 3e 22 a3 8d bd 3c a8 8f 3e
       0.009260286 0.12746242 -0.06915881 0.2805804
000010 df 33 90 3d 6f 88 aa bc 17 32 2b be a0 67 98 be
       0.070411436 -0.02081701 -0.16718327 -0.2976656
000020 29 5a 8d 3d 9a 38 bf 3c b2 80 02 bd d4 f1 00 3e
       0.06901962 0.02334242 -0.031861015 0.1259225
000030 c0 45 1d be 87 e3 13 bd 93 25 f9 bd c5 a5 75 bd
       -0.15358639 -0.03610566 -0.1216537 -0.059972543
000040 47 d9 c5 3d 7c 33 c4 bc 66 27 c4 be 62 4f 30 3c
       0.09660583 -0.02395033 -0.3831131 0.010761114
000050 65 43 cd 3e 26 ad cb be e0 8f 3a be 31 00 a5 bd
       0.4009048 -0.3978054 -0.18218946 -0.08056677
000060 aa 74 05 be 6d 46 a4 3d ee 17 53 3e 5d 90 dd 3d
       -0.13032785 0.08021245 0.20614597 0.10818551
000070 47 92 0f 3d 20 80 ba 3d 5b e2 c7 3d fa 17 f3 bc
       0.03505161 0.09106469 0.09759971 -0.029674519
000080 81 31 59 be 49 73 06 be 8c 76 4a 3e 8a 9a 30 3d
       -0.2121029 -0.13129915 0.19771785 0.04311613
000090 7a fc bc bd 46 0e be bd aa 81 61 be b4 23 62 be
       -0.092278436 -0.09280066 -0.22022119 -0.22083932
0000a0 9f 3e 2d 3e 91 67 8b 3d 72 54 93 3e 3c 39 d2 3d
       0.1691842 0.06806863 0.28775364 0.10264823
0000b0 25 b1 85 3d b0 82 54 3e fb da 82 3d 01 8f ff 3c
       0.06527928 0.20752978 0.063894235 0.03119612
0000c0 fd 9c 95 3e fe 83 ac 3e e8 02 3e 3f c2 af 0f 3f
       0.29221335 0.33694452 0.74223185 0.5612756
0000d0 bc 93 e2 bd 84 84 89 3d 6a 3f ac 3e c8 ee ff 3d
       -0.11063334 0.067147285 0.3364213 0.12496716
0000e0 7a 89 5b 3d a4 1a cc bc 46 97 70 3c 79 c5 ba 3d
       0.053597905 -0.024915047 0.014684504 0.09119696
0000f0 d7 86 ae bd a6 d3 57 3b de d5 6c be 93 23 3c be
       -0.085218124 0.0032932549 -0.23128459 -0.18372945
000100 f7 5f fd bd 52 14 11 bd 36 42 13 3e c2 fe 89 be
       -0.123718195 -0.03541977 0.14380726 -0.26952177
000110 fa 15 07 be 1f 9f 9f 3d ce 72 2d 3e fc d9 00 bd
       -0.13191977 0.07794022 0.16938326 -0.031457886
000120 eb be 99 bc 24 47 19 be 65 ce fa 3c 1e 4c 0b be
       -0.018767795 -0.14968544 0.030615995 -0.13603255
000130 26 e5 f8 3d 4f bf 16 3d 73 5d e1 3c d8 70 3c 3e
       0.121530816 0.03680354 0.02751038 0.18402421
000140 fe 1e 45 bd 1b 3c 06 bd 7b e2 bd 3b 23 21 94 bd
       -0.04812526 -0.032772165 0.005794821 -0.07232883
000150 26 42 89 be 85 e5 85 3d 6d b0 ab 3c fa 02 6d 3a
       -0.2680828 0.06537918 0.02095815 0.0009041276
000160 4f 8c ad 3b e4 99 c7 3d 58 8f b0 bd a5 29 04 be
       0.005296267 0.09746149 -0.08621091 -0.12906511
000170 fa 50 49 3d 05 bb 32 be a0 2e 79 bd d0 1e 6f 3c
       0.04914949 -0.17454155 -0.06083548 0.014594749
000180 9e c6 40 bc 46 0e 32 3e ad 17 b5 be d1 f4 99 3d
       -0.011766104 0.17388257 -0.35369626 0.07517398
000190 7f fa 71 3d 5b c1 86 3d 27 8c c1 3e 3f 5c 77 be
       0.059076782 0.065798484 0.3780224 -0.24156283
0001a0 a2 bd 7d be 3e 10 e6 3d 81 fb 46 be 38 d4 54 bd
       -0.2477937 0.11233567 -0.19431879 -0.0519602
0001b0 ea 56 2c 3e cb ba 7f be f0 1d 8e be 1f d2 3a be
       0.1683003 -0.249736 -0.27757215 -0.18244217
0001c0 2e 55 a7 bd 56 a8 b7 3d b5 7d b5 be cf 46 8d be
       -0.081705436 0.089676544 -0.3544747 -0.27593085
0001d0 5a db 00 3f be 29 3f 3e cd 12 e7 bd 22 78 c2 be
       0.50334704 0.18668267 -0.11282883 -0.3798228
0001e0 b0 c0 62 bc 2e 49 1c 3e 73 ab c2 bd 7b f6 dd bc
       -0.013839886 0.15262291 -0.095053576 -0.02709507
0001f0 fe 49 79 be 7f 6c ff 3d 69 1a 76 be a5 db b2 3d
       -0.24344632 0.12471866 -0.24033512 0.087333
000200 3f 20 bf 3d c7 b9 40 3d 61 fe b3 bd 3c b6 b2 3d
       0.09332322 0.04705217 -0.08788753 0.08726165
000210 ae 7f 0d bd 72 bd d9 bd 2c 73 65 bc c8 59 b0 bd
       -0.034545593 -0.10631837 -0.01400451 -0.086108744
000220 ae e4 0a bd 75 56 08 bb 47 ae 1e be 22 84 fc bc
       -0.033909492 -0.0020803486 -0.15496169 -0.030824725
000230 f2 ca 0a 3d ea 99 28 be 54 59 45 bd b0 8c d9 bd
       0.03388495 -0.16464964 -0.048180893 -0.10622537
000240 e4 69 c2 3c 29 f7 ea 3c 34 fd 14 be fc 25 51 3c
       0.023732133 0.028682308 -0.14549714 0.012765404
000250 de 36 10 3e 94 d0 2e bd 71 79 ec bb 19 af dc 3c
       0.1408343 -0.042679384 -0.0072166254 0.026938962
000260 0b 52 70 bd 8f 86 11 bd 04 81 aa bb 4c 9d 60 bc
       -0.058671992 -0.035528716 -0.005203368 -0.0137093775
000270 81 d4 ed bd 13 d4 11 3d 5a 21 5b be ca 1e f1 3c
       -0.116127975 0.03560264 -0.21399441 0.029433627
000280 d8 17 e9 bd 90 26 11 3d 36 2b 91 3e c5 4c 1d 3c
       -0.11381501 0.035437167 0.2835328 0.009600823
000290 c0 16 93 3d 34 61 a8 3d 3f 38 b8 be d5 ea d1 bd
       0.071820736 0.08221665 -0.35980412 -0.10249869
0002a0 36 7f d8 bd 62 2e 0c bb 5b 81 14 be c8 7b cf 3d
       -0.105711386 -0.002138995 -0.1450247 0.10131031
0002b0 7e 8c a7 3d bb df d4 3c 6c 19 57 3e 97 eb 3f bd
       0.08181094 0.02598559 0.21005791 -0.046855535
0002c0 09 e6 0e 3e 88 b2 20 3d 0f 2d bd 3d be 8b 97 3e
       0.13954939 0.03923276 0.0923711 0.29598802
0002d0 0b 0d 00 3e e8 a6 88 be 31 09 82 3c 72 85 24 3e
       0.12504975 -0.2668984 0.015873523 0.1606653
0002e0 c8 a9 4c 3e 03 5e 00 3a 12 40 de bd c9 43 e4 3d
       0.19986641 0.00048968213 -0.10852064 0.111457415
0002f0 6e 75 09 be 27 b7 3c 3e 63 81 04 be 26 90 87 3e
       -0.13423702 0.18429242 -0.12939982 0.26477164
000300 c1 e2 a4 be bf bf c7 be e6 a5 b2 3d 4c 68 30 3f
       -0.3220425 -0.39013478 0.08723049 0.68909144
000310 38 3b 3b be f8 b1 d0 bc 3b df e9 be c8 f8 0b bf
       -0.18284309 -0.025475487 -0.45678124 -0.54676485
000320 b8 43 ea 3c 8b 82 a3 bd dc 48 4b b8 66 21 5a bb
       0.028596744 -0.079838835 -4.8466827e-05 -0.0033284067
000330 a4 81 0f 3d 4e 1a cc 3d 74 da 8c bd 3f 8c 17 3e
       0.035035744 0.09965955 -0.06877604 0.14799593
000340 52 c8 1f 3f 2e 36 df 3e e1 8f d9 3e e7 5a 62 3f
       0.6241504 0.43596023 0.42492583 0.88419956
000350 5d d2 a1 3e d2 72 c5 be e3 0a af bd 1e aa e7 3d
       0.31605807 -0.38564163 -0.08546998 0.11311744
000360 27 b7 18 be 99 71 11 3d 77 97 85 bd c6 d7 16 bd
       -0.14913617 0.035508726 -0.0652303 -0.03682687
000370 bf bb 64 3d bd 32 30 bd 09 85 23 be 0e 48 a7 b8
       0.05584311 -0.043017138 -0.15968718 -7.976602e-05
000380 76 61 b5 3d 1f a5 db 3d 4e 80 29 be 2e 2b 04 bf
       0.0885648 0.10724854 -0.1655285 -0.51628387
000390 30 96 1c bd d9 0a 06 3e 86 4b e2 3e 84 5b c0 3e
       -0.038229167 0.13090076 0.44198245 0.3756982
0003a0 d1 1d 92 be ae 1f f5 bc 80 3b 01 3e dc ed 51 3d
       -0.28538373 -0.029922333 0.12620354 0.05125223
0003b0 21 f7 4d bd d1 e5 97 3c f1 98 3a 3e 4e ca f8 bc
       -0.05028451 0.018542202 0.18222405 -0.030369904
0003c0 ed f0 b7 be be 4c 4c be b7 f3 8a bd 25 4d e9 be
       -0.35926 -0.1995115 -0.06784766 -0.4556667
0003d0 64 1b b0 be b4 86 e4 3e 3f f6 0d 3e 40 54 73 be
       -0.34395897 0.4463402 0.13863467 -0.23762608
0003e0 c6 d0 39 3c 55 b5 08 3e ab cb da bd 8d 71 b7 bd
       0.011341279 0.13350423 -0.10683378 -0.08957205
0003f0 54 ce 1d bc bd 27 c9 bd 9f 1b 6e bd f2 b7 ab 3a
       -0.009631712 -0.098220326 -0.05813181 0.0013101085

layer_1.1.bias f4 [16]
000000 75 c8 d0 3c d6 10 1a 3e 2f 4b 94 3d 0c 74 05 bc
       0.02548621 0.15045485 0.07240903 -0.0081453435
000010 85 d1 68 bd 1b 75 ef 3d 7e f9 ad 3d a9 1e 77 3c
       -0.05684044 0.11692258 0.084948525 0.015082994
000020 e4 06 b8 be 78 ce e3 be 07 0a cc be 81 e1 58 3e
       -0.35942757 -0.4449346 -0.398514 0.21179773
000030 f0 57 4a 3d 27 b6 c6 bd 76 ab 79 3c f1 6c 8f 3e
       0.04940027 -0.097027116 0.015238633 0.28012803

action_head.weight f4 [4, 16]
000000 a7 58 a7 bd 74 eb 20 3f a0 f1 8a 3c 4d 50 34 be
       -0.08171206 0.6285927 0.016960919 -0.17608757
000010 d3 06 e3 bd 15 97 89 3e cb 35 85 3f 7f f7 93 be
       -0.11085286 0.2687308 1.0407041 -0.28899762
000020 d7 93 2f be e6 7d 61 be 56 55 76 bf a4 dd 8f be
       -0.1714624 -0.22020683 -0.9622396 -0.28098786
000030 73 d3 fe be 2b b3 8c 3d 28 e2 84 3d e2 b3 55 3f
       -0.49770698 0.06870111 0.064884484 0.83477604
000040 c9 d9 e4 be ad 49 7e bd 0e d1 16 bd 89 7b 3a be
       -0.44697407 -0.06208198 -0.036820464 -0.18211187
000050 ae b1 95 3d e7 e9 d1 be 2d 2e 69 be bd 43 a6 3e
       0.0730928 -0.40998766 -0.22771521 0.32473555
000060 29 18 73 3e a0 8c 98 3f 57 73 56 3f 5d 2b 91 be
       0.23739685 1.1917915 0.83769745 -0.28353396
000070 a0 d6 6a 3d f6 ae 3a 3e 30 00 d6 be f7 0f 34 bf
       0.05733359 0.18230805 -0.41797018 -0.7033686
000080 8c 99 c4 bd d8 1f 1f 3d 35 6e 26 3e a6 6f 05 bf
       -0.09599599 0.038848728 0.16252978 -0.52123487
000090 48 fb 25 be 75 49 e0 3d e1 47 0b bf 3c a0 f3 3e
       -0.16209137 0.10951511 -0.54406554 0.47583187
0000a0 4f b1 c5 be ac 18 31 be 03 19 f9 3e 6a 3c f8 3e
       -0.38611838 -0.17294568 0.48651895 0.48483592
0000b0 2c 5f a6 3e 88 05 4a bd cc ad 65 be fe 20 18 bf
       0.32494485 -0.04932168 -0.2242958 -0.5942534
0000c0 09 36 27 3f cc f0 2d bf af 53 6f be 6b 93 16 3f
       0.65316826 -0.6794555 -0.23371767 0.5881869
0000d0 b6 4f 03 3e 3d 09 7b 3d 07 9d 9d be 39 a8 65 3c
       0.12823376 0.061288107 -0.30783865 0.014017158
0000e0 d7 dd 64 3d 48 b1 69 be 62 98 95 3e a4 0c 56 3e
       0.055875625 -0.22821534 0.2921782 0.2090326
0000f0 3a 1b 9f bd ba ab 05 3d 5d b7 eb 3d e2 15 9a be
       -0.07768865 0.032634474 0.11509583 -0.3009482

action_head.bias f4 [4]
000000 01 9d 1b 3e 79 81 c9 bf 89 68 9d bd d3 e0 a3 3d
       0.15196611 -1.5742637 -0.07685954 0.08001866

value_head.weight f4 [1, 16]
000000 ba b1 92 bd e8 59 58 bd 47 f5 0d 3d 01 e4 59 3d
       -0.07162805 -0.052820116 0.034657743 0.053195957
000010 40 2d 14 bc a3 a4 75 bd 4a 59 be be 03 9c 8b 3e
       -0.009043992 -0.059971463 -0.37177497 0.27267465
000020 ac 4e 2d bf af f7 4b 3d f2 4a 5c 3d 63 44 c9 3e
       -0.6769817 0.049796756 0.05378241 0.39309987
000030 6a ae 8e 3d d1 75 f2 3c d4 c7 81 bc ea 1f 03 bd
       0.069668606 0.029597195 -0.015842356 -0.032012857
