models/LinearModelV0.43.pt (torch, 5609 bytes, 7 tensors)

conv_layer.0.weight f4 [16, 1, 3]
00000000: f40a c83e 7a9e bd3e 49f8 d23e efdf 87bd
00000010: d4c1 da3c 6b7e 3bbf f219 84bc 9136 573e
00000020: 6ce5 153e 5a6d 043f 5e66 bc3d 4f9b 253f
00000030: 78c4 38bc ea5b eebc 5079 b6bd ccb8 41bc
00000040: 37d1 83be e669 98be 29e3 bbbc c8f6 e7be
00000050: e410 01be b6ca b13d ea68 8dbe 0092 45be
00000060: fe48 0cbf c991 74be 46ec cdbe c6f9 19be
00000070: 3f69 38bf 3e4d 5bbf c97b 32bf e5c3 983e
00000080: 4c1e d63e d89d 4d3e dc4a a7be 6492 17be
00000090: 99cd 413d 13ad 1b3e 2d98 903d 308c 82bc
000000a0: b842 a43d 0854 583d 783a 04bd 80b7 9a3d
000000b0: 2695 e5bd 4af7 743d d189 533e 2e7c 393d
0.39070857 0.3703497 0.41205052 -0.06634509 0.026703753 -0.73239774 -0.016125653 0.21016909
0.14638299 0.5172936 0.091992125 0.6469011 -0.011277311 -0.029096562 -0.08909857 -0.011823844
-0.25745556 -0.29768294 -0.022935467 -0.45305467 -0.126041 0.08681242 -0.27619106 -0.19293976
-0.5479888 -0.23883738 -0.40219325 -0.15036687 -0.7203559 -0.8566474 -0.6972013 0.29836956
0.4181999 0.20079744 -0.326743 -0.14801937 0.047315214 0.15202741 0.07060275 -0.015935987
0.08020538 0.052814513 -0.032282323 0.07554531 -0.112100884 0.059806146 0.20658042 0.045284443

conv_layer.0.bias f4 [16]
00000000: 5495 943d 9a60 74be a764 803d 001e a33d
00000010: 24a7 7dbc f1d8 8fbd 94ba 82bd 56d8 87bd
00000020: 471e e6bd 80b3 77be d0ae 333d b30c 1abd
00000030: 7b53 2b3d 6f15 073d 56ad 88bc ef27 1d3d
0.072550446 -0.23864976 0.06269198 0.079647064 -0.015481744 -0.070238 -0.06383243 -0.0663306
-0.11236244 -0.24189568 0.043867886 -0.037609767 0.04182766 0.032979425 -0.016684216 0.03836816

layer_1.1.weight f4 [16, 32]
00000000: 2561 c13c 1093 2c3e 7e75 2fba c1dc 833e
00000010: dcef fd3d be1a f9bc fef5 41be 023a 85be
00000020: affa 5d3d 69c3 e93c bab9 81bd 43c4 1b3e
00000030: ead3 67be 13e3 b7bc fca4 26be 6c59 2dbd
00000040: e0d7 b13d aa5d abbd 74fa c6be ddef 91bb
00000050: 6ace bd3e bca7 f2be c6a5 5ebe da68 7abd
00000060: c51c 0cbe 6f13 e43d 3cef 883e 2259 f73d
00000070: cf54 633d 202c fb3d 9d19 343e 6114 26bc
00000080: 8362 3fbe 256b 06be fbb1 cf3d 490d a93d
00000090: b324 0ebe 5189 05be 3620 10be faaf 89be
000000a0: b7b4 703e 6b56 bd3d fbe0 a63e 3f1a 0d3e
000000b0: 2445 f13d 4571 5d3e 939c 763d 6fd6 0a3d
000000c0: 3ac6 863e 3fbf c43e b73f 303f 1c4e 093f
000000d0: e62f d3bd b7b2 003e 33a2 c03e 0c93 dc3d
000000e0: 19ac 0f3d bc67 62bd 8f2e e23b aaee be3d
000000f0: fde6 06be 2da6 f8bc c121 b1be 88aa 89be
00000100: 7759 ffbd 7885 b2bd 1ab0 bf3d ed79 70be
00000110: 675e 43be 86c9 c43d 598f 643e 432f eebd
00000120: b73f 11bc 7fc6 32be 56ea 603d 2e01 1bbe
00000130: e12a 493e b689 d63c e58d 933d 8b4c 573e
00000140: a2d9 a0bd ee18 133d af07 25bc 4cb2 16bd
00000150: 832c 94be 935b c93d 1faa 783d fbc6 fabc
00000160: 1c65 84bb d1d9 013e e926 02be 3413 1bbe
00000170: fb7b 353d dd4f 5dbe c1dc cdbd 6bc6 163c
00000180: e627 19bd a2a4 493e c3ba 80be 96ab 623c
00000190: e835 ca3d 6ecb 953d f43a 9f3e b6a1 37be
000001a0: be0b 9bbe 1ac3 003e 3aec 60be 215a 72bd
000001b0: 7b13 0c3e 7fa2 65be 6617 a7be be4e 34be
000001c0: 1975 60bd fc54 193d 2ed4 9abe 5f5b 7ebe
000001d0: 0d7f 013f 59d1 ca3d 01ab 0dbe c74c b5be
000001e0: 99a7 ce3b e2db 3e3e 6093 d2bd f75d adbc
000001f0: c331 91be 89ab 173e 87cc 79be bae8 b93d
00000200: 70ff d83d dcec a23d 5701 33bd 3559 813d
00000210: f76f 87bc d380 14be 0720 43bd 3569 1bbd
00000220: fdef 68bd 9554 97bb 5183 75be c750 63bd
00000230: d78f c7b9 12b7 40be eb1c b1bd b547 07be
00000240: 5f6d 273d ac89 b9bc d976 21be c3fc a43b
00000250: 5972 1a3e ac04 e5bd 779f 0bbd 8bf9 a13d
00000260: ae49 8bbd ca52 34bd 5fb3 2f3c 6cc9 8abc
00000270: 91c9 2bbe 0a46 753d 91d3 89be a321 683d
00000280: 1101 f8bd 75d4 b33d f0d0 a63e e683 d9bc
00000290: 1c96 e33d 21bc c03d 8e80 c5be a638 5cbd
000002a0: 0dbb 16be 2766 ddbb 2c69 48be 1c8a f73d
000002b0: 42f0 5b3d 14bd 2a3d 3551 5d3e dc1c 21bd
000002c0: 70f1 193e 39f6 70bc 75c3 783d e49a 843e
000002d0: b8d5 0c3e 6538 9ebe d70a 8fbc c2ea 6a3e
000002e0: 33a0 923e 1dec 4f3b 082b 18be 05dd fc3d
000002f0: 8f5d 27be 0844 673e 47e5 1dbe 1b14 bb3e
00000300: f938 98be f827 c4be 7cf5 4d3d 5a60 2d3f
00000310: e76e 41be d2ff 6cbd 8a04 cdbe 2b9c 09bf
00000320: 148b 813c c5d3 a5bd f38b 29bc d05a 163c
00000330: a01d 0c3d 7bc0 f03d 6371 a2bd 7306 373e
00000340: f754 163f 9351 dd3e 7e6e ca3e 0efd 533f
00000350: 0b9e 8e3e aa84 aebe c8f5 a7bd c542 d53d
00000360: 55a5 3bbe 4e7a c43c b84f a2bd 14c6 9fbd
00000370: dc07 793d 4794 83bd 128e 3bbe 552d 95bc
00000380: 7b10 8f3d b63e be3d 33d7 23be cbe7 00bf
00000390: c71c 79bd 88e1 283e 8a3d d23e a132 ba3e
000003a0: 2fd4 97be 802f 20bd a5a9 193e 88a2 393d
000003b0: 7a93 17bd cf4f 163c 33bc 533e 3e5a 59bd
000003c0: d45f aabe 6e12 42be e90f 4abd a9a0 cfbe
000003d0: 0a71 9dbe 9cef d73e 3706 173e f3be 7ebe
000003e0: ccad 8c3c ab6c 223e a5e0 f5bd 7797 95bd
000003f0: 93d3 8ebc 5b35 e0bd ca7c 91bd 2dcf c13a
0.023605892 0.16852975 -0.0006693228 0.2575436 0.12399265 -0.03040826 -0.18941495 -0.2602082
0.05419415 0.028535562 -0.06334253 0.15211587 -0.22639433 -0.022447145 -0.16273874 -0.042321607
0.08683753 -0.083674744 -0.38862956 -0.0044536428 0.37071544 -0.47393596 -0.21742925 -0.06113515
-0.1368285 0.11136519 0.2674502 0.120775476 0.0555008 0.122642756 0.17587896 -0.010136695
-0.18689923 -0.1312681 0.10141369 0.08254487 -0.13881187 -0.13040663 -0.14074787 -0.26892072
0.23506437 0.092449985 0.3259352 0.13779543 0.11780766 0.2162524 0.060207915 0.033895906
0.2632311 0.3842716 0.6884722 0.5363481 -0.1031187 0.12568174 0.37623748 0.107702345
0.035076234 -0.05527471 0.006902523 0.09322865 -0.13174053 -0.030352676 -0.34596065 -0.26887918
-0.12468236 -0.087168634 0.093597606 -0.23484011 -0.1907898 0.0960875 0.22320308 -0.11630108
-0.008865288 -0.17458533 0.05491098 -0.15137169 0.19645263 0.026188713 0.072047986 0.21025293
-0.0785401 0.035912447 -0.010072633 -0.03679113 -0.2894021 0.098319195 0.060709115 -0.03061246
-0.0040403735 0.12680747 -0.12710156 -0.15144044 0.04430769 -0.21612497 -0.10051871 0.00920258
-0.037391566 0.19691709 -0.25142488 0.013834855 0.09873563 0.07314192 0.31099665 -0.17932782
-0.30282396 0.12574425 -0.21965113 -0.059167985 0.13679306 -0.22425269 -0.3263504 -0.17608163
-0.054799173 0.037434563 -0.30240005 -0.24839543 0.5058449 0.09903211 -0.13834764 -0.3541014
0.0063066003 0.18638566 -0.10282016 -0.02116297 -0.28358278 0.14811529 -0.24394427 0.09077592
0.10595596 0.079553336 -0.04370245 0.06315843 -0.016532881 -0.14502268 -0.047637966 -0.03794213
-0.056869496 -0.0046182373 -0.23975874 -0.055496957 -0.00038063407 -0.18819836 -0.08648094 -0.13210948
0.04087579 -0.022648655 -0.15767993 0.0050350144 0.15082683 -0.11182532 -0.034087624 0.07908925
-0.06801163 -0.044024266 0.010723918 -0.016941749 -0.1677611 0.059881248 -0.26919225 0.056672703
-0.121095784 0.08780757 0.32581282 -0.026552152 0.111126155 0.09410883 -0.38574642 -0.05376496
-0.14719792 -0.0067565623 -0.1957137 0.12086889 0.053695925 0.041684225 0.2161301 -0.039334163
0.15033507 -0.014707142 0.060733277 0.25899422 0.13753402 -0.309024 -0.017461224 0.22941115
0.28637847 0.0031726428 -0.14860165 0.12346844 -0.16344284 0.22584546 -0.15419494 0.36538777
-0.29730967 -0.38311744 0.05028294 0.67725146 -0.18889962 -0.057861157 -0.40042526 -0.5375392
0.015813388 -0.080970325 -0.010348308 0.009176925 0.03420794 0.11755463 -0.07931783 0.17873554
0.58723396 0.432263 0.39537424 0.82808006 0.27854952 -0.3408559 -0.08201176 0.10413126
-0.18324788 0.0239841 -0.079253614 -0.07801452 0.06079851 -0.06424766 -0.18315914 -0.018210093
0.06985565 0.09289305 -0.1600006 -0.5035369 -0.06081846 0.16492283 0.41062576 0.36366752
-0.2965407 -0.0391078 0.1500612 0.045321018 -0.03700588 0.009174301 0.20677261 -0.053064577
-0.33276236 -0.18952343 -0.04933158 -0.4055226 -0.30750304 0.42174995 0.14748465 -0.24877529
0.017172717 0.15861766 -0.12005738 -0.0730428 -0.01743487 -0.10947677 -0.0710388 0.0014786475

layer_1.1.bias f4 [16]
00000000: d99b 303c c7c4 2d3e 2863 a03d ddec 1b3c
00000010: 9650 58bd f146 013e 2d81 ce3d 4037 c63b
00000020: 6012 b9be 92cd e5be ed8e d9be c7f8 543e
00000030: 71c0 1e3d 292b e0bd 58c5 0f3d a2d2 9d3e
0.0107793445 0.16969596 0.078314126 0.009516922 -0.052811228 0.12624718 0.10083232 0.006049067
-0.36146832 -0.448834 -0.42491856 0.20798026 0.038757745 -0.10945732 0.03510031 0.30824763

action_head.weight f4 [4, 16]
00000000: 043c a9bd 564d 183f 48d3 c43c 83e4 54be
00000010: a25a 09be 6db9 923e 7c5f 7b3f 9bb6 8ebe
00000020: fcb1 29be 4ee0 58be 60cf 63bf 1423 8cbe
00000030: b0f9 f5be 1e48 573d 5a6a 5a3d a5c2 413f
00000040: dc5e f7be 8ae7 85bd 29e3 25bd 9bdb 45be
00000050: df15 983d aec8 d6be 68f8 80be c2e0 c73e
00000060: 8225 653e cb6e 993f d87d 5e3f 348e 87be
00000070: 9917 bc3d 8068 3f3e b014 e2be c9bc 42bf
00000080: e625 55bd 1f6c 4dbc 2f47 173e 372f ccbe
00000090: 4e8a 12be 15f1 853d 9448 09bf f4a9 f63e
000000a0: 8cab cfbe 63f5 05be e4e7 d23e c745 013f
000000b0: a8cc 803e 18bd 02bd 4c0e 5cbe 5b37 03bf
000000c0: bd6b 223f ca2b 1dbf 258a 68be 023d 013f
000000d0: dd8a 013e f4eb cc3d e7ca 87be c508 7b3c
000000e0: b4fa 843d 9058 80be ffd6 a13e 0a96 3c3e
000000f0: 22d1 f9bc 09a8 e33c 03bb d43d b3fe adbe
-0.082634 0.59493005 0.024026528 -0.20790295 -0.1341348 0.28657094 0.9819257 -0.27873692
-0.16571802 -0.21179315 -0.88988304 -0.27370512 -0.4804206 0.05255901 0.05332408 0.7568763
-0.4831456 -0.06538303 -0.04049984 -0.19322054 0.074260466 -0.4194998 -0.2518952 0.39038664
0.2237759 1.1986936 0.8691077 -0.2647568 0.091841884 0.18692207 -0.44156408 -0.76069313
-0.052038096 -0.012537985 0.14773248 -0.39879772 -0.14310572 0.065401234 -0.5362637 0.4817654
-0.40560567 -0.13081889 0.41192544 0.50497097 0.2515614 -0.031918615 -0.21489829 -0.5125634
0.63445646 -0.6139494 -0.22708948 0.50483716 0.12650628 0.10005942 -0.2652199 0.015321915
0.0649313 -0.25067568 0.31609342 0.1841661 -0.03049523 0.027790086 0.10387232 -0.33983383

action_head.bias f4 [4]
00000000: 96ef 1d3e 1d60 c6bf 4717 03be 0424 a93d
0.15423426 -1.5498081 -0.12801848 0.082588226

value_head.weight f4 [1, 16]
00000000: e9f9 a3bd 6f9d abbd 5e3e 6f3d 06b0 ba3d
00000010: 5604 23bc abf0 c9bd fe4d c5be 7dd0 9d3e
00000020: 089e 27bf ed52 973d b716 a53d 2677 d33e
00000030: 1c2d e13d 78e2 2f3d 3e55 0ebd 6b36 79bd
-0.08006651 -0.083796374 0.058409087 0.09115605 -0.009949764 -0.09860357 -0.38536066 0.30823126
-0.6547551 0.07388864 0.08060973 0.4130184 0.10994932 0.042940587 -0.034749262 -0.060842913
